model/model.pth (torch, 16787 bytes, 4 tensors)

linear1.weight f4 [256, 11]
00000000: ac0e cdbd eabd 7bbe 89bd d93e 978b ba3d
00000010: faa8 66be b404 8cbe 7567 023d c9e9 15be
00000020: d935 503d 020d 933e d01b cebd 23f8 46be
00000030: 78ee 243f f2ae 22bd e4f3 e0bc f583 cc3d
00000040: 1e7d 2cbe f206 013d 6b5d 9a3d 9d62 523e
00000050: b49d 0ebd 7215 833d 513e 5f3d 0d4d c33e
00000060: 48ff 9a3e ed88 a63e 1388 803e 6334 1f3e
00000070: cee2 183e 00f6 ae3d 6349 073e ccce b1bd
00000080: a87f 873e a2e9 213d 981c e13d 71dd a7be
00000090: da3d 8bbe 3b87 7c3e 1bfe 2c3e 28f1 b43c
000000a0: 6153 453e 8bcb cfbe 55f6 2bbd 522e 66bd
000000b0: 887e efbe ab26 ce3e 8f7d ef3e bd41 02be
000000c0: 7c62 833e 02d6 273c 3762 e9bd 4ff1 693c
000000d0: aff9 7b3b 4f95 9d3e 2628 183e 113c c5bd
000000e0: abb3 7b3d 1944 b93e 26a9 183d 09a7 a8bd
000000f0: 4050 1dbe 3bcc 23be d08d 27be c252 0b3e
00000100: 81c1 15be beea 85bc fa2e ce3d a5be 3e3e
00000110: 873b 3fbe dd8b 86be 619f eebd 37ff 693e
00000120: 5d9e 0e3e 0a84 2c3e ac67 14be 2376 52be
00000130: 9940 94bd 9597 dc3d a1ab 66be 55c7 3a3e
00000140: fc0e 603e 9233 bdbd 2834 95be fcb9 4f3e
00000150: 0c87 16bc 3e38 59be 411b 4b3d b956 c93d
00000160: 8fd1 cb3d 6884 f63c 48ee b03d 73a2 573e
00000170: 50f0 7c3d 32f1 a7be ea52 6b3c fcd2 d2be
00000180: b5fe 423d 86f1 67be f789 533e ca35 91be
00000190: b651 bf3e 5a5c 513b 8b48 213e 1edd 1a3e
000001a0: 3690 b4bc be71 023e ea13 8e3e 2711 c6bd
000001b0: 2d6a 623e bb82 803e 5a91 e53e 5b9a 68be
000001c0: 0930 153f 1db0 0ebd 7fc7 a7bd ac86 0abd
000001d0: 951c 8c3d 99bb 7b3e 7b29 5b3e 29ee 613e
000001e0: 1cbc 5e3d b831 103e 0321 543e 9dc7 49be
000001f0: 300d 11be ec3a 90be 7e00 733e b4ac bfbe
00000200: 3666 6c3e 2936 1b3e fd60 84be c625 803e
00000210: 8e02 6d3e 845f 803e e7af 8ebd 3eb6 a13e
00000220: 9ff1 85be c9ce b1bd f1b9 30be e5b4 9cbe
00000230: e144 a63e d1c6 96be a1b6 b13e b357 163e
00000240: ac35 cabe 3775 0a3f 3c1c 443e 4e07 923d
00000250: 78d1 6e3e a464 3c3e feca 833e 98e9 a63e
00000260: b49f b53c 77f4 c0bd 54af 1cbe f2ca 1c3d
00000270: 9484 99bb 5600 493e 936e 7fbe 22ac 3c3e
00000280: 2b98 2fbe 8677 3bbe 2718 0d3d 55e7 9bbe
00000290: 9d37 64be 0140 9ebd 4df4 d5be e6ca da3d
000002a0: 06a1 23be 60a0 0fbe f7c1 563e caa0 763e
000002b0: 720f 963e d640 8b3e cc71 69bd 57b2 e5bd
000002c0: ad78 b3bd b670 f23e f8ce 3dbe 6712 47be
000002d0: 8dd4 a3be 2ebb 6c3a cf7a d63d d17d 6cbe
000002e0: 0eb6 4abe f909 33bc 4b40 333e 6f54 a23d
000002f0: 4093 e13e f911 e5be 7fbc ebbc ee78 1cbd
00000300: 5b61 1c3e dd84 82bd b5f6 0e3d 1ad1 d33d
00000310: 13bc 85be 7018 e53d 845c 523e 0854 7bbd
00000320: 6292 26be d045 1bbe 42a6 3abe f26f e1bd
00000330: e86e a5bd 681e ab3d 08b8 3dbe 277e 51be
00000340: b6d7 84bd 3225 003c 7401 19be 8e9f 803e
00000350: faeb 733e af55 e8bd 869b fb3d cfd0 e1bd
00000360: dc1e 183d b876 8c3e 6a0a 203e e98f 3d3e
00000370: 3c93 94be ab2c a8bc 1390 8cbc 49fa e83c
00000380: dd39 9a3e 2f22 aabe 084e 49be 1de5 1abe
00000390: 64ec c6be 666b 3b3e f6be a93c 391e 0cbd
000003a0: 3d01 283c ae4f f63e d340 363e ada8 b33d
000003b0: 3947 a03e 206c 51be 5938 303e 96bd 87be
000003c0: 46ed 57be 0f80 853e 40ed 013b 78df e9bd
000003d0: d14b 26be 3c72 5abe f1fb 963d a0a8 3bbe
000003e0: 730d 56be acb8 5fbd 761e b1be 9a9e 9d3e
000003f0: 1942 6dbe f6c9 3b3e 5a12 e03d cb90 33bd
-0.10012564 -0.24584165 0.42527416 0.09108656 -0.22525397 -0.27347338 0.031836946 -0.14639963
0.050832603 0.28720862 -0.100638986 -0.19430594 0.64426374 -0.039717622 -0.027460046 0.09986106
-0.16844603 0.031500764 0.07537349 0.2054543 -0.034818366 0.06400575 0.05450279 0.38144723
0.3027289 0.3252634 0.25103816 0.15547328 0.14930269 0.085430145 0.13211589 -0.086820215
0.2646458 0.03952945 0.10991782 -0.32786134 -0.27195626 0.24660961 0.16893809 0.022087649
0.19270088 -0.40584978 -0.041982967 -0.05619652 -0.46776223 0.40263876 0.4677548 -0.1272039
0.25661075 0.0102438945 -0.11395686 0.014278724 0.0038448384 0.30777976 0.14859065 -0.096305974
0.06145064 0.36184767 0.037270688 -0.082349844 -0.15362644 -0.15995876 -0.16362691 0.13605788
-0.14624597 -0.016347285 0.10067554 0.18627413 -0.18675052 -0.26278582 -0.11651493 0.22851263
0.13927598 0.16847244 -0.14492673 -0.20552878 -0.072388835 0.107710995 -0.22526409 0.18240102
0.21880716 -0.09238352 -0.29141355 0.20285791 -0.009187471 -0.21212861 0.04958654 0.09830994
0.099520795 0.030092433 0.086391985 0.21058063 0.061752617 -0.32801205 0.01436303 -0.41176593
0.04760619 -0.22650728 0.20658098 -0.2836135 0.37367028 0.0031945915 0.15750329 0.15123412
-0.022041421 0.12738702 0.27749568 -0.0967124 0.22110815 0.2509974 0.44837457 -0.22715132
0.5827642 -0.034835923 -0.08192348 -0.03381984 0.06841389 0.24583282 0.21402542 0.22063507
0.054378614 0.14081466 0.20715718 -0.19705053 -0.14165187 -0.28169954 0.23730657 -0.3743645
0.23085865 0.15157379 -0.25855246 0.2502882 0.23145506 0.25072873 -0.069671445 0.31584352
-0.26160905 -0.08682019 -0.17258431 -0.30606762 0.32474425 -0.2944856 0.34709647 0.14681892
-0.39494073 0.54085106 0.19151396 0.071302995 0.23322093 0.18397766 0.25740808 0.32600093
0.022170879 -0.09421628 -0.15301257 0.03827948 -0.004684994 0.19629034 -0.24944524 0.18425038
-0.17147891 -0.18307313 0.03444686 -0.3044993 -0.2228684 -0.077270515 -0.4178795 0.10683231
-0.15979394 -0.14026022 0.20972429 0.24084774 0.2930866 0.27197903 -0.05699329 -0.11215656
-0.087632515 0.47351617 -0.18535984 -0.19440614 -0.319981 0.00090305775 0.10472643 -0.2309487
-0.19796011 -0.010927671 0.17504995 0.07926261 0.44057655 -0.44740275 -0.028776405 -0.038201265
0.15271513 -0.06372998 0.034903247 0.10342617 -0.26120052 0.11186302 0.20543104 -0.061359435
-0.16266778 -0.1516335 -0.18227485 -0.1100768 -0.08077794 0.08355409 -0.18527234 -0.2045828
-0.06486456 0.007821368 -0.1494196 0.2512173 0.23820487 -0.11344468 0.12285523 -0.11026155
0.037138805 0.27434325 0.15628973 0.18511929 -0.2901858 -0.020529112 -0.017158544 0.028439658
0.3012227 -0.33229205 -0.19658673 -0.15126462 -0.38852227 0.18302688 0.02072094 -0.03420851
0.0102542015 0.48107666 0.17798166 0.08772407 0.3130434 -0.20451403 0.17208995 -0.2651183
-0.21086606 0.26074263 0.001982525 -0.114195764 -0.16239859 -0.2133264 0.07372273 -0.18326044
-0.20903568 -0.054619476 -0.34593552 0.30785066 -0.23169746 0.1833876 0.10941 -0.043839257

linear1.bias f4 [256]
00000000: 3691 a43c f819 83be cea0 603e 11c7 a23b
00000010: d1c6 813e f964 7a3e 77c9 32be 9857 3f3e
00000020: c5f9 a9bd 8ecc 843e 83b6 bcbc 8378 36be
00000030: e2cd 4ebe ceb6 90bd 6a28 afbd 1b6f 47be
00000040: 672a 723e 7672 39b9 2ab9 99be 14eb 063d
00000050: 7a58 1f3e cf74 183e 2aa5 d43d cc1e 44bd
00000060: 8145 b5bd 0f6a 33be c3c4 c1be 33a9 763d
00000070: 1ed8 eebd 4fa5 1c3e 1a84 cd3d 7177 f4bc
00000080: cf6b 71bd 5925 213e 6e61 13be f048 2cbe
00000090: 62ee 0abd f673 2b3e 592c 813d 6820 183d
000000a0: 0b91 9cbe 14da a93d cfb2 1e3e 4dc9 163e
000000b0: 58e8 8bbe 0f6d 58be 8462 cf3d 35fa 9bbd
000000c0: 7c5b 05be 7c9e 133e 4875 653e 2503 ba3e
000000d0: 423a 523e c3ac 993c 8f72 11be 875d f1bd
000000e0: 5993 81bd 25da ae3e 0d09 2cbe d49a 7cbe
000000f0: f7e5 3e3e 4e98 933e df29 ccbd 25e4 093e
00000100: 18a7 2abe 0f34 b2bd fa24 673e a8ba 8b3d
00000110: 6d09 653e 4828 383d 310e 233d 1739 8c3c
00000120: 7c9b c6bd c092 a63c a70d 903e 6017 90be
00000130: 7aba 2abe cd24 0f3c d516 23bd 5ef9 c6bc
00000140: ed81 d83b 6c14 a13e 0c3c 613e 9108 863e
00000150: 823e 58bd d0da 173e c064 ff3c d3cf 1abe
00000160: 17bd e93d 75e7 83bd a8c3 4e3d d4d6 08be
00000170: 7a7b cabd a09f cabd 7924 24be 1409 2f3e
00000180: e54c 7a3e 2754 1d3e 01ed 723e b9df 843e
00000190: f71f 333e c69d 813c 4ace 02be 5908 8ebd
000001a0: 253e 5b3e b1bf 313e 9a24 5a3c aebe e23d
000001b0: 0730 8b3d 3081 963d 4825 55be d006 243e
000001c0: 9d50 88be a7f7 96bd 3b97 abbd 2b69 4ebe
000001d0: d27b da3c 1ee2 43be 3ce0 aebd c920 d63d
000001e0: 258b 783e 6330 febc dafc c53d 62bc ec3d
000001f0: 2e1b 483c bc3c 70bd 543d ee3d 5fe0 83bd
00000200: 887c b53d 2400 2cbe d9fa 5c3d 8d43 8ebe
00000210: 32c7 3cbe 5c74 9b3d 24a4 61bd 3024 1a3e
00000220: 36e7 44be 7ee8 87bd 0b21 813d df9c 2cbe
00000230: 4c44 3abe 705b 553e 6c0d 09bd c2a4 93bd
00000240: 47ad 5bbd ec92 ae3d dbe8 01be 084c 1f3d
00000250: bc19 2ebe cd96 22be 8e15 ad3d 223a f8bd
00000260: e2cc 183e c50c 8cbe 0ddf 033e 3f90 143d
00000270: aa18 f7bd 56de b0bd ed94 bebd 27a8 7bbe
00000280: 81ef 57be 636c 45be 884e a83d a6e4 55be
00000290: 3847 c9be 35a3 1ebc 747a d73e e2ba 1abe
000002a0: 567c c5bc bcfe 203d 96fd 9cbd 4f29 4e3c
000002b0: 24cc 68be c6e8 8c3b cdb6 053e 5f72 4ebe
000002c0: 04af 2ebd e3b6 293e ef1e 8d3d 5db6 25be
000002d0: dc3f 513d 60a9 8a3d 9268 6b3e d0eb 2a3d
000002e0: 081a 48bd b281 bb3e 64a9 babe 779e 05be
000002f0: 365c 403c 8095 aebd 15dc f73d 841d 963d
00000300: abd1 c4bc 7a55 a03e 52f4 90be c448 653e
00000310: 4c33 863e 66f9 033e 774b 2b3e a196 83bc
00000320: 9e3f d03d 0271 94be 8567 c83d bc4e f73d
00000330: 9e22 8d3e ee78 3b3d 8f68 173d 8ebb 69be
00000340: 5a9b 26bc 1f09 8ebe 8723 44be a465 87be
00000350: 7a32 83be 5c3b a43d d36f 3e3e a052 4b3e
00000360: d22f ffbd 80ba 79bb 0621 923e cba6 5bbd
00000370: e917 f03c feac 5b3e b789 86be 4c5c 93be
00000380: 87fd d4bd b1b3 043e 2010 c63d 26f8 173e
00000390: 09c3 173e 7eb9 4cbe 113b c6bd c429 19be
000003a0: a259 2fbd 6f57 383d 70b7 7a3d 7084 0fbc
000003b0: b742 883e e33a 9c3e 7df6 933e 7456 623e
000003c0: 6917 98bd 442b 64bd 68f6 f73d 02c1 1d3e
000003d0: 772f 6a3d 4e14 263e 3f30 fd3d 085a 393d
000003e0: ecb8 293d 9c56 1ebd 661b 43bd ef51 7f3e
000003f0: 6934 d4bc 6c14 523e 5609 ebbd 1d9e 5dbd
0.020088773 -0.2560575 0.21936342 0.004967578 0.25346997 0.2445258 -0.17459665 0.18685758
-0.08299593 0.25937313 -0.023036247 -0.17819409 -0.20195726 -0.07066117 -0.0855263 -0.19475977
0.23648988 -0.00017685615 -0.3002408 0.03293903 0.15561095 0.14888309 0.10383065 -0.047880933
-0.088511474 -0.17520927 -0.3784543 0.060219955 -0.11662315 0.15297435 0.10034962 -0.02984211
-0.058940705 0.15736903 -0.14392635 -0.16824698 -0.033918746 0.16743454 0.06307287 0.03714028
-0.3057941 0.08293548 0.15497898 0.14725228 -0.27325702 -0.21135353 0.10126212 -0.076160826
-0.1302318 0.14415926 0.2240802 0.36330524 0.20530036 0.018759137 -0.14203857 -0.11785417
-0.063269325 0.34150806 -0.16800328 -0.24668437 0.18642412 0.28827137 -0.09968924 0.13465936
-0.16665304 -0.08701336 0.22572699 0.06822711 0.22366877 0.04496029 0.039808456 0.017117066
-0.09697625 0.020333648 0.28135416 -0.28142834 -0.16672698 0.008736801 -0.039816696 -0.02428883
0.0066072852 0.31460893 0.21995562 0.2617841 -0.052793987 0.14829564 0.031175971 -0.15118341
0.11413019 -0.06440631 0.05047956 -0.133632 -0.098868325 -0.09893727 -0.16029538 0.17093307
0.24443395 0.15364133 0.23723222 0.25951937 0.17492662 0.015822303 -0.12774006 -0.06935186
0.21410425 0.1735828 0.013314391 0.110715255 0.0679627 0.07348859 -0.20815003 0.16018224
-0.26624003 -0.07371455 -0.08378454 -0.20157306 0.02667037 -0.19129226 -0.08538863 0.10455472
0.2427183 -0.031028932 0.09667368 0.11559369 0.012213511 -0.05865167 0.11632791 -0.0643928
0.08861643 -0.16796929 0.053950164 -0.27785912 -0.18435362 0.07590553 -0.055088177 0.15052867
-0.19228825 -0.06636141 0.063051306 -0.16856717 -0.18190116 0.20835662 -0.033460066 -0.072091594
-0.053632047 0.08524117 -0.12686484 0.03889087 -0.17002004 -0.15877838 0.08451377 -0.12120463
0.14921907 -0.27353492 0.12878056 0.036270376 -0.12065251 -0.08636157 -0.09305749 -0.24575864
-0.21087457 -0.19279628 0.08218104 -0.20888004 -0.39312148 -0.009682466 0.42085612 -0.15110353
-0.02410714 0.039305434 -0.07665555 0.012583091 -0.22734123 0.0043002097 0.13058014 -0.20160817
-0.042647377 0.16573672 0.06890666 -0.16182847 0.05108629 0.06770587 0.22989109 0.041728795
-0.04885295 0.36622387 -0.3645736 -0.13048731 0.011740735 -0.085246086 0.12102524 0.073298484
-0.024025759 0.31315213 -0.28311402 0.22391039 0.2621101 0.12888107 0.16728006 -0.016063036
0.10168384 -0.28992468 0.0978537 0.12075564 0.27565473 0.045769624 0.03696495 -0.22825453
-0.010168875 -0.27741334 -0.19154178 -0.26444733 -0.25624448 0.080191344 0.18597345 0.19855738
-0.12460293 -0.0038105547 0.2854082 -0.053625863 0.029308276 0.2145271 -0.26276943 -0.28781354
-0.10399919 0.12959172 0.09671044 0.14840755 0.14820494 -0.19992635 -0.09679235 -0.14957339
-0.04281009 0.04500526 0.061210096 -0.008759603 0.266134 0.30513677 0.28898993 0.22103292
-0.0742634 -0.055705324 0.12107545 0.15405658 0.057174172 0.16218683 0.12362718 0.045251876
0.04143612 -0.038656816 -0.04763355 0.24933599 -0.025903897 0.20515603 -0.1147639 -0.054105867

linear2.weight f4 [3, 256]
00000000: 24dd fbbd 2430 913d 510e 35bd 6d15 55be
00000010: d2e0 8e3d d9ce 143c c045 35be 7d52 0cbd
00000020: 08e2 d3bd d702 863c 893b 3fbe 7f8b 19be
00000030: 4177 19be 534b b4bd e9dd b7bd d32a 33be
00000040: b58b 203e 4181 34bd 223f 5e3d b808 adbd
00000050: 2d50 8dbe 6ac8 8fbc 9cfe 0a3c 7900 a03d
00000060: 50af 0abe 9fe6 89be c9e0 3fbd 877e b1bd
00000070: d306 00be 979f 95bc 0a83 c3bd 6ddd 07be
00000080: 3989 d6bd 1889 983d ac0a 53be 846c 35bc
00000090: 4978 75be 61b9 bcbd abf0 b1bc 505d 45bd
000000a0: bd88 44bd dfab fdbd 8078 91bd ab59 723e
000000b0: 28f5 153d 2562 1dbd 6497 acbd fb9f 2ebe
000000c0: 7b1f 32be ae1c 9b3c 836e 1b3d 451e 39bd
000000d0: 7772 46bc b5e8 0e3e a913 06bc 5475 65bd
000000e0: ce6e 323e 7c11 aa3c 289b e8bc 7d06 1ebe
000000f0: 83f5 ebbc 91a4 2e3d 43ef 683d 86a9 86bc
00000100: 181b 993d f22a abbd 66aa ac3c d31a b23d
00000110: eddb 44bd ea26 64bd 5281 c83d 03aa 99bd
00000120: 3220 24be d55e 8abd 5174 e8bd f98b a3bb
00000130: 6de9 1e3d 08fb 97bd ea2a b5bd 8991 603e
00000140: 11bb 323e 84d7 9c3c 7826 d6bc 169f d6bc
00000150: 3a88 d73d 659d 283d 5da4 63bd d5eb 8d3b
00000160: f6a4 0fbe 6d88 583e c471 bfbd 58af 17be
00000170: d1b0 02be 6c4a 37bd 1556 2cbe 019a 65bd
00000180: 6d61 b7bd fe7e d13c 0da5 963c 9648 07bd
00000190: 2fbc a8bd 5103 ed3c 4f52 9abd 93f9 39bd
000001a0: 8758 b63d 6f1b 97bd a02d c23d d9a7 08be
000001b0: 1eb6 a93d 293e 583d d20a c8bd bd90 543d
000001c0: 4fa8 bd3d aa37 85bd 5b2a a5bd 105e 733d
000001d0: 7e8b cabd 574c 2bbe 06e1 98be bcc3 7bbd
000001e0: 537b 97bd a2e5 c8bd 3535 87bd b960 093d
000001f0: 1e5a dfbd fee7 58bc 12a1 edbc 5a64 f13d
00000200: ab77 b13e 6959 80bd cdb6 a6bd 7bc0 16bc
00000210: db99 e0bd e8eb 9a3d 416b 553d 40af 41bd
00000220: 4591 11be 7e2b 22bb 8c07 4c3c 70e7 803d
00000230: e8bf 8bbc c9bc 503d 1ab5 22be e950 363e
00000240: 4c2a 97be 61a0 e33d f927 893d 2118 47be
00000250: 7660 53bd 2a36 a4bd 84a0 76be 91ad b1bd
00000260: 5af9 913d 2ee5 4dbd c5ff 6dbd e5d2 ca3d
00000270: e309 aebd df8e e1bd fcf3 9f3d 3ce2 47bd
00000280: d431 28be 8761 37be 55a5 353c bc35 9bbe
00000290: 055a 8a3d 1441 963b edcb 9f3d be7d 373c
000002a0: 30af 6e3d 202b eb3d 9445 7dbc 8ef5 17be
000002b0: 1c5e 13bd 84da 74bd e8c6 fcbd 2075 473e
000002c0: e19c 933d a403 523c bc83 0abe 5f53 1fbe
000002d0: 0189 cebd 900f 163e 5061 323e 5f54 71bd
000002e0: 1c67 21be 5cff b13c 0b56 9d3c a5b3 6dbe
000002f0: afd0 0abe 689c 98be 6561 4abe a599 1bbe
00000300: a7ea 423e ecfc a43c e061 03bd afb9 04be
00000310: e457 9f3d c360 a3bd fe93 43bd 8f7e 073d
00000320: 08b7 edbd cb64 3ebd 9850 81bd c645 d5bd
00000330: 6e8f a5bd 007d 163e e111 9abd 2ac3 07bd
00000340: e1b7 10be 6d46 76be cb20 223d b661 873a
00000350: 6f08 23be d101 8dbd d063 ae3d 3757 013e
00000360: f720 fd3c 51ae 16bd 9e13 44bd eae9 27be
00000370: beec c73d 2f51 7dbd e99e 03be 7005 08bd
00000380: eb57 0f3e 348b bcbc b0e0 7d3d a029 a3bd
00000390: fbb7 a8bd 0ca6 52bd 70b6 1dbd f4f9 213e
000003a0: 7ffb 81bd 7126 133e 6dd3 87bc 2359 0dbe
000003b0: cde3 053d 0d03 91bd a27e 6ebd b703 d03c
000003c0: 8568 143e 7814 12be b30c d53d 8424 8dbc
000003d0: 1b14 8f3d 4318 a1bd 40a3 e3bd fea3 b6bd
000003e0: 1c06 d6bd f77a f83d 8fa9 86be 64fa 6f3d
000003f0: 69d7 89bd f467 42bd dd6b f2bd b3ea 16bd
-0.122980386 0.0708926 -0.044203106 -0.20808955 0.06976475 0.009082519 -0.17702389 -0.034258354
-0.103458464 0.016358776 -0.18675055 -0.1499462 -0.14986898 -0.088034295 -0.08977873 -0.17496805
0.15678294 -0.04406858 0.054259427 -0.084489286 -0.27600232 -0.01755162 0.008483555 0.0781259
-0.13543439 -0.26933762 -0.04684523 -0.08666711 -0.12502603 -0.018264575 -0.09546478 -0.13268061
-0.10475392 0.074480236 -0.2060954 -0.011073235 -0.23971666 -0.09215046 -0.021721205 -0.048184693
-0.047981966 -0.123862974 -0.07103062 0.23667018 0.036610752 -0.038423676 -0.08427313 -0.17053215
-0.17394821 0.018934574 0.03794719 -0.045194883 -0.0121122515 0.13955958 -0.008183398 -0.056020096
0.17425081 0.02076029 -0.028394297 -0.15432163 -0.028803593 0.04263741 0.056868803 -0.016438257
0.07475871 -0.083578005 0.021077346 0.086965226 -0.0480613 -0.055701174 0.09790291 -0.0750313
-0.16027907 -0.06756369 -0.113503106 -0.0049910513 0.03879683 -0.07420927 -0.08846076 0.21930517
0.17454173 0.019145735 -0.02614139 -0.026198905 0.1052403 0.041165728 -0.05557667 0.004331092
-0.14027771 0.21145792 -0.09347871 -0.14812982 -0.12762763 -0.04474871 -0.16829713 -0.056055073
-0.08954129 0.02557325 0.01838925 -0.033028208 -0.08239018 0.028932245 -0.0753523 -0.04540403
0.08903604 -0.073782794 0.094813585 -0.13345279 0.08286689 0.052793656 -0.09767689 0.051895846
0.09260618 -0.06504758 -0.08064719 0.059415877 -0.09889887 -0.1672834 -0.2985918 -0.061465964
-0.07396569 -0.09809424 -0.06601945 0.033539508 -0.1090586 -0.013238905 -0.029007468 0.11786719
0.34661612 -0.06267054 -0.08140335 -0.009201164 -0.109668456 0.07564527 0.05210424 -0.047286272
-0.14215572 -0.0024745162 0.012452971 0.06294143 -0.017059281 0.05096129 -0.15889397 0.17804302
-0.29524457 0.11114574 0.06697077 -0.19442798 -0.051605664 -0.080181435 -0.2408467 -0.08675683
0.07127638 -0.05026739 -0.05810525 0.09903506 -0.084979795 -0.110135786 0.07810208 -0.04879974
-0.16425258 -0.17908297 0.0110867815 -0.30314434 0.06755451 0.0045853946 0.07802568 0.011199413
0.05827254 0.11482835 -0.015458483 -0.14839765 -0.03597842 -0.059778705 -0.12342626 0.19478273
0.07207657 0.012818251 -0.13526815 -0.15559147 -0.10084725 0.14654374 0.17419934 -0.058918353
-0.1576199 0.02172821 0.019206068 -0.2321306 -0.13556169 -0.29806828 -0.19763716 -0.1519533
0.19034825 0.020140134 -0.032075763 -0.12961458 0.07780436 -0.0797744 -0.04774856 0.03307968
-0.11607176 -0.046482842 -0.063142 -0.10413699 -0.08083998 0.14696121 -0.075229414 -0.033145107
-0.14132644 -0.24050303 0.039582055 0.0010328803 -0.15921186 -0.06885112 0.085151315 0.12630926
0.030899508 -0.036787335 -0.04787027 -0.16397825 0.09761952 -0.061845 -0.12853588 -0.03320831
0.13998382 -0.023015596 0.061981857 -0.07966924 -0.082382165 -0.051427886 -0.038504064 0.15818006
-0.06346797 0.14370133 -0.016580308 -0.13803534 0.03268795 -0.0708066 -0.058226235 0.025392396
0.14492996 -0.1426562 0.10402813 -0.017229326 0.06986257 -0.07865956 -0.11115122 -0.08917998
-0.10450384 0.12132829 -0.26301238 0.0585884 -0.06730539 -0.04746242 -0.118369795 -0.03684492

linear2.bias f4 [3]
00000000: 8166 9bbc 89fa a4bd 03c9 90bd
-0.018969776 -0.08055598 -0.0706959
