model_backup_10.pth (torch, 42263 bytes, 6 tensors)

linear1.weight f4 [128, 11]
000000 65 63 21 be d3 94 26 be ac 46 47 be 50 3b 37 3d
       -0.15760572 -0.1626771 -0.19460553 0.0447343
000010 74 21 ee 3d 28 a1 4c 3d 43 fc 48 be e8 18 02 3e
       0.116274744 0.049958378 -0.1962748 0.12704813
000020 d0 5f e7 3d ea 8f 4d be 8e e5 85 be 24 b5 fd 3d
       0.11297572 -0.2007443 -0.261517 0.123880655
000030 d4 88 33 3e dc 8a 3d be d8 db 6d bd 8a f9 35 be
       0.17532665 -0.18510002 -0.058070987 -0.17770973
000040 89 2e 5f be 44 20 94 be b0 da e2 3c 04 91 72 bd
       -0.21795096 -0.28930867 0.027692169 -0.05922033
000050 a1 86 85 be f8 e4 b0 bd dc f8 0a be 5a ee 37 3e
       -0.26079276 -0.08637422 -0.13571495 0.17962018
000060 e0 72 1e bd 3c a1 6c 3e 08 cd 5f 3d ee 3c f0 bd
       -0.038683772 0.23108381 0.054638892 -0.117303714
000070 22 33 84 be 40 21 3c bc 40 5d b3 3d 00 d4 51 3b
       -0.2582026 -0.011482537 0.087580204 0.003201723
000080 8d 32 44 be cc 76 b7 bd 4c fe 3e be 70 73 19 bd
       -0.19159909 -0.089582056 -0.18651694 -0.037463605
000090 40 f4 f2 3d 88 a9 6e 3e 40 bb 8f be 2c 46 92 3d
       0.11862993 0.23306859 -0.28072548 0.071422905
0000a0 29 e1 c6 bc 84 da b3 bd 1b 31 26 be 58 b1 dc 3b
       -0.024277287 -0.08781913 -0.1622967 0.006735008
0000b0 1e 2b 85 3e 8e 7d 27 3e bc 6f 92 be 30 36 62 3e
       0.26009458 0.16356489 -0.28600872 0.22090983
0000c0 4e c6 b6 bd 3d 51 0b be 8a 27 3f be 2b 96 21 3e
       -0.08924542 -0.13605209 -0.18667427 0.15779941
0000d0 ad c8 ad bc a8 4a 0e be 3d d9 26 be 7c 25 40 be
       -0.021213854 -0.13895667 -0.16293807 -0.18764299
0000e0 c5 a5 8f be a0 3a e3 bd f2 01 68 be 82 30 b8 bd
       -0.2805616 -0.11095166 -0.22656992 -0.08993627
0000f0 80 cf 7b 3d a2 fc 33 be 2f 8c e0 3a 43 56 17 be
       0.061477184 -0.1757684 0.0017131622 -0.14779
000100 62 b4 88 bd 48 e6 33 be 10 d0 38 bd c8 0f 3d bd
       -0.0667503 -0.17568314 -0.0451203 -0.04615763
000110 18 d3 7d bd c2 68 28 3e aa ee 90 be aa 8d 6f be
       -0.061968893 0.16446212 -0.28307086 -0.23393884
000120 60 b6 72 be b7 b5 20 3d 65 9f 20 3e 78 17 a9 3b
       -0.23702383 0.039235797 0.15685804 0.0051602684
000130 12 75 11 3c 90 ae a9 3d 01 5b 1a be 78 39 e3 3d
       0.008878009 0.08285248 -0.15073778 0.11094946
000140 0a a0 b2 bd 38 9a 05 3e e3 dd 8b be 40 9b 50 bd
       -0.08721931 0.13047111 -0.27317724 -0.050929308
000150 7b 85 3f be d2 ba 93 3d 93 33 29 3d e2 72 09 bd
       -0.18703263 0.072133675 0.04130895 -0.033556826
000160 a6 7b 47 be c0 fc d6 bb 18 1f 64 3d c0 a3 67 3e
       -0.19480762 -0.006560892 0.055693716 0.2262106
000170 b0 6c a7 bd 2e ae 1e be 9e 12 8e bd 9f c1 f8 3d
       -0.08175027 -0.15496132 -0.06937145 0.12146305
000180 d9 5b 0a be 32 cb 78 be 75 68 aa be 40 85 3f bc
       -0.135116 -0.24296263 -0.3328282 -0.011689484
000190 a4 14 5a 3e fb f5 62 be 98 6c c5 3d 34 aa 0d 3e
       0.21296936 -0.22164147 0.09639853 0.13834459
0001a0 b8 1a 52 bd c8 4a 63 3d d4 53 0e bc c0 54 f9 bc
       -0.051295012 0.05549124 -0.008686978 -0.03043592
0001b0 06 82 82 3d 7a 4a 6c 3d b0 08 71 3e 1c cf 89 bd
       0.06372456 0.057688214 0.2353847 -0.06728956
0001c0 89 91 95 be bc 64 f2 3d 60 02 96 bc 80 af 12 bd
       -0.29212597 0.1183562 -0.01831168 -0.0358119
0001d0 08 cd 5a 3e e7 b3 70 be 9e b5 8f be 0f 33 69 3c
       0.21367276 -0.23506127 -0.2806825 0.014233365
0001e0 1d 9f 52 be 6c 79 6e bd a0 70 b1 bd 7c a8 2e be
       -0.2056851 -0.058221266 -0.0866406 -0.17056459
0001f0 4c 68 44 3e 0d ac 0f be 74 2b 8a be f6 b2 02 be
       0.19180411 -0.14030476 -0.26986277 -0.1276358
000200 c0 64 90 3c 14 19 4d 3e 00 f0 af 38 4c 3d b5 3d
       0.017626166 0.20029098 8.389354e-05 0.08849582
000210 9f 75 87 be 6e 33 b5 bd 1f 0d 1b be 60 f7 f1 3c
       -0.26456925 -0.088477 -0.15141724 0.029536903
000220 f4 3f 72 3e 78 7c 6d 3e 47 85 43 be 7a c1 ca bd
       0.23657209 0.23192012 -0.1909381 -0.09900184
000230 a8 5d 90 be d6 d8 82 be 38 a3 f3 bd 96 db 3b 3e
       -0.28196454 -0.25556058 -0.11896366 0.18345484
000240 be e4 87 be 3c 45 50 be d4 91 d0 3d c8 4b fb bd
       -0.26541704 -0.20338911 0.101840645 -0.122703135
000250 10 e7 fe bc e4 69 2f 3e 0e 3d 82 be 35 16 3d bd
       -0.031116039 0.17130238 -0.25437206 -0.046163756
000260 af 32 26 be 75 f2 44 be ca df 83 3e 8e 92 0a 3e
       -0.16230272 -0.19233115 0.25756675 0.13532469
000270 84 e2 8f be 08 3c 25 3e d8 4c 8c 3d d8 6b 37 be
       -0.28102505 0.16136181 0.06850594 -0.17912233
000280 b3 95 2f be 66 ea 9a bc e0 cd 75 bc 26 3b 3c 3e
       -0.1714695 -0.018910598 -0.015002698 0.18381938
000290 d8 9d 04 3d f0 9f b1 3d 60 6c 5c 3d 28 30 4f 3e
       0.032377094 0.08673084 0.053814292 0.20233214
0002a0 3c af e3 3d 92 0f 89 3e 4c 08 52 3e c8 89 38 3d
       0.11117408 0.26769692 0.20510978 0.045053273
0002b0 ea 0f 44 be 08 99 4e be e9 91 95 be b3 b3 91 be
       -0.19146696 -0.20175564 -0.29212883 -0.28457412
0002c0 2a 36 d5 bd ce 7a 04 3e 4e a9 64 be 80 24 08 bc
       -0.104107216 0.12937471 -0.2233021 -0.0083094835
0002d0 24 b9 75 be 70 77 0d 3d 70 99 d0 3c 31 0c 53 be
       -0.23996407 0.034537733 0.02546379 -0.2061012
0002e0 2a e1 38 3d 09 58 4b be f1 e9 91 be 78 e4 75 3d
       0.04513661 -0.19857801 -0.28498796 0.060032338
0002f0 54 68 66 be 77 6c 75 be 8c ec 0c be d4 6e 92 3e
       -0.22500736 -0.23967157 -0.1376211 0.2860018
000300 f5 4f 31 be 3e 30 0e 3e c0 2e f0 bc 51 ed 21 be
       -0.17315657 0.1388559 -0.029319167 -0.15813185
000310 e0 62 a4 3d 5e 14 91 be c0 8b a1 bd 94 6f 0f be
       0.080266714 -0.2833585 -0.07887983 -0.14007407
000320 70 d9 6d 3e 38 ec 65 3e 68 2e c4 3d 68 c1 89 3e
       0.23227477 0.22453392 0.09579164 0.2690537
000330 05 a3 88 be 50 e6 d2 3d 5c b8 4e bd d2 ee dc bd
       -0.26686874 0.10297835 -0.050468788 -0.10787739
000340 f1 d2 42 bd c0 7c fa 3d 82 d2 8b be 98 03 5c be
       -0.04756445 0.122308254 -0.27309042 -0.21485746
000350 76 42 1d 3e 5c ca b0 3d 60 7b 77 3d 00 98 98 3b
       0.15357384 0.08632347 0.060420394 0.0046567917
000360 3b 23 69 3d 80 ed a1 bc 77 05 31 be a4 e1 32 be
       0.056918364 -0.01976657 -0.17287241 -0.17468888
000370 1c c7 09 be 7e ba 96 3e c4 3a 82 bd e0 78 76 bc
       -0.1345486 0.29439157 -0.06358865 -0.015043467
000380 b6 f0 2d be 08 33 55 3d 48 cf f1 3d 42 b3 96 be
       -0.16986355 0.05205062 0.11807114 -0.29433638
000390 00 83 0c 3e 2b 2a 08 3d 85 3a 6f be ac 36 7d 3e
       0.13721848 0.03324334 -0.23362167 0.24727887
0003a0 6a 61 14 3e f8 34 49 bd a0 2b c4 3c 42 ff 66 be
       0.14490286 -0.04912278 0.023946583 -0.2255831
0003b0 d0 3c b0 bc c2 18 11 be 44 ae e5 3c e5 40 11 3e
       -0.021513373 -0.141696 0.028037198 0.14184912
0003c0 b7 fe 73 be 92 ef 81 3e 98 cc 84 3d c0 4b 45 bd
       -0.23827635 0.2537809 0.06484336 -0.048167944
0003d0 d0 f8 b9 bc b4 84 87 bd f0 72 be bc 06 1c c8 bd
       -0.02270165 -0.06617108 -0.023248166 -0.0977097
0003e0 00 29 8c ba 7f b6 29 bd a6 fa f0 3d 3b 79 65 be
       -0.0010693371 -0.041433807 0.117665574 -0.22409527
0003f0 aa 4c 54 be d0 da 5c bd 92 e7 6a be f2 70 49 be
       -0.2073237 -0.053919613 -0.229399 -0.19671991

linear1.bias f4 [128]
000000 ec 77 4b be b0 2c 41 bd 83 68 31 be 29 c2 a9 bc
       -0.19869965 -0.047161758 -0.17325024 -0.020722466
000010 c6 54 d0 bc 3b 67 b1 39 da 94 07 3e 7a 4d 3b be
       -0.025431048 0.00033836983 0.13240376 -0.18291274
000020 f0 1b fd bd c9 1d b9 bd a4 b3 50 be c2 8f bd be
       -0.12358844 -0.09038884 -0.20381027 -0.3702374
000030 50 ba db bd b8 9a c6 3d 4e ab ab be 70 dc 8b 3d
       -0.10728896 0.09697479 -0.33529133 0.068291545
000040 2d c5 f3 3d f5 91 55 be 02 73 03 be 24 79 26 be
       0.11902843 -0.2085646 -0.12836841 -0.16257149
000050 e2 3e 76 be 81 54 47 3e 61 96 05 3d 78 6c 7c be
       -0.24047425 0.1946583 0.032614116 -0.24650753
000060 47 8d 09 bd 40 26 27 be 79 c8 07 be 12 e7 e5 bc
       -0.033582 -0.16323185 -0.13260068 -0.028064284
000070 82 e7 c3 3c b8 00 61 be 06 96 ea 3d 87 88 c9 3d
       0.023914102 -0.2197293 0.11454396 0.09840494
000080 b8 cf 09 3d 40 e4 08 bd a7 93 d2 bb 09 24 79 bd
       0.03364536 -0.0334208 -0.006426293 -0.06082538
000090 9b d2 ec bd 40 09 2f 3e 9d 2c 8e be a0 5c 5b 3d
       -0.11563607 0.17093372 -0.27768412 0.05355513
0000a0 85 3f 53 be d6 94 1b be 02 25 3c be 54 13 d4 3d
       -0.206297 -0.15193495 -0.18373492 0.10355249
0000b0 d4 9d 50 be 62 8a 92 be 62 76 08 3e 0a 2f 24 be
       -0.20372707 -0.28621203 0.1332641 -0.16033569
0000c0 d3 3c 53 be 1b e5 8d be fc 1a 65 3e f1 5a ae 3c
       -0.20628671 -0.27713856 0.22373575 0.021283599
0000d0 85 ad 34 bd 36 79 1e be ff 93 d1 3c c0 7f 68 bc
       -0.044110794 -0.15475926 0.025583265 -0.014190614
0000e0 72 66 41 be 30 59 bd 3d b8 ac 31 be b2 ad 92 be
       -0.18886736 0.09245527 -0.17351043 -0.28648144
0000f0 3c c4 b5 3d 65 3d ce be a3 52 fa bd 43 39 80 be
       0.08875319 -0.40281215 -0.12222793 -0.25043687
000100 15 55 90 bd 48 16 01 3e 5b 9f d8 3d 58 ef 58 3d
       -0.07047478 0.12606156 0.1057727 0.05296263
000110 0b 60 34 bd cf 9e 1e 3d 90 06 f2 3d 52 69 1c 3e
       -0.044036906 0.03872567 0.11817658 0.15274552
000120 2d a6 19 be 61 e0 22 be 1c 8b d6 3d ad 0c 8d be
       -0.15004797 -0.15905906 0.10475752 -0.27548733
000130 15 7c eb 3d 20 bc 1b 3d 60 3c c5 be 09 62 09 bd
       0.11498276 0.038021207 -0.38522625 -0.03354076
000140 12 11 35 be c8 d2 51 be 65 b4 14 3e 59 53 78 3a
       -0.17682293 -0.20490563 0.1452194 0.0009472869
000150 8d 07 3a 3d af 6e e1 bd f2 32 4d be 26 3c c8 bd
       0.045417357 -0.11007439 -0.20038965 -0.097770974
000160 a8 9f e4 bb c2 35 85 be ad 0f 93 be 9a f6 74 bd
       -0.0069770403 -0.26017576 -0.28722897 -0.05980549
000170 15 d3 35 be 35 af b0 bc 9c 3d 82 be 73 c0 7a bc
       -0.17756303 -0.02156792 -0.2543763 -0.0153046725
000180 e6 1c a6 be ea 4e d8 bd b2 a3 1a 3e 27 18 bd be
       -0.32443923 -0.10561927 0.15101507 -0.3693249
000190 71 80 08 bd 19 ce 0e 3e fc a7 59 be 8d e8 72 bd
       -0.033325616 0.13945808 -0.21255487 -0.05930381
0001a0 45 4c 84 be a6 29 5f be 23 74 07 be c7 f6 af 3c
       -0.2583944 -0.21793231 -0.13227896 0.021479977
0001b0 70 2a ee 3d 54 13 08 bd 1a d7 1c 3e aa 40 04 be
       0.11629188 -0.033221558 0.1531643 -0.12915292
0001c0 54 d8 5d be ce 59 b2 be 09 ca 98 be 6d a1 49 3e
       -0.21664554 -0.3483414 -0.2984164 0.19690485
0001d0 24 f3 1e 3d 5f e6 91 bd e1 0b 9e be 23 e2 62 be
       0.038806096 -0.07124018 -0.30868438 -0.22156577
0001e0 34 10 72 be 4d 9f 51 3c 2a 62 e5 bd 23 57 81 be
       -0.23638994 0.012794328 -0.11200364 -0.25261793
0001f0 ab 7e 44 3d ad 0c bf bd 63 e7 55 be 52 06 0a 3e
       0.047972362 -0.093285896 -0.20889048 0.13478974

linear2.weight f4 [64, 128]
000000 6c 1a c8 bc 25 af 50 bd 99 63 93 3d e0 bd e3 3c
       -0.024426661 -0.05094828 0.07196731 0.0278005
000010 bb 5e 78 bd 0d c9 00 be fb ea 11 be c0 f8 a8 bc
       -0.060637217 -0.12576695 -0.14249794 -0.020626426
000020 20 56 b1 3b 50 8c 27 bd 06 3a 33 3d 65 d9 67 bd
       0.005411878 -0.040905297 0.043756507 -0.056603808
000030 c1 a2 88 3d 9a 80 9b bd 64 d1 6a bd 84 85 45 bd
       0.06671668 -0.07592888 -0.057328597 -0.048223034
000040 52 e9 2d bd 04 ad ac 3c 4a 17 64 3d 70 ba 99 bd
       -0.04245884 0.021078594 0.055686273 -0.07506263
000050 7a 97 f8 bc b6 35 5b bd 24 c6 90 bc 9e 67 6c 3d
       -0.030345667 -0.05351802 -0.017672606 0.057716005
000060 5e 7d e6 bd 0a e6 1b 3d 88 fb 02 3c 41 b0 b3 3d
       -0.11254381 0.03806118 0.00799454 0.08773852
000070 73 c0 6f bd 1c c8 f9 3c a4 59 be bd a4 c4 f0 bc
       -0.058533143 0.030490927 -0.09294441 -0.02939064
000080 e4 77 ab bd 18 ff 03 3c ae 4c 7f 3d b4 52 db 3c
       -0.08372477 0.008056425 0.062328987 0.026772834
000090 42 2b 31 3d 3a 8d 51 3d 94 4d a5 bc 06 25 69 3d
       0.043254144 0.051160075 -0.020178594 0.056920074
0000a0 44 89 c7 bd f0 ff f9 bb 00 a6 9f bb b0 c0 d5 3c
       -0.09742978 -0.007629387 -0.0048720837 0.026092857
0000b0 a7 9e 94 3d d6 a0 45 3d 10 47 8c 3c 66 f0 9b bd
       0.07256823 0.04824909 0.017123729 -0.07614212
0000c0 72 91 85 bd 6b 3c ad 3d ca 57 78 bd ae 85 78 bd
       -0.06521882 0.084587894 -0.060630597 -0.060674362
0000d0 62 65 22 bd 9c 4c 2e 3d 7e 36 78 bd bb b2 05 bd
       -0.039647467 0.04255353 -0.060598843 -0.032641154
0000e0 e8 3b 21 3c e0 09 26 bd 00 be a1 ba cf e3 97 3d
       0.009840943 -0.04053676 -0.001233995 0.07416498
0000f0 51 3c 2c bd e0 27 8a 3c ec 89 c0 3c ab f3 b3 3d
       -0.04204971 0.016864717 0.023503266 0.0878671
000100 6d 87 5e bd a1 9a 8b bd 05 9c 3b bd 93 68 72 bd
       -0.05432837 -0.068166025 -0.04580309 -0.05918176
000110 74 fe 13 3d 86 42 d9 bc d5 ec 92 3d 41 11 97 bd
       0.036131337 -0.026520979 0.071740784 -0.07376338
000120 b8 31 00 be b4 44 02 bd b6 28 c8 bd f0 f6 5e bc
       -0.12518966 -0.0318038 -0.0977339 -0.013608679
000130 88 4f f0 3c d6 04 14 bd fa 07 73 3d 64 be da bc
       0.029334798 -0.036137424 0.05933378 -0.026702113
000140 ac b0 ff bc 94 7f 04 3d b2 d5 5e bd eb bc 86 3d
       -0.031212173 0.03234823 -0.054403014 0.06579002
000150 61 a8 a0 3d 5b c8 61 bd 4a e1 d5 bc 14 45 df bc
       0.07844616 -0.055122714 -0.026108403 -0.027254619
000160 c7 25 5c 3d db d9 88 3d 30 23 14 3c 65 9f 7b bd
       0.053746965 0.06682178 0.0090415925 -0.061431307
000170 b2 9f 00 3d 4e 73 1d be 04 ce 92 bd f9 96 10 bd
       0.031402297 -0.15376016 -0.071682006 -0.03530023
000180 60 55 13 3b d2 fb 5b 3d e7 36 dc ba 12 d6 9d bd
       0.0022481307 0.05370695 -0.001680103 -0.07706846
000190 4c 87 1c 3c b0 68 24 3c 30 6f 7c 3c e3 48 6e bd
       0.009553742 0.010034725 0.015407369 -0.05817498
0001a0 3b 27 85 bd 00 70 81 bb 81 6c 8c 3d ff 0c 98 bd
       -0.06501623 -0.003950119 0.06856633 -0.07424354
0001b0 7e 84 b2 bd 0f aa a6 bd 07 33 c2 bd e9 a3 60 bd
       -0.08716677 -0.08137905 -0.09482389 -0.054843817
0001c0 75 03 92 3d e2 6c 34 3d e4 39 b6 bc f4 aa 0d 3d
       0.071295656 0.04404915 -0.022244401 0.03458686
0001d0 44 50 09 bd 6d e9 9f 3d 88 fe 75 bc ba 6d 4f 3d
       -0.033523813 0.07808194 -0.015014298 0.050641753
0001e0 a0 fc 09 3b c8 96 52 bc ce dc 64 3d 00 e1 ca 39
       0.0021055117 -0.012853332 0.05587464 0.0003869608
0001f0 6a d9 bc bd 41 92 0b 3c f4 b2 d3 3c 4a 92 82 bd
       -0.09221156 0.008518756 0.025842167 -0.06375559
000200 52 a6 91 bd 4e ca 7f 3d 1c f1 3e bd 73 52 09 be
       -0.07111801 0.062448792 -0.04661666 -0.13410358
000210 02 c0 09 bb bb 0d e2 bb 7d 46 ca bc 5e 7a 3f bd
       -0.0021018987 -0.0068986095 -0.024691815 -0.046747558
000220 20 f8 26 3d ef 14 b8 3a f4 c4 dd bd 7b 08 b2 bd
       0.040763974 0.0014044325 -0.108285815 -0.08693024
000230 b0 d1 48 bd 1c 89 ed 3d 72 0b 03 3e c4 75 4b 3d
       -0.0490281 0.11598417 0.12797335 0.049672857
000240 d4 87 94 3d df bc 8b 3d db 6f 1b be 6b 67 0a 3d
       0.0725247 0.06823134 -0.15179388 0.033790033
000250 3e 02 f2 bc db 48 ff bd 2b 3d e9 3d 06 1d 72 3d
       -0.029542085 -0.12465068 0.1138862 0.05910971
000260 6c ec 1c 3d fd 60 18 3e cd 0f d6 bc 35 dd 90 3d
       0.038311407 0.14880748 -0.026130581 0.07073442
000270 aa 91 df bc 34 f3 c1 3c 7b 90 0c be 31 a7 a4 3b
       -0.027291138 0.023675539 -0.1372699 0.0050248136
000280 83 90 81 bc 70 26 1b 3c 4b ab bc 3d 39 d7 3e 3d
       -0.015815979 0.009469613 0.09212359 0.04659197
000290 86 6d 94 bd 84 65 47 3d ba fe 38 3d e4 d0 94 bd
       -0.072474524 0.048680797 0.0451648 -0.07266405
0002a0 5c fa 62 bc 43 8b 1c be d2 00 72 3d 2e 58 98 3d
       -0.013853636 -0.15287499 0.059082814 0.07438694
0002b0 22 f5 37 3d 8e 14 f7 bc 1b ac 4c 3c 48 fe 66 3c
       0.04491151 -0.030161168 0.012492205 0.014098711
0002c0 ad fe 2a bc b6 72 60 3d ba 5e 07 3d 0d 68 18 be
       -0.010436696 0.054796897 0.033049323 -0.14883442
0002d0 37 bd 00 bd 23 97 c9 bb 9d 28 aa bc f2 2e 10 3e
       -0.03143045 -0.00615205 -0.020771319 0.14080408
0002e0 29 53 ad bd 6e db 8c bc 4a 03 20 3d 00 3e a8 bd
       -0.08463127 -0.017194476 0.039065637 -0.082149506
0002f0 f0 84 16 bc 44 14 00 bd 11 5f 4e 3d ec 73 d9 3d
       -0.009186968 -0.031269327 0.05038363 0.106178135
000300 f1 f6 29 3e 2f 1c 1c bb 51 66 35 3d 2b 92 fa bc
       0.16598107 -0.002382051 0.04428703 -0.030587276
000310 6e fc ae 3d 2b 8d ae bc 70 26 87 3d 90 e0 b8 3d
       0.08544241 -0.021307549 0.06599128 0.09027207
000320 a0 e1 38 bc ce 15 e5 3c 3d 32 7b 3c e2 d8 16 bd
       -0.011284262 0.027964499 0.015331802 -0.03682793
000330 86 ea 00 bc 08 30 01 bc 1e 5e d9 bd bf d2 d3 bd
       -0.007868415 -0.007884987 -0.106136546 -0.10342931
000340 cb 7b 91 bd e6 48 c3 3c 82 d9 76 bd 84 14 f7 3c
       -0.0710369 0.023838472 -0.060266025 0.03016115
000350 16 98 88 3c f8 19 8d 3c be 89 d9 bc c0 6b e5 bb
       0.016674083 0.017224297 -0.026554938 -0.00700137
000360 26 d2 ec bc 23 9e 06 3e f5 74 54 3d 2f 54 21 bd
       -0.0289088 0.13146262 0.05186935 -0.039386924
000370 6d 3b 48 3d 37 9a 59 3d cf 41 8a 3d f7 7f 1a 3d
       0.048884798 0.053125586 0.06750833 0.037719693
000380 73 7c f4 bd 1e 8b 77 bd 8b 84 31 3d cd c6 3c bd
       -0.11937799 -0.060435407 0.043339293 -0.04608803
000390 23 a1 3c bd 72 c9 2e 3d b8 33 54 bd 2d 2c ba 3c
       -0.04605211 0.042672582 -0.051807135 0.022726143
0003a0 02 95 9b bd fa 00 f0 bc 11 38 84 3d 0c eb 3b 3d
       -0.0759678 -0.02929734 0.06456006 0.045878455
0003b0 3b c4 9e 3d 35 1c 8d 3b 7e da 76 be e3 b3 ef bc
       0.07752272 0.004306341 -0.24106786 -0.029260581
0003c0 35 9c 98 3d da bd d7 3d 93 90 55 bd c9 c6 a7 3d
       0.07451669 0.10534258 -0.05213983 0.08192212
0003d0 11 57 f8 3d 38 75 37 bd cf 78 23 bd ab 8f 12 3d
       0.121259816 -0.044789523 -0.039910134 0.035781544
0003e0 08 66 b6 3c 81 33 fa bd d7 e3 03 bd 86 03 9b bc
       0.02226545 -0.12216855 -0.032199707 -0.018922579
0003f0 38 c3 71 3d 61 9c 16 bd 0e 4d 81 bb 06 70 8f bc
       0.059024066 -0.03677023 -0.003945953 -0.017509472

linear2.bias f4 [64]
000000 50 93 cf bc 06 17 cc bd 10 eb 17 be e2 02 46 bc
       -0.025338799 -0.09965329 -0.14835763 -0.012085648
000010 dd 99 a2 bd 28 91 e1 bb da c6 c4 bd e5 ec 43 bc
       -0.07939503 -0.006883759 -0.096082404 -0.0119583355
000020 68 4f 81 bc 3b 4b e3 bc 8b 20 43 3c f6 ca ee bd
       -0.015784934 -0.027745834 0.011909614 -0.116598055
000030 9d 2a 31 bd 18 7b 46 bd 28 e7 3e bd b8 c4 22 bd
       -0.04325353 -0.048457235 -0.046607167 -0.039738387
000040 cc 1a ce bc 77 44 33 bd 65 7a 36 3e ff 41 c3 bd
       -0.025159262 -0.043766465 0.17820127 -0.09534072
000050 77 4b 97 bc 07 e8 30 bd 26 9f 06 bc b1 82 2f bd
       -0.018468602 -0.04319003 -0.008216655 -0.042849246
000060 4a 8f 85 bd 02 39 38 bd df 7e 9d bc 8c d9 f2 bd
       -0.06521471 -0.044976242 -0.019225536 -0.118579
000070 0a 7a 92 bd 5f 44 84 bd 89 fb 5f bd 36 99 3b bd
       -0.07152183 -0.06458353 -0.054683242 -0.04580041
000080 77 cb e7 bd ca 05 fd bd fc 2b 9b 3b c1 6e ed bd
       -0.11318105 -0.1235462 0.004735468 -0.1159339
000090 bf f2 ba bc ea 86 46 bd be d8 0b 3e 18 b3 77 bd
       -0.022820828 -0.048468508 0.136569 -0.06047353
0000a0 79 f9 45 bc 3e 95 e2 bd b9 06 6e bd fe 2f b1 bd
       -0.012083405 -0.11063622 -0.05811188 -0.08651732
0000b0 17 9b eb bd 5b 36 08 be 27 41 44 bd 20 58 80 3b
       -0.115041904 -0.13301985 -0.047913697 0.0039167553
0000c0 49 78 76 bd a0 9b 03 3c 3d f3 88 bd 02 63 27 bd
       -0.060173307 0.008032709 -0.06687019 -0.040865906
0000d0 4b ab ea bd 45 fb a7 bd e4 f3 85 bd eb 3f 34 3c
       -0.11458453 -0.08202223 -0.06540659 0.011001567
0000e0 f7 38 d2 bd f2 cc 00 bc 17 8d 8b bd 7c e8 79 bd
       -0.102647714 -0.007861363 -0.0681402 -0.06101273
0000f0 15 95 74 bc 8d 82 06 bc d3 61 37 bb b3 6d 2a bd
       -0.014928122 -0.008209837 -0.0027981892 -0.041608524

linear3.weight f4 [3, 64]
000000 60 ab fc bd f6 5f 1e 3d 49 7c 4d 3c d6 0b 02 3d
       -0.12337375 0.038665734 0.012541839 0.03174957
000010 17 bf d2 3d 96 eb 5f bc e9 b0 7e bd db f2 03 3d
       0.10290354 -0.013667008 -0.062180433 0.032214027
000020 a4 bd 0d bd dd 37 88 bd 30 e4 14 3c fb d9 b1 bd
       -0.034604684 -0.0665128 0.009087607 -0.086841546
000030 78 c7 a5 bc 58 0f c9 bc 7e 09 b2 bc b2 80 7d bb
       -0.020236716 -0.02454345 -0.021733042 -0.0038681445
000040 b8 59 cb 3c bc b6 f4 bd ea 34 66 be 75 44 61 bd
       0.024823055 -0.11948916 -0.22481123 -0.054996926
000050 9b 79 32 3d 83 37 a9 bd 92 d0 8b 3d 89 d3 ac bd
       0.043573003 -0.08262541 0.06826891 -0.08438785
000060 2e 45 26 bd ae 2a 36 bc 79 44 2b 3c 2d 38 b8 3b
       -0.04059332 -0.011118574 0.010453337 0.005621931
000070 cc 7f dd bd 8c e6 d7 bd b5 1d 74 bd 5e dc 54 3a
       -0.10815391 -0.1054202 -0.059598643 0.00081199955
000080 b4 b8 4d bd b2 24 85 3d 64 80 83 bc 1f f6 3e bd
       -0.050224975 0.0650114 -0.016052432 -0.046621438
000090 c8 53 66 3d 48 ea 7a bd a6 73 fc 3c 0a 42 97 bd
       0.056232244 -0.061258584 0.030816864 -0.07385643
0000a0 99 cb 3e bd 72 17 ee 3d 53 e5 7c 3c 61 bc ea bc
       -0.046580885 0.116255656 0.0154355345 -0.02865428
0000b0 36 9e 40 bb 20 ef 6c bd c0 9c 7a bd 67 33 2a 3c
       -0.0029391176 -0.057845235 -0.061184645 0.010388232
0000c0 b2 b4 85 bd cf 5e 8d bb 6f 89 a8 3c 58 2f 64 bd
       -0.065286055 -0.0043142806 0.020573346 -0.055709213
0000d0 50 10 b3 bd 39 86 82 3d 6a c9 c4 bc 39 11 72 3d
       -0.08743346 0.06373257 -0.024021823 0.059098456
0000e0 0d 54 2a 3d 94 45 d4 3c d1 a0 0c bd f8 95 3d 3d
       0.041584063 0.025912084 -0.034333054 0.0462856
0000f0 53 81 f8 bc 76 18 41 3d 89 e8 8c 3c c0 39 ca 3d
       -0.030335104 0.04714247 0.017200725 0.09874296
000100 f2 49 29 bd ca bb 9d 3d b2 a8 93 bd 72 22 d8 bc
       -0.041330285 0.077018335 -0.072099105 -0.026383612
000110 19 b1 fc 3d 38 81 2f bd 83 92 26 be 75 01 18 3d
       0.12338466 -0.042847842 -0.16266827 0.037110765
000120 73 9f fd bc b2 70 96 bc 93 38 14 3d 51 96 3b bb
       -0.03095982 -0.018364284 0.036186766 -0.002862353
000130 76 96 b2 3d b3 63 85 bd 7d 73 94 3d bf 97 3e 3c
       0.087201044 -0.06513157 0.0724859 0.011632859
000140 ca 17 8d bd 40 6b 72 bd 46 98 f3 3d ee 5d 3f 3e
       -0.06889303 -0.059184313 0.11894278 0.18688175
000150 34 b5 9c bd e2 89 aa 3d c6 8b e0 ba e8 49 54 3d
       -0.07651749 0.0832708 -0.00171315 0.051828295
000160 04 f2 31 3e d4 79 2c bd 75 37 3e 3d fd e0 c3 3d
       0.17377478 -0.04210837 0.046439607 0.095643975
000170 16 7a a0 3d b4 58 4b 3d f8 c2 33 3c 3c 1c 45 3d
       0.07835786 0.04964514 0.010971777 0.04812263
000180 0d 4d 9f bc b0 93 96 3d 5a 5a 1e 3e b0 07 03 bd
       -0.01944592 0.07352388 0.15464154 -0.031989753
000190 87 2a 2c bb 70 a6 78 bc 64 3f 16 3d 60 16 f4 bc
       -0.0026270465 -0.015176401 0.036681548 -0.029795825
0001a0 ea e7 69 3c 3e 68 4b bd a9 72 e5 3b 0a bc c6 3d
       0.014276484 -0.04965996 0.007002194 0.09703834
0001b0 7e ea e0 bd a0 cb ff bc 50 19 fd bd d4 b5 57 3d
       -0.10982226 -0.031225026 -0.123583436 0.05266364
0001c0 ba b4 ad 3d 96 f5 c0 3d e0 68 67 bc da 4d da bc
       0.084817365 0.09421842 -0.014124125 -0.02664845
0001d0 6f c4 91 bd 30 05 05 3c 74 0a 3d 3c 83 93 63 3c
       -0.07117545 0.008118913 0.011538137 0.01389015
0001e0 5e 9e df 3d 5b 6c 9b 3d 1f 00 43 bd ff 61 99 bb
       0.10918878 0.075890265 -0.047607537 -0.0046808715
0001f0 d7 d1 15 3e b4 84 66 3d 6a 04 18 bd f5 65 7d 3d
       0.14630829 0.0562789 -0.037113585 0.061864812
000200 bb fc 03 bd 68 fc f6 3c 20 60 73 3d c3 3f 5d 3d
       -0.032223444 0.030149654 0.059417844 0.054015886
000210 bd 04 42 3e a8 8a 66 3d 8e f0 d8 3c ee ac 57 3d
       0.1894712 0.056284577 0.026481893 0.052655153
000220 2c fa d4 3d 36 69 5c bd 76 c7 b2 3d 0c f5 e9 3b
       0.10399279 -0.053811274 0.087294504 0.0071398076
000230 18 71 d2 3d 1a be b6 bd 5f 36 37 3c 2c 47 81 3d
       0.10275477 -0.08922978 0.011182397 0.06312403
000240 b6 d6 89 3d 18 dd c2 bd c2 88 f3 bc b8 87 8c bd
       0.06730406 -0.095148265 -0.029728297 -0.06861824
000250 42 4d cc 3c 2e fc a6 3d d5 05 40 bd da e0 1b bd
       0.024939183 0.08153568 -0.04688056 -0.038056232
000260 d7 62 09 3d f0 9f ae bc 34 6b 0b 3d 32 86 73 bd
       0.033541527 -0.021316499 0.034037784 -0.05945415
000270 c4 11 c0 3d 00 de db 3a fa 4b b7 3b 60 7d 7d 3c
       0.093783885 0.0016774535 0.005593774 0.015471786
000280 fc 8f ae bd 3f c4 5f bd d7 65 a7 bc 8a df d2 bd
       -0.085235566 -0.054630514 -0.020434303 -0.10296543
000290 a0 f7 e8 3c 78 e2 ec 3c 4d 4f 0e 3e 50 3e 74 3d
       0.02843839 0.028916582 0.13897438 0.05962974
0002a0 60 c5 74 3c 10 b7 18 bd db 65 9a 3c 02 1c ae 3d
       0.014939636 -0.037283957 0.018847397 0.08501436
0002b0 77 bb 80 3d 93 24 13 bd 50 28 fd bd d5 47 c3 3d
       0.06285756 -0.03592355 -0.123612046 0.09535185
0002c0 70 bd 83 3c 88 c3 29 3d b8 82 9f bc 24 e5 84 bd
       0.016081542 0.04144624 -0.019471511 -0.064890176
0002d0 00 4c 4c 39 b3 1e df 3d 02 24 95 3d bd 76 8d 3c
       0.00019483268 0.10894527 0.072822586 0.017268533
0002e0 00 ce ec b9 74 c2 62 3d a4 d0 2f bd 02 c2 fc 3c
       -0.0004516691 0.055361226 -0.042923585 0.030854229
0002f0 20 e6 72 bd e1 3c f6 3c 40 a1 d2 3b fe fa e0 bc
       -0.059301496 0.030058326 0.006427914 -0.027463432

linear3.bias f4 [3]
000000 2e 32 bc 3d 68 50 61 bd c1 13 ed 3c
       0.091892585 -0.055008322 0.028940083
