model_backup_130.pth (torch, 42271 bytes, 6 tensors)

linear1.weight f4 [128, 11]
00000000: 6563 21be d394 26be ac46 47be 503b 373d
00000010: edb0 c43d bb4e 033d 43fc 48be 57ea 803d
00000020: 9c8b 0c3e ea8f 4dbe 8ee5 85be 24b5 fd3d
00000030: f438 893d dc8a 3dbe 5463 2abe 8af9 35be
00000040: 892e 5fbe 4420 94be 0622 a5bd 0491 72bd
00000050: a186 85be da5e 47be e41b 58be 5bd0 d33d
00000060: e072 1ebd d9e6 233e c986 a2bd ee3c f0bd
00000070: 2233 84be 80f7 7f3c b634 97bd cc60 bbbd
00000080: a309 b8be 8bc4 86be c217 03bf 51be 73be
00000090: fafc a53b b3e6 363d 620b b4be 4f37 863e
000000a0: 1c3e dabc edf1 a1be 0edc 20bf b0d7 233c
000000b0: c9c7 9e3e b86c 043f bc6f 92be a292 bfbc
000000c0: 01aa 86be a7a9 4bbe a5cd f5be 0203 03be
000000d0: 8507 13be 2933 2abf fee5 e1be 7c25 40be
000000e0: c5a5 8fbe a03a e3bd f201 68be 8230 b8bd
000000f0: e8d5 c3bc a2fc 33be 7eaa cebd 4356 17be
00000100: d619 8abd 48e6 33be 6fe2 043f 4d28 843e
00000110: aa5a 963e 20ff d9bd 8aa0 f1bc dc6e e0be
00000120: 2d39 0fbf 598c 7bbe 2683 f3bc a2f5 cebc
00000130: e1ef cdbe 90ae a93d 015b 1abe 7839 e33d
00000140: 0aa0 b2bd 15de 923d e3dd 8bbe 409b 50bd
00000150: 7b85 3fbe 9a23 5b3c dbc1 b63c e272 09bd
00000160: a67b 47be c0fc d6bb 181f 643d 9908 f63d
00000170: b06c a7bd 2eae 1ebe 9e12 8ebd db15 7c3c
00000180: d95b 0abe 32cb 78be 7568 aabe 88a1 853f
00000190: bd7a 263f e7ed e8bd 1726 94bc fd3d 63be
000001a0: a44f f73d 6d3a adbe 3607 6bbe 7173 19bf
000001b0: 57d1 80be bbfb ebbe 3c78 eb3e ab62 83be
000001c0: 8991 95be 93e6 e03d a292 f43d 8a03 82be
000001d0: 0802 8c3d 55a9 35bf ffa4 2dbe c555 b1be
000001e0: d61b 0abf 6c79 6ebd a070 b1bd 7ca8 2ebe
000001f0: 3a9f 063e 0dac 0fbe 742b 8abe f6b2 02be
00000200: c064 903c 0250 0f3e 3752 09bd 8b00 7d3d
00000210: 9f75 87be 6e33 b5bd 1f0d 1bbe 60f7 f13c
00000220: ac7e fc3d 4496 723e 4785 43be 7ce2 63be
00000230: a85d 90be c9ef 90be 36d2 6dbe 3f6a c43f
00000240: 8572 23be 86c5 9abe 17bf 03bd 1582 afbf
00000250: c96b d4bd a9f4 7d3c e726 68be e0bf aebe
00000260: 484b f6be c662 31be 0a68 903c 807e c0bc
00000270: 84e2 8fbe 283f b03d 67df c4bd d86b 37be
00000280: b395 2fbe 76f3 3bbe a3f2 b8bd ad0e 4ebd
00000290: 919d d93c 1d35 d53e 91c6 7bbe 9494 d33e
000002a0: 5174 5bbe 382a c6bd ae73 98bc ad2a a93d
000002b0: 7667 8dbe d9cc 06bf 426e 27bf 984e 44bf
000002c0: 385a 3d3f 6a11 7a3d 7de4 463e ae4c 273d
000002d0: bdf1 4fbe d793 5dbe 13f1 a43c 9138 6abe
000002e0: 2b4b 29be 697a 3ebf 9d40 53bf c703 793e
000002f0: 5468 66be 776c 75be 4a45 28be 5ed9 f7bd
00000300: 621d a4bd f1e5 07bd e0fe 6ebe 3b04 bfbe
00000310: 073e 9bbd 6018 c4be e998 bc3e 6de0 13bf
00000320: 3c9a ffbd 7362 a73d ab30 423e 8dcc 5a3d
00000330: a115 27bf f3b1 b63e fdc7 8cbe 8b8c 44be
00000340: 0010 d5be c07c fa3d 82d2 8bbe 9803 5cbe
00000350: 6e60 3c3d 5cca b03d 607b 773d 0098 983b
00000360: 2e86 4fbd 80ed a1bc 7705 31be a4e1 32be
00000370: 99ef 56be 82fa 213e 2b2c 4cbb d03d 87bd
00000380: 64a5 8dbe eec7 053d 45db a33c 42b3 96be
00000390: 3820 823d bd28 bbbc 4adc a1be b642 cb3e
000003a0: d01b 133f 3ea7 a8be e041 85bd 9e62 12bf
000003b0: f375 c2be 19e2 81bd 6514 5cbe 30cb c7be
000003c0: 0cc9 0dbf e35c 04bf 5785 98bd c04b 45bd
000003d0: d0f8 b9bc b484 87bd 808b 7ebd 66de 85be
000003e0: 0029 8cba 7fb6 29bd a149 8abd 3b79 65be
000003f0: aa4c 54be ceca 2abc 92e7 6abe 1d07 c6be
-0.15760572 -0.1626771 -0.19460553 0.0447343 0.096040584 0.032057505 -0.1962748 0.06294697
0.13725132 -0.2007443 -0.261517 0.123880655 0.06700316 -0.18510002 -0.16639453 -0.17770973
-0.21795096 -0.28930867 -0.0806313 -0.05922033 -0.26079276 -0.19469777 -0.2110439 0.10342475
-0.038683772 0.1600603 -0.079358645 -0.117303714 -0.2582026 0.015622973 -0.07383101 -0.09149322
-0.35944852 -0.26321825 -0.51208127 -0.23803069 0.0050655575 0.044653606 -0.35164934 0.26214072
-0.026640944 -0.31629887 -0.62835777 0.010000154 0.310118 0.5172839 -0.28600872 -0.02338535
-0.26301578 -0.19888936 -0.48008457 -0.12794116 -0.14358337 -0.66484314 -0.44120783 -0.18764299
-0.2805616 -0.11095166 -0.22656992 -0.08993627 -0.02390571 -0.1757684 -0.100911126 -0.14779
-0.06743209 -0.17568314 0.5190801 0.25811997 0.29366046 -0.10644364 -0.029495496 -0.4383458
-0.5594662 -0.24565257 -0.029725622 -0.025263611 -0.40222076 0.08285248 -0.15073778 0.11094946
-0.08721931 0.07171265 -0.27317724 -0.050929308 -0.18703263 0.013375187 0.022309234 -0.033556826
-0.19480762 -0.006560892 0.055693716 0.120133586 -0.08175027 -0.15496132 -0.06937145 0.01538607
-0.135116 -0.24296263 -0.3328282 1.043992 0.65031034 -0.11373501 -0.018084569 -0.22191615
0.12075737 -0.33833638 -0.2295197 -0.59941775 -0.25159714 -0.46090493 0.4599017 -0.25661215
-0.29212597 0.109814785 0.119420305 -0.25393325 0.06836325 -0.70961505 -0.16957472 -0.3463575
-0.53948724 -0.058221266 -0.0866406 -0.17056459 0.13146678 -0.14030476 -0.26986277 -0.1276358
0.017626166 0.13995364 -0.03352567 0.061768096 -0.26456925 -0.088477 -0.15141724 0.029536903
0.12328848 0.23690134 -0.1909381 -0.22254366 -0.28196454 -0.28307942 -0.2322472 1.5344924
-0.15961654 -0.30228823 -0.03216466 -1.3711573 -0.10372121 0.015500226 -0.2267109 -0.34130764
-0.4810431 -0.17322835 0.017627735 -0.02349782 -0.28102505 0.08605796 -0.09612923 -0.17912233
-0.1714695 -0.18354592 -0.09030654 -0.050306965 0.026564391 0.41642085 -0.24587466 0.41324294
-0.2143109 -0.09676021 -0.018609848 0.08260093 -0.27617997 -0.5265632 -0.65402615 -0.76682425
0.7396579 0.061051764 0.19423099 0.04084461 -0.2030706 -0.21638428 0.020134484 -0.22873141
-0.1653258 -0.74405533 -0.8252047 0.24317847 -0.22500736 -0.23967157 -0.16432682 -0.121020064
-0.08013417 -0.033178274 -0.23339415 -0.37307915 -0.0758019 -0.38299847 0.3683541 -0.5776432
-0.1248059 0.081730746 0.18963878 0.05341773 -0.6526738 0.3568264 -0.2749633 -0.19194238
-0.4161377 0.122308254 -0.27309042 -0.21485746 0.0459904 0.08632347 0.060420394 0.0046567917
-0.050665073 -0.01976657 -0.17287241 -0.17468888 -0.20989837 0.15818217 -0.0031154256 -0.06603587
-0.27665246 0.03266137 0.020002017 -0.29433638 0.063538015 -0.022846574 -0.3161338 0.39699334
0.57464314 -0.32940096 -0.06506705 -0.5718173 -0.37980613 -0.06341953 -0.21492155 -0.39022207
-0.553849 -0.51704234 -0.074473076 -0.048167944 -0.02270165 -0.06617108 -0.062144756 -0.2614624
-0.0010693371 -0.041433807 -0.06752325 -0.22409527 -0.2073237 -0.010424329 -0.229399 -0.38677302

linear1.bias f4 [128]
00000000: ee3f 74be 8a37 1fbe 337a 95be 7e8a 9bbe
00000010: 1264 02bf 487b d1bd 6412 d2be aa78 77be
00000020: 662d 6bbe 208c 61bf 7978 d3be 4674 dcbe
00000030: 6131 d3bd dc93 c23c 4742 13bf 009b 80be
00000040: eb8b 4ebe 4546 f0be e749 28be ba51 8abe
00000050: 76ba a6be dc82 82be 893c 1cbe e1bf 72be
00000060: 9682 c4be 85c3 9dbe 5c41 90be 84bd 7dbe
00000070: 3a54 71be b800 61be bdba 6dbe 58d1 60be
00000080: 748b 31be 02f8 02be 5dce bcbd 3cc3 a6be
00000090: deb8 6dbe b1fb c9bc 5760 cebe 9aa0 2dbe
000000a0: f27c c8be 0352 e4be 9ad5 90be e4c4 8fbe
000000b0: aea9 febe 7b53 2ebf 2d50 3dbd 2dd5 5abe
000000c0: b6b0 cebe c094 cebe 9064 a2be 0e8e 2fbe
000000d0: 28e8 a0be 4722 cbbe 2a9e 85be def3 8f3d
000000e0: b7e9 c5be 2627 18be 67d6 9abe cc06 60be
000000f0: 1605 e8bd 653d cebe b677 cdbe ed8b f2bd
00000100: 8d37 3dbe c14c 44be 3455 9cbe ee67 86be
00000110: 63d8 f7bd 3635 21be 7757 a1bd 1503 2bbe
00000120: ff0b 1dbf d38c 8bbe 3dc3 64be 556d 08bf
00000130: 7b22 82be 7dc4 efbd b34e 16bf 7a1d 85be
00000140: ebd5 a5be 9f4e a8be d937 04be d35a cfbe
00000150: f19e bbbe 006f 19bf acc2 cdbe af59 aabe
00000160: 5d5f 3abe e509 93be 87ec fbbe 617b cfbe
00000170: 9bbf 97be e4ea c0be 59fd 0ebf e6ef 3ebe
00000180: 53a2 ddbe c490 9bbd fdf2 053d 9d08 fcbe
00000190: d53c 3abe 5e19 a4bd 9f13 09bf 7eab 8bbe
000001a0: fc44 8ebe 6e67 b4be a0ee cabe db04 a4bd
000001b0: 2cc4 38be 8df0 a5be 0129 7ebc 451e 5dbe
000001c0: eee2 a8be 444e f4be b34c bbbe a657 7c3d
000001d0: 510f bdbe 085c 91be d3c0 d0be f1e2 30bf
000001e0: b0e4 e7be 48c0 85bd b1da 51be c7ca 92be
000001f0: e164 d43c 93ba 39be c87c 18bf beea 65bb
-0.23852512 -0.1554853 -0.29194793 -0.303791 -0.50933945 -0.10228592 -0.41029656 -0.24167123
-0.22966537 -0.8810444 -0.4130285 -0.4305746 -0.10312153 0.023752145 -0.57523006 -0.25118256
-0.20170562 -0.4692861 -0.16434442 -0.27015477 -0.32564133 -0.25490463 -0.15257467 -0.23706008
-0.3838088 -0.30813232 -0.28174865 -0.24779326 -0.23567286 -0.2197293 -0.23215766 -0.21954858
-0.17338353 -0.1278992 -0.09219048 -0.32570827 -0.23215052 -0.024656149 -0.40307876 -0.16955796
-0.39157826 -0.4459382 -0.28287965 -0.28079903 -0.4973883 -0.6809613 -0.04621904 -0.21370383
-0.40369195 -0.40347862 -0.31717348 -0.17144033 -0.3142712 -0.3967459 -0.26097232 0.07028936
-0.38654873 -0.14858684 -0.302417 -0.21877593 -0.11329095 -0.40281215 -0.40130395 -0.11843095
-0.18478222 -0.19169904 -0.30533755 -0.26251167 -0.12101819 -0.15742955 -0.07878011 -0.16700394
-0.6134643 -0.27255878 -0.22340102 -0.5329183 -0.25416932 -0.11707399 -0.58713835 -0.2599905
-0.3238977 -0.32872483 -0.12911929 -0.4049898 -0.366447 -0.59935 -0.40187585 -0.33271548
-0.1820044 -0.28718486 -0.49203894 -0.40523818 -0.2963837 -0.37679207 -0.5585533 -0.18646201
-0.43287906 -0.07595971 0.032702435 -0.4922532 -0.18187268 -0.08012651 -0.53545564 -0.27279276
-0.27787006 -0.3523516 -0.3963518 -0.080087386 -0.18043584 -0.32410088 -0.015512706 -0.21593578
-0.32985634 -0.47715962 -0.36581954 0.061607026 -0.36925748 -0.28390527 -0.40772113 -0.69096285
-0.45291662 -0.06530815 -0.2049358 -0.28670332 0.025927009 -0.18137579 -0.595654 -0.0035082544

linear2.weight f4 [64, 128]
00000000: 6c1a c8bc 25af 50bd 9963 933d e0bd e33c
00000010: bb5e 78bd 9228 01be 824a 12be c0f8 a8bc
00000020: 2056 b13b 508c 27bd 063a 333d 65d9 67bd
00000030: c1a2 883d 9a80 9bbd 64d1 6abd 8485 45bd
00000040: 52e9 2dbd 04ad ac3c 4a17 643d 70ba 99bd
00000050: 7a97 f8bc b635 5bbd 24c6 90bc 9e67 6c3d
00000060: 5e7d e6bd 0ae6 1b3d 88fb 023c 41b0 b33d
00000070: 73c0 6fbd 1cc8 f93c 8018 bfbd a4c4 f0bc
00000080: e477 abbd 18ff 033c ae4c 7f3d b452 db3c
00000090: 422b 313d 3a8d 513d 944d a5bc 0625 693d
000000a0: 4489 c7bd f0ff f9bb 00a6 9fbb b0c0 d53c
000000b0: a79e 943d d6a0 453d 1047 8c3c 66f0 9bbd
000000c0: 7291 85bd 6b3c ad3d fad5 79bd ae85 78bd
000000d0: 6265 22bd 9c4c 2e3d 7e36 78bd bbb2 05bd
000000e0: e83b 213c e009 26bd 00be a1ba cfe3 973d
000000f0: 513c 2cbd e027 8a3c ec89 c03c abf3 b33d
00000100: 6d87 5ebd a19a 8bbd 059c 3bbd 9368 72bd
00000110: 74fe 133d 8642 d9bc d5ec 923d dd2c 64be
00000120: 3f91 00be b444 02bd b628 c8bd f0f6 5ebc
00000130: 884f f03c d604 14bd fa07 733d 64be dabc
00000140: acb0 ffbc bf29 f4bd b2d5 5ebd ebbc 863d
00000150: 6c2a 99bd 5bc8 61bd 4ae1 d5bc 1445 dfbc
00000160: c725 5c3d dbd9 883d 3023 143c 659f 7bbd
00000170: b29f 003d d1d2 1dbe 04ce 92bd f996 10bd
00000180: 6055 133b d2fb 5b3d 38fe 05bb 12d6 9dbd
00000190: 4c87 1c3c dcc1 12be 306f 7c3c bec6 6fbd
000001a0: 3b27 85bd 0070 81bb 816c 8c3d 12cc 98bd
000001b0: 7e84 b2bd 0faa a6bd 0733 c2bd e9a3 60bd
000001c0: 7503 923d e26c 343d e439 b6bc f4aa 0d3d
000001d0: 4450 09bd 6de9 9f3d 88fe 75bc ba6d 4f3d
000001e0: a0fc 093b c896 52bc cedc 643d 00e1 ca39
000001f0: 6ad9 bcbd 4192 0b3c f4b2 d33c 4a92 82bd
00000200: 52a6 91bd 4eca 7f3d 1cf1 3ebd 7352 09be
00000210: 1867 633e bb0d e2bb 18c9 723c 5e7a 3fbd
00000220: 20f8 263d 040c 303e f4c4 ddbd 7b08 b2bd
00000230: b0d1 48bd f5ef 933e 1138 fcbc 945c c83d
00000240: cd6d 96be 6b84 b9bd 73af fabe 6b67 0a3d
00000250: 3e02 f2bc 0b40 1a3e 2b3d e93d 061d 723d
00000260: 2291 f53d fd60 183e cd0f d6bc 22dc 9cbe
00000270: aa91 dfbc 34f3 c13c 89ac 263e ce91 e5bd
00000280: 8390 81bc 7026 1b3c 4bab bc3d a1aa 4d3e
00000290: 866d 94bd 8465 473d bafe 383d e4d0 94bd
000002a0: 5cfa 62bc 438b 1cbe d200 723d c9ec ec3d
000002b0: 22f5 373d f547 033e 1bac 4c3c 5854 9abe
000002c0: adfe 2abc b672 603d d9aa 333d 0d68 18be
000002d0: 73ac 42be 8db3 89be 9d28 aabc a755 043e
000002e0: 2953 adbd 6edb 8cbc 4a03 203d 63a7 283f
000002f0: 7f59 01be 4414 00bd 115f 4e3d 6cef 9dbd
00000300: f1f6 293e 5797 1f3e dbd6 6cbd 74f1 68bd
00000310: 6efc ae3d 2b8d aebc d37d 4fbe 3595 0abd
00000320: a0e1 38bc ce15 e53c 274c 693d e2d8 16bd
00000330: 5afd ffbd 0830 01bc 1e5e d9bd bfd2 d3bd
00000340: cb7b 91bd 149d 2bbf 82d9 76bd 91bb 03be
00000350: d803 99bd da58 07bd 3154 2cbd c06b e5bb
00000360: 26d2 ecbc 239e 063e f574 543d 2f54 21bd
00000370: 6d3b 483d a0af f7be e2e6 863e f77f 1a3d
00000380: 737c f4bd af4c 5c3e 8b84 313d cdc6 3cbd
00000390: 8b14 27be f2db 0c3c b833 54bd f250 c1bd
000003a0: 0295 9bbd fa00 f0bc 1138 843d 0ceb 3b3d
000003b0: f639 22bd 351c 8d3b 1b74 85be e3b3 efbc
000003c0: 359c 983d dabd d73d 9390 55bd 3156 933e
000003d0: 936d 873b 3875 37bd cf78 23bd 41bf 1b3d
000003e0: 0866 b63c 8133 fabd d7e3 03bd 8603 9bbc
000003f0: cafb 6dbd 619c 16bd 0e4d 81bb 0670 8fbc
-0.024426661 -0.05094828 0.07196731 0.0278005 -0.060637217 -0.12613133 -0.14286235 -0.020626426
0.005411878 -0.040905297 0.043756507 -0.056603808 0.06671668 -0.07592888 -0.057328597 -0.048223034
-0.04245884 0.021078594 0.055686273 -0.07506263 -0.030345667 -0.05351802 -0.017672606 0.057716005
-0.11254381 0.03806118 0.00799454 0.08773852 -0.058533143 0.030490927 -0.09330845 -0.02939064
-0.08372477 0.008056425 0.062328987 0.026772834 0.043254144 0.051160075 -0.020178594 0.056920074
-0.09742978 -0.007629387 -0.0048720837 0.026092857 0.07256823 0.04824909 0.017123729 -0.07614212
-0.06521882 0.084587894 -0.06099508 -0.060674362 -0.039647467 0.04255353 -0.060598843 -0.032641154
0.009840943 -0.04053676 -0.001233995 0.07416498 -0.04204971 0.016864717 0.023503266 0.0878671
-0.05432837 -0.068166025 -0.04580309 -0.05918176 0.036131337 -0.026520979 0.071740784 -0.22282739
-0.12555407 -0.0318038 -0.0977339 -0.013608679 0.029334798 -0.036137424 0.05933378 -0.026702113
-0.031212173 -0.11922025 -0.054403014 0.06579002 -0.074787945 -0.055122714 -0.026108403 -0.027254619
0.053746965 0.06682178 0.0090415925 -0.061431307 0.031402297 -0.15412451 -0.071682006 -0.03530023
0.0022481307 0.05370695 -0.0020445716 -0.07706846 0.009553742 -0.14331764 0.015407369 -0.058539145
-0.06501623 -0.003950119 0.06856633 -0.07460798 -0.08716677 -0.08137905 -0.09482389 -0.054843817
0.071295656 0.04404915 -0.022244401 0.03458686 -0.033523813 0.07808194 -0.015014298 0.050641753
0.0021055117 -0.012853332 0.05587464 0.0003869608 -0.09221156 0.008518756 0.025842167 -0.06375559
-0.07111801 0.062448792 -0.04661666 -0.13410358 0.22207296 -0.0068986095 0.014818452 -0.046747558
0.040763974 0.17192084 -0.108285815 -0.08693024 -0.0490281 0.2889401 -0.030788453 0.09783283
-0.29380646 -0.0905846 -0.48961982 0.033790033 -0.029542085 0.15063493 0.1138862 0.05910971
0.119905725 0.14880748 -0.026130581 -0.30636698 -0.027291138 0.023675539 0.16276754 -0.11209451
-0.015815979 0.009469613 0.09212359 0.20084621 -0.072474524 0.048680797 0.0451648 -0.07266405
-0.013853636 -0.15287499 0.059082814 0.11568601 0.04491151 0.12820418 0.012492205 -0.30142474
-0.010436696 0.054796897 0.043864105 -0.14883442 -0.19011097 -0.268948 -0.020771319 0.12923299
-0.08463127 -0.017194476 0.039065637 0.6588041 -0.12631796 -0.031269327 0.05038363 -0.07711682
0.16598107 0.15585075 -0.05782209 -0.056870893 0.08544241 -0.021307549 -0.20262842 -0.0338337
-0.011284262 0.027964499 0.05695739 -0.03682793 -0.12499495 -0.007884987 -0.106136546 -0.10342931
-0.0710369 -0.6703656 -0.060266025 -0.1286452 -0.07471436 -0.03304372 -0.04207248 -0.00700137
-0.0289088 0.13146262 0.05186935 -0.039386924 0.048884798 -0.4837618 0.26348025 0.037719693
-0.11937799 0.21513627 0.043339293 -0.04608803 -0.1631643 0.008597361 -0.051807135 -0.09439267
-0.0759678 -0.02929734 0.06456006 0.045878455 -0.039606057 0.004306341 -0.26065144 -0.029260581
0.07451669 0.10534258 -0.05213983 0.28776696 0.0041329353 -0.044789523 -0.039910134 0.03802419
0.02226545 -0.12216855 -0.032199707 -0.018922579 -0.058101453 -0.03677023 -0.003945953 -0.017509472

linear2.bias f4 [64]
00000000: a183 3abe 0461 b2bc 8568 31be 907b 2bbe
00000010: ff7b 57be cb42 8abe b7d4 a1be 9b31 353e
00000020: b8bc 49be cab5 cdbd ea78 3dbe f6ca eebd
00000030: f915 54be 400b 23be fd03 52be 5b83 71be
00000040: 186b 5abd 43dc 33bd dcf2 a53e ff41 c3bd
00000050: 9fc9 02be 6645 23be 0d93 99bd b182 2fbd
00000060: 1a62 35be a663 e63d 4682 35be 7539 8dbe
00000070: df42 6abe 442a 98be 2fd6 58be 8a8c 23be
00000080: 77cb e7bd ca05 fdbd 177d bbbd c16e edbd
00000090: cc26 a6be 6f3e 54be bee5 f6bd 02b3 0dbc
000000a0: 3c10 94be 3e95 e2bd 33a8 5dbd 0842 a8be
000000b0: 179b ebbd 2783 7dbe 3002 923e 6cc2 0cbe
000000c0: bf0c 43be 7510 1ebd f104 57be 1eaa 8abe
000000d0: 4bab eabd c9fc 1dbd e4f3 85bd 6a53 67be
000000e0: 66fd e8bd 3553 08be dce3 6abe 5a03 b03b
000000f0: 3e6e cbbd e312 02be a844 0abe 8349 f5bd
-0.18214275 -0.021774776 -0.17325027 -0.16746354 -0.21043395 -0.27004084 -0.316076 0.17694704
-0.19700897 -0.10044439 -0.18503156 -0.116598055 -0.20711507 -0.1592226 -0.20509334 -0.23585264
-0.05332479 -0.04391123 0.3241185 -0.09534072 -0.12772225 -0.15944442 -0.07498751 -0.042849246
-0.17713204 0.11249475 -0.17725477 -0.275829 -0.22877072 -0.29719746 -0.21175455 -0.1597158
-0.11318105 -0.1235462 -0.09154718 -0.1159339 -0.32451475 -0.20726942 -0.120555386 -0.008648636
-0.28918636 -0.11063622 -0.054115485 -0.32862878 -0.115041904 -0.24757062 0.28517294 -0.13746041
-0.19047831 -0.038589913 -0.20997979 -0.27082914 -0.11458453 -0.038571153 -0.06540659 -0.22590414
-0.11376457 -0.13312991 -0.22938484 0.0053714933 -0.099331364 -0.12702517 -0.13502753 -0.11976912

linear3.weight f4 [3, 64]
00000000: 991d 65bc 61c1 a5be 605f 36be dc9d ecbd
00000010: 0906 e4bc 3712 053e c71b b83d 3aba 02bf
00000020: a423 193e b2d8 183d ee98 803e fbd9 b1bd
00000030: 72bf 05be 580f c9bc 7e09 b2bc b280 7dbb
00000040: e689 10bf 90ef 44bd 1955 0fbf 7544 61bd
00000050: 9edc b83d 0ed9 10bb f37d 8f3d 89d3 acbd
00000060: 0773 653d ace5 5e3c 20a0 0ebe 2d38 b83b
00000070: cc7f ddbd bb8a 5dbd dfda c03d ebd0 f3bc
00000080: b4b8 4dbd b224 853d 990d 20be 1ff6 3ebd
00000090: b014 81bf 99f7 9b3d 4521 9ebd b478 123d
000000a0: 23e6 36be 7217 ee3d 648d d03d 34b6 1dbe
000000b0: 369e 40bb 20ef 6cbd e0da 3d3e 0a4f 4c3e
000000c0: f5f3 efbd 074e 533e 6f89 a83c c1ef 243d
000000d0: 5010 b3bd 24b3 943e 6ac9 c4bc 994e 33bd
000000e0: 0d54 2a3d 9a5b cbbd ad52 7d3e 3e8f 263e
000000f0: bb85 debc 7618 413d f515 2fbd 065a 4d3e
00000100: f31c 35bd 597c dbbe 1a79 22be 350d 053e
00000110: 19b1 fc3d f632 a83d 07eb f4bc fa7a bd3d
00000120: bb24 b33b b270 96bc fe41 1f3e 5196 3bbb
00000130: 7696 b23d b363 85bd 7d73 943d 8110 033e
00000140: cc2d 4fbd 3e63 b4be 47f1 b4bd ee5d 3f3e
00000150: 152b bcbd d8de 6d3c ed79 86ba e849 543d
00000160: 00aa 253e f03b 463d 7537 3e3d 7b48 7cbd
00000170: 5682 a1bd 4ea3 233e b75f 173e e064 68bc
00000180: 0d4d 9fbc b093 963d b19e 113d b007 03bd
00000190: 0e34 b43d 70a6 78bc bff2 063d 8b21 32bf
000001a0: 2a87 68bd 3e68 4bbd 14b1 333d 6d11 223d
000001b0: 7eea e0bd cb56 e9bc edcc 183e c34b 3f3e
000001c0: f94b ab3d e8c1 053f d1aa 033e 4fb9 95bd
000001d0: 6fc4 91bd e7ec f1bc 740a 3d3c d90e ddbc
000001e0: bb60 db3d 5b6c 9b3d 3b2e 993d a1d3 f9be
000001f0: 838a 86bd b484 663d 5c87 283d 1239 debd
00000200: e7ea fc3c 01ca fabd b99b f43d e292 553e
00000210: bd04 423e e30d 32bf 03ee ec3d 86f8 2b3e
00000220: 725b cebd 4511 5bbd fa35 96bd 0cf5 e93b
00000230: 3d0f 2cbd 2625 af3c 09af 15be c9ec 133d
00000240: d289 483e 07aa c8bd 91c0 c9be b887 8cbd
00000250: c731 07be ed75 00bd 6b26 40bd dae0 1bbd
00000260: 8e4c f73d 1886 3c3e 346b 0b3d 3286 73bd
00000270: c411 c03d 393d a33c 371c 113e a3eb be3d
00000280: fc8f aebd 3fc4 5fbd 58c7 e13b 8adf d2bd
00000290: 3086 a63d 78e2 ec3c bd03 6c3d 1c3d 0f3e
000002a0: 0f36 42be 10b7 18bd 8aec 4bbd 8636 2cbc
000002b0: 77bb 803d 9324 13bd 41a1 023f 6bb0 8d3d
000002c0: 7f24 663c 98bd bebd b882 9fbc 026d 37bd
000002d0: 004c 4c39 77fb 813c 0224 953d bd76 8d3c
000002e0: 00ce ecb9 74c2 623d bc39 b73d 80a3 623e
000002f0: a34a c9bd 1fdb b4bd 24be 60be 5935 853d
-0.013984107 -0.323741 -0.1780982 -0.11553547 -0.027834909 0.1299523 0.08989673 -0.5106541
0.14955002 0.03731603 0.25116676 -0.086841546 -0.13061312 -0.02454345 -0.021733042 -0.0038681445
-0.56460416 -0.048080027 -0.55989224 -0.054996926 0.090264544 -0.002210203 0.07006445 -0.08438785
0.0560179 0.013604563 -0.1392827 0.005621931 -0.10815391 -0.05408738 0.09416746 -0.029762706
-0.050224975 0.0650114 -0.15630187 -0.046621438 -1.0084438 0.07615585 -0.077211894 0.035759643
-0.17861228 0.116255656 0.10183218 -0.15401536 -0.0029391176 -0.057845235 0.18540525 0.19952026
-0.11716453 0.20635234 0.020573346 0.04026771 -0.08743346 0.29042923 -0.024021823 -0.04377613
0.041584063 -0.09929581 0.2473857 0.1626558 -0.027163377 0.04714247 -0.04274555 0.20053872
-0.04421706 -0.42868307 -0.15866509 0.1299332 0.12338466 0.08212845 -0.029897226 0.092519715
0.005467025 -0.018364284 0.15552518 -0.002862353 0.087201044 -0.06513157 0.0724859 0.12799264
-0.050580785 -0.35231966 -0.088350825 0.18688175 -0.09187905 0.014518462 -0.0010259725 0.051828295
0.16178131 0.048397005 0.046439607 -0.06159256 -0.07886188 0.15980265 0.14782606 -0.014184207
-0.01944592 0.07352388 0.03555173 -0.031989753 0.08798991 -0.015176401 0.032946344 -0.6958243
-0.056769527 -0.04965996 0.043870047 0.0395674 -0.10982226 -0.028483769 0.14921923 0.18681245
0.083641 0.52249 0.1285813 -0.073107354 -0.07117545 -0.02953191 0.011538137 -0.026984619
0.10711809 0.075890265 0.07479521 -0.48794273 -0.06569388 0.0562789 0.041144714 -0.10850729
0.030873729 -0.122455604 0.11943764 0.20856813 0.1894712 -0.6955244 0.11568835 0.16794023
-0.100760356 -0.053483266 -0.07334514 0.0071398076 -0.04200672 0.021380018 -0.14617552 0.036114488
0.19583824 -0.09798055 -0.3940473 -0.06861824 -0.13202582 -0.031362463 -0.04691164 -0.038056232
0.120751485 0.18410528 0.034037784 -0.05945415 0.093783885 0.019926654 0.1417092 0.09322288
-0.085235566 -0.054630514 0.0068902187 -0.10296543 0.08131063 0.028916582 0.057620753 0.13988155
-0.18965934 -0.037283957 -0.049786128 -0.010511046 0.06285756 -0.03592355 0.51027304 0.06918415
0.014046787 -0.09313506 -0.019471511 -0.044781692 0.00019483268 0.015866978 0.072822586 0.017268533
-0.0004516691 0.055361226 0.08946559 0.22132683 -0.09828689 -0.088308565 -0.21947533 0.06504316

linear3.bias f4 [3]
00000000: 7d8d 2bbf 0eb2 81bf 9005 7cbf
-0.6701277 -1.0132463 -0.9844599
