model_backup_220.pth (torch, 42271 bytes, 6 tensors)

linear1.weight f4 [128, 11]
00000000: 6563 21be d394 26be ac46 47be 503b 373d
00000010: edb0 c43d bb4e 033d 43fc 48be 57ea 803d
00000020: 9c8b 0c3e ea8f 4dbe 8ee5 85be 24b5 fd3d
00000030: f438 893d dc8a 3dbe 5463 2abe 8af9 35be
00000040: 892e 5fbe 4420 94be 0622 a5bd 0491 72bd
00000050: a186 85be da5e 47be e41b 58be 5bd0 d33d
00000060: e072 1ebd d9e6 233e c986 a2bd ee3c f0bd
00000070: 2233 84be 80f7 7f3c b634 97bd cc60 bbbd
00000080: a309 b8be 8bc4 86be c217 03bf 51be 73be
00000090: fafc a53b b3e6 363d 620b b4be 4f37 863e
000000a0: 1c3e dabc edf1 a1be 0edc 20bf b0d7 233c
000000b0: c9c7 9e3e b86c 043f bc6f 92be a292 bfbc
000000c0: 01aa 86be a7a9 4bbe a5cd f5be 0203 03be
000000d0: 8507 13be 2933 2abf fee5 e1be 7c25 40be
000000e0: c5a5 8fbe a03a e3bd f201 68be 8230 b8bd
000000f0: e8d5 c3bc a2fc 33be 7eaa cebd 4356 17be
00000100: d619 8abd 48e6 33be 0d0d f63e 4d28 843e
00000110: 0b90 873e 01ba 0abe 87f6 0abe dc6e e0be
00000120: 2d39 0fbf 598c 7bbe 08ab 70bd ac5c e3bd
00000130: e1ef cdbe 90ae a93d 015b 1abe 7839 e33d
00000140: 0aa0 b2bd 15de 923d e3dd 8bbe 409b 50bd
00000150: 7b85 3fbe 9a23 5b3c dbc1 b63c e272 09bd
00000160: a67b 47be c0fc d6bb 181f 643d 9908 f63d
00000170: b06c a7bd 2eae 1ebe 9e12 8ebd db15 7c3c
00000180: d95b 0abe 32cb 78be 7568 aabe 0c5b 633f
00000190: 4849 fd3e e7ed e8bd 1726 94bc 334b c1be
000001a0: 9407 f73d 6d3a adbe ea3f c5be 7173 19bf
000001b0: 8c7d d0be bbfb ebbe 3c78 eb3e ab62 83be
000001c0: 8991 95be 93e6 e03d a292 f43d 8a03 82be
000001d0: 0802 8c3d 55a9 35bf ffa4 2dbe c555 b1be
000001e0: d61b 0abf 6c79 6ebd a070 b1bd 7ca8 2ebe
000001f0: 3a9f 063e 0dac 0fbe 742b 8abe f6b2 02be
00000200: c064 903c 0250 0f3e 3752 09bd 8b00 7d3d
00000210: 9f75 87be 6e33 b5bd 1f0d 1bbe 60f7 f13c
00000220: ac7e fc3d 4496 723e 4785 43be 7ce2 63be
00000230: a85d 90be c9ef 90be 36d2 6dbe 0b32 8f3f
00000240: 8572 23be 8691 abbe eff9 17bf 8d38 b7bf
00000250: 794d eebe b437 bdbe 9b71 c4be 38e4 40bf
00000260: ba1b 56bf f0eb 0bbf 0a68 903c 807e c0bc
00000270: 84e2 8fbe 283f b03d 67df c4bd d86b 37be
00000280: b395 2fbe 76f3 3bbe a3f2 b8bd ad0e 4ebd
00000290: 919d d93c 1cc4 d33e 91c6 7bbe 7f3d d13e
000002a0: 5174 5bbe 382a c6bd ae73 98bc 2eca a23d
000002b0: 144d 8fbe d9cc 06bf 426e 27bf 984e 44bf
000002c0: a9b2 323f 4449 4abc 3768 debc c7bf 73bc
000002d0: 549c febe 1d8b 62be 3fa7 95bd 878f 6ebe
000002e0: 5d0b 8bbd 1f35 57bf becb 76bf c703 793e
000002f0: 5468 66be 776c 75be 4a45 28be 5ed9 f7bd
00000300: 621d a4bd f1e5 07bd e0fe 6ebe 3b04 bfbe
00000310: 073e 9bbd 6018 c4be 6eea f73d 6de0 13bf
00000320: 81fd 8fbe 3e94 d13d 13ac b4bd 87ca 88be
00000330: a115 27bf 23a5 b83d ec30 8dbe 495d fabe
00000340: 3345 00bf c07c fa3d 82d2 8bbe 9803 5cbe
00000350: 6e60 3c3d 5cca b03d 607b 773d 0098 983b
00000360: 2e86 4fbd 80ed a1bc 7705 31be a4e1 32be
00000370: 99ef 56be 82fa 213e 2b2c 4cbb d03d 87bd
00000380: 64a5 8dbe eec7 053d 45db a33c 42b3 96be
00000390: 3820 823d bd28 bbbc 4adc a1be 4d2d bc3e
000003a0: af99 0d3f 3ea7 a8be 2d75 1b3e d2f0 eabe
000003b0: f375 c2be 1215 ddbe c197 6bbe f4d1 0abf
000003c0: fae7 36bf d9d5 7abf 5785 98bd c04b 45bd
000003d0: d0f8 b9bc b484 87bd 808b 7ebd 66de 85be
000003e0: 0029 8cba 7fb6 29bd a149 8abd 3b79 65be
000003f0: aa4c 54be ceca 2abc 92e7 6abe 1d07 c6be
-0.15760572 -0.1626771 -0.19460553 0.0447343 0.096040584 0.032057505 -0.1962748 0.06294697
0.13725132 -0.2007443 -0.261517 0.123880655 0.06700316 -0.18510002 -0.16639453 -0.17770973
-0.21795096 -0.28930867 -0.0806313 -0.05922033 -0.26079276 -0.19469777 -0.2110439 0.10342475
-0.038683772 0.1600603 -0.079358645 -0.117303714 -0.2582026 0.015622973 -0.07383101 -0.09149322
-0.35944852 -0.26321825 -0.51208127 -0.23803069 0.0050655575 0.044653606 -0.35164934 0.26214072
-0.026640944 -0.31629887 -0.62835777 0.010000154 0.310118 0.5172839 -0.28600872 -0.02338535
-0.26301578 -0.19888936 -0.48008457 -0.12794116 -0.14358337 -0.66484314 -0.44120783 -0.18764299
-0.2805616 -0.11095166 -0.22656992 -0.08993627 -0.02390571 -0.1757684 -0.100911126 -0.14779
-0.06743209 -0.17568314 0.48056832 0.25811997 0.26477084 -0.13547517 -0.13570605 -0.4383458
-0.5594662 -0.24565257 -0.058756858 -0.1110166 -0.40222076 0.08285248 -0.15073778 0.11094946
-0.08721931 0.07171265 -0.27317724 -0.050929308 -0.18703263 0.013375187 0.022309234 -0.033556826
-0.19480762 -0.006560892 0.055693716 0.120133586 -0.08175027 -0.15496132 -0.06937145 0.01538607
-0.135116 -0.24296263 -0.3328282 0.888108 0.49469972 -0.11373501 -0.018084569 -0.37752685
0.12061992 -0.33833638 -0.38525325 -0.59941775 -0.40720785 -0.46090493 0.4599017 -0.25661215
-0.29212597 0.109814785 0.119420305 -0.25393325 0.06836325 -0.70961505 -0.16957472 -0.3463575
-0.53948724 -0.058221266 -0.0866406 -0.17056459 0.13146678 -0.14030476 -0.26986277 -0.1276358
0.017626166 0.13995364 -0.03352567 0.061768096 -0.26456925 -0.088477 -0.15141724 0.029536903
0.12328848 0.23690134 -0.1909381 -0.22254366 -0.28196454 -0.28307942 -0.2322472 1.1187147
-0.15961654 -0.33509463 -0.59365743 -1.4314133 -0.46543482 -0.3695656 -0.38367924 -0.75348234
-0.8363606 -0.5465689 0.017627735 -0.02349782 -0.28102505 0.08605796 -0.09612923 -0.17912233
-0.1714695 -0.18354592 -0.09030654 -0.050306965 0.026564391 0.41360557 -0.24587466 0.4086723
-0.2143109 -0.09676021 -0.018609848 0.07948719 -0.27988493 -0.5265632 -0.65402615 -0.76682425
0.69803864 -0.012346569 -0.027149303 -0.014877266 -0.49728644 -0.2212338 -0.0730729 -0.23296939
-0.06789277 -0.8406543 -0.96404636 0.24317847 -0.22500736 -0.23967157 -0.16432682 -0.121020064
-0.08013417 -0.033178274 -0.23339415 -0.37307915 -0.0758019 -0.38299847 0.12105261 -0.5776432
-0.28123096 0.10233353 -0.08821883 -0.26717016 -0.6526738 0.09015872 -0.27576387 -0.48899296
-0.5010559 0.122308254 -0.27309042 -0.21485746 0.0459904 0.08632347 0.060420394 0.0046567917
-0.050665073 -0.01976657 -0.17287241 -0.17468888 -0.20989837 0.15818217 -0.0031154256 -0.06603587
-0.27665246 0.03266137 0.020002017 -0.29433638 0.063538015 -0.022846574 -0.3161338 0.36753312
0.5531263 -0.32940096 0.15181418 -0.45886856 -0.37980613 -0.43180138 -0.23007108 -0.54226613
-0.7144772 -0.97982556 -0.074473076 -0.048167944 -0.02270165 -0.06617108 -0.062144756 -0.2614624
-0.0010693371 -0.041433807 -0.06752325 -0.22409527 -0.2073237 -0.010424329 -0.229399 -0.38677302

linear1.bias f4 [128]
00000000: ee3f 74be 8a37 1fbe 337a 95be 7e8a 9bbe
00000010: 1264 02bf 487b d1bd 5c8d e5be aa78 77be
00000020: 662d 6bbe 18b5 84bf 7978 d3be 4674 dcbe
00000030: 6131 d3bd 4043 cbbe 4742 13bf c409 82be
00000040: 50d7 94be 4546 f0be c975 dcbe ba51 8abe
00000050: 76ba a6be 289a 8fbe 893c 1cbe e1bf 72be
00000060: 8510 4b3e 85c3 9dbe 4dce b3be b518 fbbe
00000070: 3a54 71be b800 61be 5ef4 04bf 58d1 60be
00000080: 5741 a9be 02f8 02be 5dce bcbd af3f c6be
00000090: 1015 bebe b1fb c9bc 5760 cebe 9aa0 2dbe
000000a0: f27c c8be 0352 e4be 9ad5 90be afd2 b0be
000000b0: aea9 febe 7b53 2ebf 2d50 3dbd 2b8c 40bf
000000c0: b6b0 cebe c094 cebe e4d4 19bf 0e8e 2fbe
000000d0: 28e8 a0be 0054 e0be 2a9e 85be 7a07 91be
000000e0: b7e9 c5be 2627 18be 67d6 9abe 3bd5 88be
000000f0: 1605 e8bd 653d cebe b677 cdbe d8bd b8be
00000100: 8d37 3dbe c14c 44be eb5c 27bf ee67 86be
00000110: 63d8 f7bd 3635 21be c034 a23d 2383 81be
00000120: e2b4 45bf d38c 8bbe 3dc3 64be 556d 08bf
00000130: 7b22 82be 7dc4 efbd b34e 16bf 7a1d 85be
00000140: ebd5 a5be 90e2 1ebe d937 04be d35a cfbe
00000150: 728e e9be c300 1abf 9ed3 a7be af59 aabe
00000160: 5d5f 3abe e509 93be 87ec fbbe 617b cfbe
00000170: eff5 82be ccfa d2be bf71 54bf 17a9 8cbe
00000180: fa38 12bf a23a cd3e fdf2 053d 9d08 fcbe
00000190: d53c 3abe 9495 a7be 9f13 09bf 7eab 8bbe
000001a0: b1e1 adbe 6e67 b4be a0ee cabe db04 a4bd
000001b0: 2cc4 38be 8df0 a5be c06a 30be 451e 5dbe
000001c0: eee2 a8be 444e f4be b34c bbbe 7f2d 71be
000001d0: 510f bdbe 085c 91be d3c0 d0be be8f 65bf
000001e0: b0e4 e7be 48c0 85bd b1da 51be c7ca 92be
000001f0: e164 d43c 93ba 39be c87c 18bf beea 65bb
-0.23852512 -0.1554853 -0.29194793 -0.303791 -0.50933945 -0.10228592 -0.4483441 -0.24167123
-0.22966537 -1.0367765 -0.4130285 -0.4305746 -0.10312153 -0.39699745 -0.57523006 -0.25398076
-0.2907052 -0.4692861 -0.43058613 -0.27015477 -0.32564133 -0.280473 -0.15257467 -0.23706008
0.1983052 -0.30813232 -0.35118333 -0.49042287 -0.23567286 -0.2197293 -0.51935375 -0.21954858
-0.33057663 -0.1278992 -0.09219048 -0.38720462 -0.37125444 -0.024656149 -0.40307876 -0.16955796
-0.39157826 -0.4459382 -0.28287965 -0.3453574 -0.4973883 -0.6809613 -0.04621904 -0.7521388
-0.40369195 -0.40347862 -0.6009047 -0.17144033 -0.3142712 -0.43814087 -0.26097232 -0.28326017
-0.38654873 -0.14858684 -0.302417 -0.26725182 -0.11329095 -0.40281215 -0.40130395 -0.3608234
-0.18478222 -0.19169904 -0.65376157 -0.26251167 -0.12101819 -0.15742955 0.079202175 -0.25295362
-0.7722913 -0.27255878 -0.22340102 -0.5329183 -0.25416932 -0.11707399 -0.58713835 -0.2599905
-0.3238977 -0.15516114 -0.12911929 -0.4049898 -0.4561649 -0.6015741 -0.3277864 -0.33271548
-0.1820044 -0.28718486 -0.49203894 -0.40523818 -0.25578257 -0.41206968 -0.8298606 -0.27472755
-0.5711819 0.40083796 0.032702435 -0.4922532 -0.18187268 -0.32731307 -0.53545564 -0.27279276
-0.3396125 -0.3523516 -0.3963518 -0.080087386 -0.18043584 -0.32410088 -0.17228222 -0.21593578
-0.32985634 -0.47715962 -0.36581954 -0.23552512 -0.36925748 -0.28390527 -0.40772113 -0.8967246
-0.45291662 -0.06530815 -0.2049358 -0.28670332 0.025927009 -0.18137579 -0.595654 -0.0035082544

linear2.weight f4 [64, 128]
00000000: 6c1a c8bc 25af 50bd 9963 933d e0bd e33c
00000010: bb5e 78bd 9228 01be 824a 12be c0f8 a8bc
00000020: 2056 b13b 508c 27bd 063a 333d 65d9 67bd
00000030: c1a2 883d 9a80 9bbd 64d1 6abd 8485 45bd
00000040: 52e9 2dbd 04ad ac3c 4a17 643d 70ba 99bd
00000050: 7a97 f8bc b635 5bbd 24c6 90bc 9e67 6c3d
00000060: 5e7d e6bd 0ae6 1b3d 88fb 023c 41b0 b33d
00000070: 73c0 6fbd 1cc8 f93c 8018 bfbd a4c4 f0bc
00000080: e477 abbd 18ff 033c ae4c 7f3d b452 db3c
00000090: 422b 313d 3a8d 513d 944d a5bc 0625 693d
000000a0: 4489 c7bd f0ff f9bb 00a6 9fbb b0c0 d53c
000000b0: a79e 943d d6a0 453d 1047 8c3c 66f0 9bbd
000000c0: 7291 85bd 6b3c ad3d fad5 79bd ae85 78bd
000000d0: 6265 22bd 9c4c 2e3d 7e36 78bd bbb2 05bd
000000e0: e83b 213c e009 26bd 00be a1ba cfe3 973d
000000f0: 513c 2cbd e027 8a3c ec89 c03c abf3 b33d
00000100: 6d87 5ebd a19a 8bbd 059c 3bbd 9368 72bd
00000110: 74fe 133d 8642 d9bc d5ec 923d dd2c 64be
00000120: 3f91 00be b444 02bd b628 c8bd f0f6 5ebc
00000130: 884f f03c d604 14bd fa07 733d 64be dabc
00000140: acb0 ffbc bf29 f4bd b2d5 5ebd ebbc 863d
00000150: 6c2a 99bd 5bc8 61bd 4ae1 d5bc 1445 dfbc
00000160: c725 5c3d dbd9 883d 3023 143c 659f 7bbd
00000170: b29f 003d d1d2 1dbe 04ce 92bd f996 10bd
00000180: 6055 133b d2fb 5b3d 38fe 05bb 12d6 9dbd
00000190: 4c87 1c3c dcc1 12be 306f 7c3c bec6 6fbd
000001a0: 3b27 85bd 0070 81bb 816c 8c3d 12cc 98bd
000001b0: 7e84 b2bd 0faa a6bd 0733 c2bd e9a3 60bd
000001c0: 7503 923d e26c 343d e439 b6bc f4aa 0d3d
000001d0: 4450 09bd 6de9 9f3d 88fe 75bc ba6d 4f3d
000001e0: a0fc 093b c896 52bc cedc 643d 00e1 ca39
000001f0: 6ad9 bcbd 4192 0b3c f4b2 d33c 4a92 82bd
00000200: 52a6 91bd 4eca 7f3d 1cf1 3ebd 7352 09be
00000210: 1867 633e bb0d e2bb a865 13be 5e7a 3fbd
00000220: 20f8 263d 8003 883c f4c4 ddbd 7b08 b2bd
00000230: b0d1 48bd 0cf9 143e 1138 fcbc 945c c83d
00000240: 2606 b3be 6b84 b9bd 90a5 393c 6b67 0a3d
00000250: 3e02 f2bc c2bf b13e 2b3d e93d 061d 723d
00000260: 2888 df3d fd60 183e 6bc9 c7bd fad5 1abf
00000270: aa91 dfbc 34f3 c13c 2139 cf3d ce91 e5bd
00000280: 8390 81bc 7026 1b3c 4bab bc3d f1b9 cc3e
00000290: eaa9 58be 8465 473d bafe 383d e4d0 94bd
000002a0: 5cfa 62bc 438b 1cbe d200 723d c625 d63d
000002b0: 22f5 373d f547 033e 1bac 4c3c e370 c4be
000002c0: adfe 2abc b672 603d ea91 a7be 0d68 18be
000002d0: 73ac 42be 6eb3 f1be 9d28 aabc 2405 a63e
000002e0: 2953 adbd 6edb 8cbc 4a03 203d 602e 003f
000002f0: 7f59 01be 4414 00bd 115f 4e3d da97 01be
00000300: f1f6 293e 5797 1f3e c342 513d 74f1 68bd
00000310: 6efc ae3d 2b8d aebc 43ff a6be 7acc 43be
00000320: 9112 173e ce15 e53c 274c 693d e2d8 16bd
00000330: 5afd ffbd 0830 01bc 1e5e d9bd bfd2 d3bd
00000340: cb7b 91bd 7638 15bf 82d9 76bd 91bb 03be
00000350: 3f08 52bc da58 07bd 6138 8cbd c06b e5bb
00000360: 26d2 ecbc 239e 063e f574 543d 2f54 21bd
00000370: d1d3 d0bd a201 e5be 9b59 86be 81fe d63d
00000380: 50f8 913c abbd f13c 8b84 313d cdc6 3cbd
00000390: 8b14 27be 521f 373e b833 54bd f250 c1bd
000003a0: 1e67 1a3e fa00 f0bc 1138 843d 0ceb 3b3d
000003b0: f639 22bd 351c 8d3b 3d80 a1be e3b3 efbc
000003c0: 359c 983d dabd d73d 9390 55bd 4775 9abe
000003d0: 936d 873b 3875 37bd cf78 23bd 8cab eabd
000003e0: 0866 b63c 8133 fabd d7e3 03bd 8603 9bbc
000003f0: cafb 6dbd 619c 16bd 0e4d 81bb 0670 8fbc
-0.024426661 -0.05094828 0.07196731 0.0278005 -0.060637217 -0.12613133 -0.14286235 -0.020626426
0.005411878 -0.040905297 0.043756507 -0.056603808 0.06671668 -0.07592888 -0.057328597 -0.048223034
-0.04245884 0.021078594 0.055686273 -0.07506263 -0.030345667 -0.05351802 -0.017672606 0.057716005
-0.11254381 0.03806118 0.00799454 0.08773852 -0.058533143 0.030490927 -0.09330845 -0.02939064
-0.08372477 0.008056425 0.062328987 0.026772834 0.043254144 0.051160075 -0.020178594 0.056920074
-0.09742978 -0.007629387 -0.0048720837 0.026092857 0.07256823 0.04824909 0.017123729 -0.07614212
-0.06521882 0.084587894 -0.06099508 -0.060674362 -0.039647467 0.04255353 -0.060598843 -0.032641154
0.009840943 -0.04053676 -0.001233995 0.07416498 -0.04204971 0.016864717 0.023503266 0.0878671
-0.05432837 -0.068166025 -0.04580309 -0.05918176 0.036131337 -0.026520979 0.071740784 -0.22282739
-0.12555407 -0.0318038 -0.0977339 -0.013608679 0.029334798 -0.036137424 0.05933378 -0.026702113
-0.031212173 -0.11922025 -0.054403014 0.06579002 -0.074787945 -0.055122714 -0.026108403 -0.027254619
0.053746965 0.06682178 0.0090415925 -0.061431307 0.031402297 -0.15412451 -0.071682006 -0.03530023
0.0022481307 0.05370695 -0.0020445716 -0.07706846 0.009553742 -0.14331764 0.015407369 -0.058539145
-0.06501623 -0.003950119 0.06856633 -0.07460798 -0.08716677 -0.08137905 -0.09482389 -0.054843817
0.071295656 0.04404915 -0.022244401 0.03458686 -0.033523813 0.07808194 -0.015014298 0.050641753
0.0021055117 -0.012853332 0.05587464 0.0003869608 -0.09221156 0.008518756 0.025842167 -0.06375559
-0.07111801 0.062448792 -0.04661666 -0.13410358 0.22207296 -0.0068986095 -0.14394248 -0.046747558
0.040763974 0.016603231 -0.108285815 -0.08693024 -0.0490281 0.14548129 -0.030788453 0.09783283
-0.34965628 -0.0905846 0.011330977 0.033790033 -0.029542085 0.34716612 0.1138862 0.05910971
0.109146416 0.14880748 -0.09755214 -0.6048275 -0.027291138 0.023675539 0.10118318 -0.11209451
-0.015815979 0.009469613 0.09212359 0.39985612 -0.21158567 0.048680797 0.0451648 -0.07266405
-0.013853636 -0.15287499 0.059082814 0.104564235 0.04491151 0.12820418 0.012492205 -0.38367376
-0.010436696 0.054796897 -0.3272851 -0.14883442 -0.19011097 -0.47207206 -0.020771319 0.32425797
-0.08463127 -0.017194476 0.039065637 0.5007076 -0.12631796 -0.031269327 0.05038363 -0.12655583
0.16598107 0.15585075 0.05108906 -0.056870893 0.08544241 -0.021307549 -0.32616624 -0.1912097
0.14753176 0.027964499 0.05695739 -0.03682793 -0.12499495 -0.007884987 -0.106136546 -0.10342931
-0.0710369 -0.5828928 -0.060266025 -0.1286452 -0.012819349 -0.03304372 -0.06846691 -0.00700137
-0.0289088 0.13146262 0.05186935 -0.039386924 -0.10196651 -0.44727808 -0.2624024 0.104977615
0.0178186 0.029509386 0.043339293 -0.04608803 -0.1631643 0.17883042 -0.051807135 -0.09439267
0.15078399 -0.02929734 0.06456006 0.045878455 -0.039606057 0.004306341 -0.3154315 -0.029260581
0.07451669 0.10534258 -0.05213983 -0.301676 0.0041329353 -0.044789523 -0.039910134 -0.11458501
0.02226545 -0.12216855 -0.032199707 -0.018922579 -0.058101453 -0.03677023 -0.003945953 -0.017509472

linear2.bias f4 [64]
00000000: a183 3abe 9045 cdbe 1745 1bbf 907b 2bbe
00000010: dd92 b7be 8c54 53be b7d4 a1be 4f74 36be
00000020: b8bc 49be cab5 cdbd ea78 3dbe 234f 54be
00000030: f915 54be 400b 23be fd03 52be 5b83 71be
00000040: 109c 05be 3f80 13be 7ec9 93bd ff41 c3bd
00000050: 3eeb 89be 6732 80be 0d93 99bd b182 2fbd
00000060: 1a62 35be 1478 36bc 4682 35be d107 8ebe
00000070: a1df 6bbe 442a 98be 2fd6 58be 8a8c 23be
00000080: 77cb e7bd 40b3 85be 177d bbbd c16e edbd
00000090: 757f 60be 6f3e 54be 7c59 91be 01c0 31be
000000a0: eb3d e5be 3e95 e2bd 2db7 f2be 0842 a8be
000000b0: aab2 88be 2783 7dbe d7f7 ffbd 6cc2 0cbe
000000c0: bf0c 43be 79af cebe f104 57be 7eb9 d7be
000000d0: a500 64be 4628 9cbe c4b5 afbe 6a53 67be
000000e0: 104f 5bbe 0f00 48be c47f 82be 588f 5cbe
000000f0: 3e6e cbbd 54b1 19bf a844 0abe 8349 f5bd
-0.18214275 -0.40092134 -0.606523 -0.16746354 -0.35854235 -0.20637721 -0.316076 -0.17817806
-0.19700897 -0.10044439 -0.18503156 -0.20733313 -0.20711507 -0.1592226 -0.20509334 -0.23585264
-0.13047814 -0.14404391 -0.07216166 -0.09534072 -0.26937288 -0.25038454 -0.07498751 -0.042849246
-0.17713204 -0.011137027 -0.17725477 -0.27740338 -0.23034526 -0.29719746 -0.21175455 -0.1597158
-0.11318105 -0.2611332 -0.09154718 -0.1159339 -0.21923621 -0.20726942 -0.28388584 -0.173584
-0.44773802 -0.11063622 -0.47405377 -0.32862878 -0.2669881 -0.24757062 -0.124984436 -0.13746041
-0.19047831 -0.4036825 -0.20997979 -0.42133707 -0.22265871 -0.30499476 -0.34318364 -0.22590414
-0.21416879 -0.19531272 -0.25488102 -0.21539056 -0.099331364 -0.60036206 -0.13502753 -0.11976912

linear3.weight f4 [3, 64]
00000000: 991d 65bc 0ee6 6cbe c339 39be dc9d ecbd
00000010: 0906 e4bc fb43 9a3d c71b b83d b800 f23c
00000020: a423 193e b2d8 183d ee98 803e fbd9 b1bd
00000030: 72bf 05be 580f c9bc 7e09 b2bc b280 7dbb
00000040: 00e4 63bf 1996 36be 42c7 0bbf 7544 61bd
00000050: 9edc b83d 692f 203e f37d 8f3d 89d3 acbd
00000060: 0773 653d 4e51 323e 20a0 0ebe 2d38 b83b
00000070: cc7f ddbd bb8a 5dbd dfda c03d ebd0 f3bc
00000080: b4b8 4dbd b224 853d 990d 20be 1ff6 3ebd
00000090: faa7 f9bf 99f7 9b3d 23dc 0d3c 411e d43d
000000a0: a70d eabc 7217 ee3d 027a 363e 34b6 1dbe
000000b0: 575d 183e 20ef 6cbd 0270 e4bd 0a4f 4c3e
000000c0: f5f3 efbd ba09 f03e 6f89 a83c c1ef 243d
000000d0: 5010 b3bd 667a 503c ebe7 72be 994e 33bd
000000e0: 0d54 2a3d 3a17 0b3c 063a 8e3e fa24 5d3e
000000f0: bb85 debc d436 893e f515 2fbd 065a 4d3e
00000100: f31c 35bd b703 7cbe 6150 b9ba 350d 053e
00000110: 6b7b cabc e1db ae3c 07eb f4bc e656 e2bd
00000120: bb24 b33b b270 96bc fe41 1f3e 59cf 833d
00000130: 7696 b23d b363 85bd 7d73 943d 8110 033e
00000140: 4ea0 acbe 3f0b c3bf bc56 6abd ee5d 3f3e
00000150: 152b bcbd 3c30 3d3e ed79 86ba e849 543d
00000160: 00aa 253e 9a02 2e3d 7537 3e3d a55d 81bd
00000170: aabb a4bd 4ea3 233e b75f 173e e064 68bc
00000180: 0d4d 9fbc 56a2 3bbd b19e 113d b007 03bd
00000190: f198 b83c 70a6 78bc ca56 9dbd 3af1 f4bf
000001a0: 2a87 68bd 3e68 4bbd 99f2 80bd 6d11 223d
000001b0: 773f 223d cb56 e9bc 2e9d 793e c34b 3f3e
000001c0: f94b ab3d 909c a03d d1aa 033e 34d0 5c3d
000001d0: 6fc4 91bd 3320 dcbe 9e5d 003b d90e ddbc
000001e0: 9e2f b53d 2a2e a4be 575a 6e3e f4b9 d6bf
000001f0: 838a 86bd e4d0 ddbd 5c87 283d 1239 debd
00000200: e7ea fc3c c6a6 2f3d de47 133d e292 553e
00000210: bd04 423e 847d 11c0 03ee ec3d 657e 33bd
00000220: 725b cebd 4511 5bbd fa35 96bd 0cf5 e93b
00000230: 3d0f 2cbd 2625 af3c 09af 15be c9ec 133d
00000240: cc92 553d 6568 9ebd 9b34 01be b887 8cbd
00000250: e08f 1d3c 0a5e 023e 6b26 40bd dae0 1bbd
00000260: 8e4c f73d 2788 8ebd 346b 0b3d 3286 73bd
00000270: c411 c03d 393d a33c 371c 113e a3eb be3d
00000280: fc8f aebd 3fc4 5fbd 58c7 e13b 8adf d2bd
00000290: 7bc4 943d 78e2 ec3c c376 6dbe e4e6 443d
000002a0: 0f36 42be 10b7 18bd 677f 3bbd 8636 2cbc
000002b0: b32c a8bd 9324 13bd 51bd 4e3e 6bb0 8d3d
000002c0: 7f24 663c 15c6 3dbf b882 9fbc 026d 37bd
000002d0: 78eb d6bd 8c56 15bd b08b b8be bd76 8d3c
000002e0: 00ce ecb9 1f41 9cbd 2d96 1a3e 27e3 c4bc
000002f0: a34a c9bd a995 b8be 24be 60be 5935 853d
-0.013984107 -0.23134634 -0.1808844 -0.11553547 -0.027834909 0.075324975 0.08989673 0.029541358
0.14955002 0.03731603 0.25116676 -0.086841546 -0.13061312 -0.02454345 -0.021733042 -0.0038681445
-0.89019775 -0.17830695 -0.5460092 -0.054996926 0.090264544 0.15643086 0.07006445 -0.08438785
0.0560179 0.17413828 -0.1392827 0.005621931 -0.10815391 -0.05408738 0.09416746 -0.029762706
-0.050224975 0.0650114 -0.15630187 -0.046621438 -1.9504387 0.07615585 0.008658442 0.10357333
-0.028570963 0.116255656 0.1781998 -0.15401536 0.14879356 -0.057845235 -0.11154176 0.19952026
-0.11716453 0.4688242 0.020573346 0.04026771 -0.08743346 0.012724495 -0.23721282 -0.04377613
0.041584063 0.008489424 0.27778643 0.21596137 -0.027163377 0.26799643 -0.04274555 0.20053872
-0.04421706 -0.24610792 -0.0014138335 0.1299332 -0.024717053 0.02134508 -0.029897226 -0.11051731
0.005467025 -0.018364284 0.15552518 0.06436033 0.087201044 -0.06513157 0.0724859 0.12799264
-0.33716053 -1.5237807 -0.057211623 0.18688175 -0.09187905 0.18475431 -0.0010259725 0.051828295
0.16178131 0.04248295 0.046439607 -0.063166894 -0.080436066 0.15980265 0.14782606 -0.014184207
-0.01944592 -0.045809112 0.03555173 -0.031989753 0.022533866 -0.015176401 -0.07682569 -1.9136117
-0.056769527 -0.04965996 -0.06296272 0.0395674 0.039611306 -0.028483769 0.24376366 0.18681245
0.083641 0.07842362 0.1285813 0.053909495 -0.07117545 -0.42993316 0.001958705 -0.026984619
0.08846973 -0.3206647 0.2327665 -1.6775498 -0.06569388 -0.10830858 0.041144714 -0.10850729
0.030873729 0.042883657 0.03595721 0.20856813 0.1894712 -2.2732859 0.11568835 -0.04382171
-0.100760356 -0.053483266 -0.07334514 0.0071398076 -0.04200672 0.021380018 -0.14617552 0.036114488
0.05214195 -0.077347554 -0.12617724 -0.06861824 0.009616822 0.12731186 -0.04691164 -0.038056232
0.120751485 -0.06959563 0.034037784 -0.05945415 0.093783885 0.019926654 0.1417092 0.09322288
-0.085235566 -0.054630514 0.0068902187 -0.10296543 0.07264038 0.028916582 -0.23189835 0.048071757
-0.18965934 -0.037283957 -0.045775797 -0.010511046 -0.08211651 -0.03592355 0.20189406 0.06918415
0.014046787 -0.74130374 -0.019471511 -0.044781692 -0.10494131 -0.03645949 -0.36044073 0.017268533
-0.0004516691 -0.07629608 0.1509635 -0.024034096 -0.09828689 -0.36051682 -0.21947533 0.06504316

linear3.bias f4 [3]
00000000: 34b8 74bf 268c 74bf ab62 6ebf
-0.9559357 -0.9552635 -0.93119305
