model_backup_110.pth (torch, 42271 bytes, 6 tensors)

linear1.weight f4 [128, 11]
-0.15760572 -0.1626771 -0.19460553 0.0447343 0.096040584 0.032057505 -0.1962748 0.06294697
0.13725132 -0.2007443 -0.261517 0.123880655 0.06700316 -0.18510002 -0.16639453 -0.17770973
-0.21795096 -0.28930867 -0.0806313 -0.05922033 -0.26079276 -0.19469777 -0.2110439 0.10342475
-0.038683772 0.1600603 -0.079358645 -0.117303714 -0.2582026 0.015622973 -0.07383101 -0.09149322
-0.35944852 -0.26321825 -0.51208127 -0.23803069 0.0050655575 0.044653606 -0.35164934 0.26214072
-0.026640944 -0.31629887 -0.62835777 0.010000154 0.07117788 0.62593925 -0.28600872 0.14443077
-0.2642862 -0.24821958 -0.32326448 0.15719225 -0.13762513 -0.44987845 -0.488832 -0.18764299
-0.2805616 -0.11095166 -0.22656992 -0.08993627 -0.02390571 -0.1757684 -0.100911126 -0.14779
-0.06743209 -0.17568314 0.64467007 0.25811997 0.41873947 -0.13701272 -0.029802056 -0.4383458
-0.42391494 -0.111424886 -0.05676234 -0.08211772 -0.40222076 0.08285248 -0.15073778 0.11094946
-0.08721931 0.07171265 -0.27317724 -0.050929308 -0.18703263 0.013375187 0.022309234 -0.033556826
-0.19480762 -0.006560892 0.055693716 0.120133586 -0.08175027 -0.15496132 -0.06937145 0.01538607
-0.135116 -0.24296263 -0.3328282 0.5723522 0.8490207 -0.11373501 -0.018084569 -0.22160901
0.17928763 -0.33833638 -0.13734771 -0.59941775 -0.16466092 -0.32986027 0.4599017 -0.25661215
-0.29212597 0.109814785 0.119420305 -0.25393325 0.06836325 -0.70961505 -0.16957472 -0.3463575
-0.53948724 -0.058221266 -0.0866406 -0.17056459 0.13146678 -0.14030476 -0.26986277 -0.1276358
0.017626166 0.13995364 -0.03352567 0.061768096 -0.26456925 -0.088477 -0.15141724 0.029536903
0.12328848 0.23690134 -0.1909381 -0.22254366 -0.28196454 -0.28307942 -0.2322472 1.4910316
0.0010933431 -0.36563993 -0.18221064 -0.88634956 -0.05455948 0.061998986 -0.054386564 -0.34751105
-0.40292406 -0.04587721 0.17645022 0.13532469 -0.28102505 0.08605796 0.062693246 -0.17912233
-0.1714695 -0.0247233 -0.09030654 0.108515546 0.026564391 0.52852607 -0.08725998 0.31230253
-0.12074022 0.15162608 0.24289827 0.13431075 -0.2706127 -0.4348882 -0.28309074 -0.51768774
0.5738957 0.3189479 0.23030186 -0.0055297287 -0.17189506 -0.045006193 0.08328373 -0.33873004
0.029554578 -0.7288835 -0.66713077 0.40199387 -0.22500736 -0.23967157 -0.16432682 0.037801694
-0.08013417 -0.033178274 -0.07457978 -0.37307915 -0.0758019 -0.38299847 -0.07887983 -0.14007407
0.13515458 0.3333038 0.09579164 0.14124586 -0.26686874 0.033516433 -0.058765132 -0.22427192
-0.1894645 0.122308254 -0.27309042 -0.21485746 0.0459904 0.08632347 0.060420394 0.0046567917
-0.050665073 -0.01976657 -0.17287241 -0.17468888 -0.20989837 0.15818217 -0.0031154256 -0.06603587
-0.27665246 0.03266137 0.020002017 -0.29433638 0.063538015 -0.022846574 -0.3161338 0.36929217
0.68595815 -0.24522087 -0.10398647 -0.5718173 -0.28569683 -0.044775575 -0.09971535 -0.38568124
-0.553849 -0.42097512 -0.074473076 -0.048167944 -0.02270165 -0.06617108 -0.062144756 -0.2614624
-0.0010693371 -0.041433807 -0.06752325 -0.22409527 -0.2073237 -0.010424329 -0.229399 -0.38677302
00000000: 6563 21be d394 26be ac46 47be 503b 373d
00000010: edb0 c43d bb4e 033d 43fc 48be 57ea 803d
00000020: 9c8b 0c3e ea8f 4dbe 8ee5 85be 24b5 fd3d
00000030: f438 893d dc8a 3dbe 5463 2abe 8af9 35be
00000040: 892e 5fbe 4420 94be 0622 a5bd 0491 72bd
00000050: a186 85be da5e 47be e41b 58be 5bd0 d33d
00000060: e072 1ebd d9e6 233e c986 a2bd ee3c f0bd
00000070: 2233 84be 80f7 7f3c b634 97bd cc60 bbbd
00000080: a309 b8be 8bc4 86be c217 03bf 51be 73be
00000090: fafc a53b b3e6 363d 620b b4be 4f37 863e
000000a0: 1c3e dabc edf1 a1be 0edc 20bf b0d7 233c
000000b0: b5c5 913d 8e3d 203f bc6f 92be a9e5 133e
000000c0: 8550 87be 462d 7ebe ec82 a5be 01f7 203e
000000d0: 9aed 0cbe 7856 e6be 3048 fabe 7c25 40be
000000e0: c5a5 8fbe a03a e3bd f201 68be 8230 b8bd
000000f0: e8d5 c3bc a2fc 33be 7eaa cebd 4356 17be
00000100: d619 8abd 48e6 33be 1909 253f 4d28 843e
00000110: 0565 d63e 104d 0cbe 7123 f4bc dc6e e0be
00000120: 610b d9be bb32 e4bd a17f 68bd 562d a8bd
00000130: e1ef cdbe 90ae a93d 015b 1abe 7839 e33d
00000140: 0aa0 b2bd 15de 923d e3dd 8bbe 409b 50bd
00000150: 7b85 3fbe 9a23 5b3c dbc1 b63c e272 09bd
00000160: a67b 47be c0fc d6bb 181f 643d 9908 f63d
00000170: b06c a7bd 2eae 1ebe 9e12 8ebd db15 7c3c
00000180: d95b 0abe 32cb 78be 7568 aabe ac85 123f
00000190: 6c59 593f e7ed e8bd 1726 94bc 79ed 62be
000001a0: 2d97 373e 6d3a adbe e1a4 0cbe 7173 19bf
000001b0: df9c 28be 72e3 a8be 3c78 eb3e ab62 83be
000001c0: 8991 95be 93e6 e03d a292 f43d 8a03 82be
000001d0: 0802 8c3d 55a9 35bf ffa4 2dbe c555 b1be
000001e0: d61b 0abf 6c79 6ebd a070 b1bd 7ca8 2ebe
000001f0: 3a9f 063e 0dac 0fbe 742b 8abe f6b2 02be
00000200: c064 903c 0250 0f3e 3752 09bd 8b00 7d3d
00000210: 9f75 87be 6e33 b5bd 1f0d 1bbe 60f7 f13c
00000220: ac7e fc3d 4496 723e 4785 43be 7ce2 63be
00000230: a85d 90be c9ef 90be 36d2 6dbe 20da be3f
00000240: 824e 8f3a 2835 bbbe 6d95 3abe cee7 62bf
00000250: c379 5fbd a6f2 7d3d 72c4 5ebd f8ec b1be
00000260: 104c cebe bee9 3bbd 5eaf 343e 8e92 0a3e
00000270: 84e2 8fbe 283f b03d 5165 803d d86b 37be
00000280: b395 2fbe 8588 cabc a3f2 b8bd 663d de3d
00000290: 919d d93c 7c4d 073f 5cb5 b2bd 1ee6 9f3e
000002a0: a646 f7bd de43 1b3e 53ba 783e c288 093e
000002b0: bf8d 8abe aba9 debe 45f1 90be 2f87 04bf
000002c0: d4ea 123f 244d a33e 40d4 6b3e ba32 b5bb
000002d0: 4205 30be 6a58 38bd a990 aa3d 066e adbe
000002e0: 711c f23c 1c98 3abf 15c9 2abf 24d2 cd3e
000002f0: 5468 66be 776c 75be 4a45 28be f3d5 1a3d
00000300: 621d a4bd f1e5 07bd 49bd 98bd 3b04 bfbe
00000310: 073e 9bbd 6018 c4be c08b a1bd 946f 0fbe
00000320: f665 0a3e cca6 aa3e 682e c43d c1a2 103e
00000330: 05a3 88be 8748 093d b5b3 70bd 8aa7 65be
00000340: fb02 42be c07c fa3d 82d2 8bbe 9803 5cbe
00000350: 6e60 3c3d 5cca b03d 607b 773d 0098 983b
00000360: 2e86 4fbd 80ed a1bc 7705 31be a4e1 32be
00000370: 99ef 56be 82fa 213e 2b2c 4cbb d03d 87bd
00000380: 64a5 8dbe eec7 053d 45db a33c 42b3 96be
00000390: 3820 823d bd28 bbbc 4adc a1be dd13 bd3e
000003a0: f49a 2f3f 2e1b 7bbe dcf6 d4bd 9e62 12bf
000003b0: db46 92be 9866 37bd 9037 ccbd 0378 c5be
000003c0: 0cc9 0dbf 0d8a d7be 5785 98bd c04b 45bd
000003d0: d0f8 b9bc b484 87bd 808b 7ebd 66de 85be
000003e0: 0029 8cba 7fb6 29bd a149 8abd 3b79 65be
000003f0: aa4c 54be ceca 2abc 92e7 6abe 1d07 c6be

linear1.bias f4 [128]
-0.23852512 -0.1554853 -0.29194793 -0.303791 -0.12838224 -0.10228592 -0.2916338 -0.24167123
-0.22966537 -0.7225748 -0.4130285 -0.4305746 -0.10312153 0.10510729 -0.41640773 -0.12052754
-0.09737098 -0.310472 -0.19456168 -0.27015477 -0.32564133 -0.11799954 -0.15257467 -0.23706008
-0.29918733 -0.30813232 -0.28174865 -0.29540893 -0.23567286 -0.2197293 -0.2531751 -0.21954858
-0.1163512 -0.1278992 -0.09219048 -0.23907593 -0.23215052 -0.024656149 -0.40307876 -0.16955796
-0.39157826 -0.4459382 -0.28287965 -0.0063653886 -0.4973883 -0.5735271 -0.04621904 -0.19338305
-0.40369195 -0.33549634 -0.12595841 -0.17144033 -0.15673847 -0.3617738 -0.26097232 0.13252991
-0.38654873 -0.14858684 -0.302417 -0.6031903 -0.11329095 -0.40281215 -0.40130395 -0.36197102
-0.18478222 -0.03296808 -0.17224745 -0.24138439 -0.12101819 -0.15742955 -0.060254175 -0.024422422
-0.6134643 -0.27255878 -0.11142979 -0.5329183 -0.25416932 -0.11707399 -0.58713835 -0.2599905
-0.3238977 -0.46535933 -0.12911929 -0.2462266 -0.37834153 -0.47180763 -0.3254482 -0.33271548
-0.1820044 -0.28718486 -0.49203894 -0.40523818 -0.2963837 -0.377511 -0.33945456 -0.18646201
-0.43287906 0.0338531 0.032702435 -0.4922532 -0.18187268 0.11045872 -0.53545564 -0.27279276
-0.27787006 -0.3523516 -0.3963518 -0.080087386 -0.18043584 -0.32410088 -0.018143525 -0.21593578
-0.32985634 -0.47715962 -0.36581954 0.00513752 -0.36925748 -0.28390527 -0.40772113 -0.32142058
-0.45291662 -0.06530815 -0.2049358 -0.28670332 0.025927009 -0.18137579 -0.59565395 -0.0035082544
00000000: ee3f 74be 8a37 1fbe 337a 95be 7e8a 9bbe
00000010: a276 03be 487b d1bd 0751 95be aa78 77be
00000020: 662d 6bbe a9fa 38bf 7978 d3be 4674 dcbe
00000030: 6131 d3bd 7e42 d73d 6533 d5be 25d7 f6bd
00000040: 706a c7bd 30f6 9ebe 2d3b 47be ba51 8abe
00000050: 76ba a6be bea9 f1bd 893c 1cbe e1bf 72be
00000060: 152f 99be 85c3 9dbe 5c41 90be d73f 97be
00000070: 3a54 71be b800 61be 2ba0 81be 58d1 60be
00000080: 8a49 eebd 02f8 02be 5dce bcbd 52d0 74be
00000090: deb8 6dbe b1fb c9bc 5760 cebe 9aa0 2dbe
000000a0: f27c c8be 0352 e4be 9ad5 90be c094 d0bb
000000b0: aea9 febe acd2 12bf 2d50 3dbd 3506 46be
000000c0: b6b0 cebe 2dc6 abbe 3efb 00be 0e8e 2fbe
000000d0: 0d80 20be 6a3a b9be 2a9e 85be ecb5 073e
000000e0: b7e9 c5be 2627 18be 67d6 9abe ae6a 1abf
000000f0: 1605 e8bd 653d cebe b677 cdbe 4454 b9be
00000100: 8d37 3dbe 8a09 07bd a361 30be 782d 77be
00000110: 63d8 f7bd 3635 21be 15cd 76bd 8811 c8bc
00000120: ff0b 1dbf d38c 8bbe 4d35 e4bd 556d 08bf
00000130: 7b22 82be 7dc4 efbd b34e 16bf 7a1d 85be
00000140: ebd5 a5be 9443 eebe d937 04be d322 7cbe
00000150: fbb5 c1be c590 f1be 25a1 a6be af59 aabe
00000160: 5d5f 3abe e509 93be 87ec fbbe 617b cfbe
00000170: 9bbf 97be 1f49 c1be fdcc adbe e6ef 3ebe
00000180: 53a2 ddbe 8ca9 0a3d fdf2 053d 9d08 fcbe
00000190: d53c 3abe 2e38 e23d 9f13 09bf 7eab 8bbe
000001a0: fc44 8ebe 6e67 b4be a0ee cabe db04 a4bd
000001b0: 2cc4 38be 8df0 a5be bba1 94bc 451e 5dbe
000001c0: eee2 a8be 444e f4be b34c bbbe a458 a83b
000001d0: 510f bdbe 085c 91be d3c0 d0be 3d91 a4be
000001e0: b0e4 e7be 48c0 85bd b1da 51be c7ca 92be
000001f0: e164 d43c 93ba 39be c77c 18bf beea 65bb

linear2.weight f4 [64, 128]
-0.024426661 -0.05094828 0.07196731 0.0278005 -0.060637217 -0.12613133 -0.14286235 -0.020626426
0.005411878 -0.040905297 0.043756507 -0.056603808 0.06671668 -0.07592888 -0.057328597 -0.048223034
-0.04245884 0.021078594 0.055686273 -0.07506263 -0.030345667 -0.05351802 -0.017672606 0.057716005
-0.11254381 0.03806118 0.00799454 0.08773852 -0.058533143 0.030490927 -0.09330845 -0.02939064
-0.08372477 0.008056425 0.062328987 0.026772834 0.043254144 0.051160075 -0.020178594 0.056920074
-0.09742978 -0.007629387 -0.0048720837 0.026092857 0.07256823 0.04824909 0.017123729 -0.07614212
-0.06521882 0.084587894 -0.06099508 -0.060674362 -0.039647467 0.04255353 -0.060598843 -0.032641154
0.009840943 -0.04053676 -0.001233995 0.07416498 -0.04204971 0.016864717 0.023503266 0.0878671
-0.05432837 -0.068166025 -0.04580309 -0.05918176 0.036131337 -0.026520979 0.071740784 -0.22282739
-0.12555407 -0.0318038 -0.0977339 -0.013608679 0.029334798 -0.036137424 0.05933378 -0.026702113
-0.031212173 -0.11922025 -0.054403014 0.06579002 -0.074787945 -0.055122714 -0.026108403 -0.027254619
0.053746965 0.06682178 0.0090415925 -0.061431307 0.031402297 -0.15412451 -0.071682006 -0.03530023
0.0022481307 0.05370695 -0.0020445716 -0.07706846 0.009553742 -0.14331764 0.015407369 -0.058539145
-0.06501623 -0.003950119 0.06856633 -0.07460798 -0.08716677 -0.08137905 -0.09482389 -0.054843817
0.071295656 0.04404915 -0.022244401 0.03458686 -0.033523813 0.07808194 -0.015014298 0.050641753
0.0021055117 -0.012853332 0.05587464 0.0003869608 -0.09221156 0.008518756 0.025842167 -0.06375559
-0.07111801 0.062448792 -0.04661666 -0.13410358 -0.0021018987 -0.0068986095 -0.141826 -0.046747558
0.040763974 0.0014044325 -0.108285815 -0.08693024 -0.0490281 0.13170408 0.12797335 0.06443948
0.0725247 0.06823134 -0.15179388 0.033790033 -0.029542085 -0.24174637 0.1138862 0.05910971
0.053989388 0.14880748 -0.026130581 0.07073442 -0.027291138 0.023675539 -0.12184454 -0.11209451
-0.015815979 0.009469613 0.09212359 0.062246196 -0.072474524 0.048680797 0.0451648 -0.07266405
-0.013853636 -0.15287499 0.059082814 -0.030499354 0.04491151 -0.030161168 0.012492205 0.014098711
-0.010436696 0.054796897 -0.06843996 -0.14883442 -0.03143045 -0.12328147 -0.020771319 0.039340444
-0.08463127 -0.017194476 0.039065637 -0.082149506 -0.12631796 -0.031269327 0.05038363 0.12088475
0.16598107 -0.002382051 -0.057162188 -0.030587276 0.08544241 -0.021307549 -0.05114012 0.10597025
-0.011284262 0.027964499 -0.101784155 -0.03682793 -0.12499495 -0.007884987 -0.106136546 -0.10342931
-0.0710369 0.023838472 -0.060266025 0.03016115 0.027614515 0.017224297 -0.026554938 -0.00700137
-0.0289088 0.13146262 0.05186935 -0.039386924 0.048884798 -0.063997805 0.08324014 0.037719693
-0.11937799 -0.044706196 0.043339293 -0.04608803 -0.1631643 0.05823302 -0.051807135 -0.09439267
-0.0759678 -0.02929734 0.06456006 0.045878455 -0.039606057 0.004306341 -0.24106786 -0.029260581
0.07451669 0.10534258 -0.05213983 0.08192212 0.0041329353 -0.044789523 -0.039910134 0.035781544
0.02226545 -0.12216855 -0.032199707 -0.018922579 -0.058101453 -0.03677023 -0.003945953 -0.017509472
00000000: 6c1a c8bc 25af 50bd 9963 933d e0bd e33c
00000010: bb5e 78bd 9228 01be 824a 12be c0f8 a8bc
00000020: 2056 b13b 508c 27bd 063a 333d 65d9 67bd
00000030: c1a2 883d 9a80 9bbd 64d1 6abd 8485 45bd
00000040: 52e9 2dbd 04ad ac3c 4a17 643d 70ba 99bd
00000050: 7a97 f8bc b635 5bbd 24c6 90bc 9e67 6c3d
00000060: 5e7d e6bd 0ae6 1b3d 88fb 023c 41b0 b33d
00000070: 73c0 6fbd 1cc8 f93c 8018 bfbd a4c4 f0bc
00000080: e477 abbd 18ff 033c ae4c 7f3d b452 db3c
00000090: 422b 313d 3a8d 513d 944d a5bc 0625 693d
000000a0: 4489 c7bd f0ff f9bb 00a6 9fbb b0c0 d53c
000000b0: a79e 943d d6a0 453d 1047 8c3c 66f0 9bbd
000000c0: 7291 85bd 6b3c ad3d fad5 79bd ae85 78bd
000000d0: 6265 22bd 9c4c 2e3d 7e36 78bd bbb2 05bd
000000e0: e83b 213c e009 26bd 00be a1ba cfe3 973d
000000f0: 513c 2cbd e027 8a3c ec89 c03c abf3 b33d
00000100: 6d87 5ebd a19a 8bbd 059c 3bbd 9368 72bd
00000110: 74fe 133d 8642 d9bc d5ec 923d dd2c 64be
00000120: 3f91 00be b444 02bd b628 c8bd f0f6 5ebc
00000130: 884f f03c d604 14bd fa07 733d 64be dabc
00000140: acb0 ffbc bf29 f4bd b2d5 5ebd ebbc 863d
00000150: 6c2a 99bd 5bc8 61bd 4ae1 d5bc 1445 dfbc
00000160: c725 5c3d dbd9 883d 3023 143c 659f 7bbd
00000170: b29f 003d d1d2 1dbe 04ce 92bd f996 10bd
00000180: 6055 133b d2fb 5b3d 38fe 05bb 12d6 9dbd
00000190: 4c87 1c3c dcc1 12be 306f 7c3c bec6 6fbd
000001a0: 3b27 85bd 0070 81bb 816c 8c3d 12cc 98bd
000001b0: 7e84 b2bd 0faa a6bd 0733 c2bd e9a3 60bd
000001c0: 7503 923d e26c 343d e439 b6bc f4aa 0d3d
000001d0: 4450 09bd 6de9 9f3d 88fe 75bc ba6d 4f3d
000001e0: a0fc 093b c896 52bc cedc 643d 00e1 ca39
000001f0: 6ad9 bcbd 4192 0b3c f4b2 d33c 4a92 82bd
00000200: 52a6 91bd 4eca 7f3d 1cf1 3ebd 7352 09be
00000210: 02c0 09bb bb0d e2bb d63a 11be 5e7a 3fbd
00000220: 20f8 263d ef14 b83a f4c4 ddbd 7b08 b2bd
00000230: b0d1 48bd 6fdd 063e 720b 033e d9f8 833d
00000240: d487 943d dfbc 8b3d db6f 1bbe 6b67 0a3d
00000250: 3e02 f2bc 5c8c 77be 2b3d e93d 061d 723d
00000260: fa23 5d3d fd60 183e cd0f d6bc 35dd 903d
00000270: aa91 dfbc 34f3 c13c a189 f9bd ce91 e5bd
00000280: 8390 81bc 7026 1b3c 4bab bc3d def5 7e3d
00000290: 866d 94bd 8465 473d bafe 383d e4d0 94bd
000002a0: 5cfa 62bc 438b 1cbe d200 723d c8d9 f9bc
000002b0: 22f5 373d 8e14 f7bc 1bac 4c3c 48fe 663c
000002c0: adfe 2abc b672 603d 402a 8cbd 0d68 18be
000002d0: 37bd 00bd ff7a fcbd 9d28 aabc 7223 213d
000002e0: 2953 adbd 6edb 8cbc 4a03 203d 003e a8bd
000002f0: 7f59 01be 4414 00bd 115f 4e3d 6c92 f73d
00000300: f1f6 293e 2f1c 1cbb e622 6abd 2b92 fabc
00000310: 6efc ae3d 2b8d aebc 4d78 51bd ee06 d93d
00000320: a0e1 38bc ce15 e53c 3674 d0bd e2d8 16bd
00000330: 5afd ffbd 0830 01bc 1e5e d9bd bfd2 d3bd
00000340: cb7b 91bd e648 c33c 82d9 76bd 8414 f73c
00000350: d637 e23c f819 8d3c be89 d9bc c06b e5bb
00000360: 26d2 ecbc 239e 063e f574 543d 2f54 21bd
00000370: 6d3b 483d 4811 83bd ce79 aa3d f77f 1a3d
00000380: 737c f4bd d81d 37bd 8b84 313d cdc6 3cbd
00000390: 8b14 27be bf85 6e3d b833 54bd f250 c1bd
000003a0: 0295 9bbd fa00 f0bc 1138 843d 0ceb 3b3d
000003b0: f639 22bd 351c 8d3b 7eda 76be e3b3 efbc
000003c0: 359c 983d dabd d73d 9390 55bd c9c6 a73d
000003d0: 936d 873b 3875 37bd cf78 23bd ab8f 123d
000003e0: 0866 b63c 8133 fabd d7e3 03bd 8603 9bbc
000003f0: cafb 6dbd 619c 16bd 0e4d 81bb 0670 8fbc

linear2.bias f4 [64]
-0.18214275 -0.2011235 -0.14835763 -0.16746354 -0.21043395 0.052769832 -0.316076 0.24070892
-0.19700897 -0.10044439 -0.18503156 -0.116598055 -0.20711507 -0.1592226 -0.20509334 -0.077284686
-0.058417875 -0.12227652 0.3573188 -0.09534072 -0.018796794 -0.15944442 -0.07498751 -0.042849246
-0.17713204 -0.046882495 -0.17725477 -0.118579 -0.07152183 -0.13956413 -0.21175455 -0.1597158
-0.11318105 -0.1235462 -0.09154718 -0.1159339 -0.18271121 -0.20726942 -0.07423322 -0.09872679
-0.28918636 -0.11063622 -0.05811188 -0.23295248 -0.115041904 -0.24757062 -0.097136006 -0.13746041
-0.09873218 -0.038589913 -0.20997979 -0.27082914 -0.11458453 -0.08202223 -0.06540659 -0.09189241
-0.102647714 -0.13312991 -0.22938484 0.18970029 -0.073066115 -0.12702517 -0.027110124 -0.11976912
00000000: a183 3abe 52f3 4dbe 10eb 17be 907b 2bbe
00000010: ff7b 57be 2e25 583d b7d4 a1be 667c 763e
00000020: b8bc 49be cab5 cdbd ea78 3dbe f6ca eebd
00000030: f915 54be 400b 23be fd03 52be 6f47 9ebd
00000040: 9547 6fbd 1d6c fabd 7df2 b63e ff41 c3bd
00000050: bcfb 99bc 6645 23be 0d93 99bd b182 2fbd
00000060: 1a62 35be dc07 40bd 4682 35be 8cd9 f2bd
00000070: 0a7a 92bd e6e9 0ebe 2fd6 58be 8a8c 23be
00000080: 77cb e7bd ca05 fdbd 177d bbbd c16e edbd
00000090: a618 3bbe 6f3e 54be 9607 98bd 4531 cabd
000000a0: 3c10 94be 3e95 e2bd b906 6ebd 188b 6ebe
000000b0: 179b ebbd 2783 7dbe 3eef c6bd 6cc2 0cbe
000000c0: 1934 cabd 7510 1ebd f104 57be 1eaa 8abe
000000d0: 4bab eabd 45fb a7bd e4f3 85bd 1632 bcbd
000000e0: f738 d2bd 3553 08be dce3 6abe cb40 423e
000000f0: b0a3 95bd e312 02be 0d16 debc 8349 f5bd

linear3.weight f4 [3, 64]
-0.013984107 0.038665734 0.012541839 -0.11553547 -0.027834909 -0.116886996 0.08989673 -0.3910328
0.14955002 0.03731603 0.25116676 -0.086841546 -0.13061312 -0.02454345 -0.021733042 -0.0038681445
0.027239785 -8.5970394e-05 -0.5627903 -0.054996926 0.043573003 -0.002210203 0.07006445 -0.08438785
0.0560179 -0.27059147 -0.1392827 0.005621931 -0.10815391 -0.05408738 0.09416746 -0.029762706
-0.050224975 0.0650114 -0.15630187 -0.046621438 -0.6737268 0.07615585 -0.077211894 -0.16269942
-0.17861228 0.116255656 0.0154355345 -0.012717412 -0.0029391176 -0.057845235 0.1251682 0.19952026
-0.06646781 0.20635234 0.020573346 0.04026771 -0.08743346 0.06373257 -0.024021823 -0.04377613
0.041584063 -0.09929581 0.2473857 0.26064298 0.037905533 0.04714247 -0.06831965 0.20053872
-0.04421706 -0.05570198 -0.072099105 0.1299332 0.12338466 0.13320374 -0.029897226 0.11360164
0.005467025 -0.018364284 0.15552518 -0.002862353 0.087201044 -0.06513157 0.0724859 -0.017687807
-0.08895922 -0.042065058 -0.02367675 0.18688175 -0.07651749 0.014518462 -0.0010259725 0.051828295
0.16178131 -0.2633338 0.046439607 0.095643975 0.07835786 0.15980265 0.14782606 -0.014184207
-0.01944592 0.07352388 0.03555173 -0.031989753 0.13457663 -0.015176401 0.036656145 -0.07891133
-0.056769527 -0.04965996 0.007002194 -0.060339272 -0.10982226 -0.028483769 0.03655296 0.18681245
-0.0051973625 0.52249 0.1285813 -0.073107354 -0.07117545 0.008118913 0.011538137 0.01389015
0.10918878 0.075890265 0.07479521 -0.13858451 0.009114092 0.0562789 0.08152027 -0.10850729
0.030873729 0.030149654 0.059417844 0.20856813 0.1894712 -0.20401777 0.11568835 0.16170037
-0.100760356 -0.053483266 -0.07334514 0.0071398076 -0.04200672 0.021380018 -0.14617552 0.036114488
0.02319741 -0.19957438 -0.23766492 -0.06861824 0.02526712 -0.031362463 -0.04691164 -0.038056232
0.120751485 -0.072006494 0.034037784 -0.05945415 0.093783885 -0.13366044 0.1417092 0.09322288
-0.085235566 -0.054630514 0.0068902187 -0.10296543 0.11773294 0.028916582 0.056939807 0.018757135
-0.18965934 -0.037283957 0.018847397 0.008686691 0.06285756 -0.03592355 -0.01554788 0.06918415
-0.0637051 -0.09313506 -0.019471511 -0.044781692 0.00019483268 0.10894527 0.072822586 0.017268533
-0.0004516691 0.055361226 0.08946559 -0.075422384 -0.17467697 -0.088308565 -0.22568528 0.06504316
00000000: 991d 65bc f65f 1e3d 497c 4d3c dc9d ecbd
00000010: 0906 e4bc 7362 efbd c71b b83d 7335 c8be
00000020: a423 193e b2d8 183d ee98 803e fbd9 b1bd
00000030: 72bf 05be 580f c9bc 7e09 b2bc b280 7dbb
00000040: f825 df3c 014b b4b8 0613 10bf 7544 61bd
00000050: 9b79 323d 0ed9 10bb f37d 8f3d 89d3 acbd
00000060: 0773 653d f78a 8abe 20a0 0ebe 2d38 b83b
00000070: cc7f ddbd bb8a 5dbd dfda c03d ebd0 f3bc
00000080: b4b8 4dbd b224 853d 990d 20be 1ff6 3ebd
00000090: 5c79 2cbf 99f7 9b3d 4521 9ebd ad9a 26be
000000a0: 23e6 36be 7217 ee3d 53e5 7c3c b15c 50bc
000000b0: 369e 40bb 20ef 6cbd 182c 003e 0a4f 4c3e
000000c0: 4620 88bd 074e 533e 6f89 a83c c1ef 243d
000000d0: 5010 b3bd 3986 823d 6ac9 c4bc 994e 33bd
000000e0: 0d54 2a3d 9a5b cbbd ad52 7d3e ff72 853e
000000f0: d542 1b3d 7618 413d 2ceb 8bbd 065a 4d3e
00000100: f31c 35bd c227 64bd b2a8 93bd 350d 053e
00000110: 19b1 fc3d 9066 083e 07eb f4bc faa7 e83d
00000120: bb24 b33b b270 96bc fe41 1f3e 5196 3bbb
00000130: 7696 b23d b363 85bd 7d73 943d 05e6 90bc
00000140: 4030 b6bd 694c 2cbd bef5 c1bc ee5d 3f3e
00000150: 34b5 9cbd d8de 6d3c ed79 86ba e849 543d
00000160: 00aa 253e b0d3 86be 7537 3e3d fde0 c33d
00000170: 167a a03d 4ea3 233e b75f 173e e064 68bc
00000180: 0d4d 9fbc b093 963d b19e 113d b007 03bd
00000190: 75ce 093e 70a6 78bc c124 163d 439c a1bd
000001a0: 2a87 68bd 3e68 4bbd a972 e53b 5026 77bd
000001b0: 7eea e0bd cb56 e9bc 8eb8 153d c34b 3f3e
000001c0: a34e aabb e8c1 053f d1aa 033e 4fb9 95bd
000001d0: 6fc4 91bd 3005 053c 740a 3d3c 8393 633c
000001e0: 5e9e df3d 5b6c 9b3d 3b2e 993d 19e9 0dbe
000001f0: 4653 153c b484 663d 19f4 a63d 1239 debd
00000200: e7ea fc3c 68fc f63c 2060 733d e292 553e
00000210: bd04 423e 09ea 50be 03ee ec3d c894 253e
00000220: 725b cebd 4511 5bbd fa35 96bd 0cf5 e93b
00000230: 3d0f 2cbd 2625 af3c 09af 15be c9ec 133d
00000240: 7f08 be3c 3a5d 4cbe 6f5e 73be b887 8cbd
00000250: fefc ce3c ed75 00bd 6b26 40bd dae0 1bbd
00000260: 8e4c f73d 2478 93bd 346b 0b3d 3286 73bd
00000270: c411 c03d 48de 08be 371c 113e a3eb be3d
00000280: fc8f aebd 3fc4 5fbd 58c7 e13b 8adf d2bd
00000290: f81d f13d 78e2 ec3c b739 693d 90a8 993c
000002a0: 0f36 42be 10b7 18bd db65 9a3c 9f52 0e3c
000002b0: 77bb 803d 9324 13bd 89bc 7ebc 6bb0 8d3d
000002c0: d277 82bd 98bd bebd b882 9fbc 026d 37bd
000002d0: 004c 4c39 b31e df3d 0224 953d bd76 8d3c
000002e0: 00ce ecb9 74c2 623d bc39 b73d 0d77 9abd
000002f0: 85de 32be 1fdb b4bd 0b1a 67be 5935 853d

linear3.bias f4 [3]
-0.68145764 -0.9191175 -0.8922015
00000000: 0274 2ebf 494b 6bbf 5167 64bf
