model_backup_90.pth (torch, 42263 bytes, 6 tensors)

linear1.weight f4 [128, 11]
000000 65 63 21 be d3 94 26 be ac 46 47 be 50 3b 37 3d
       -0.15760572 -0.1626771 -0.19460553 0.0447343
000010 ed b0 c4 3d bb 4e 03 3d 43 fc 48 be 57 ea 80 3d
       0.096040584 0.032057505 -0.1962748 0.06294697
000020 9c 8b 0c 3e ea 8f 4d be 8e e5 85 be 24 b5 fd 3d
       0.13725132 -0.2007443 -0.261517 0.123880655
000030 f4 38 89 3d dc 8a 3d be 54 63 2a be 8a f9 35 be
       0.06700316 -0.18510002 -0.16639453 -0.17770973
000040 89 2e 5f be 44 20 94 be 06 22 a5 bd 04 91 72 bd
       -0.21795096 -0.28930867 -0.0806313 -0.05922033
000050 a1 86 85 be da 5e 47 be e4 1b 58 be 5b d0 d3 3d
       -0.26079276 -0.19469777 -0.2110439 0.10342475
000060 e0 72 1e bd d9 e6 23 3e c9 86 a2 bd ee 3c f0 bd
       -0.038683772 0.1600603 -0.079358645 -0.117303714
000070 22 33 84 be 80 f7 7f 3c b6 34 97 bd cc 60 bb bd
       -0.2582026 0.015622973 -0.07383101 -0.09149322
000080 a3 09 b8 be 8b c4 86 be c2 17 03 bf 51 be 73 be
       -0.35944852 -0.26321825 -0.51208127 -0.23803069
000090 fa fc a5 3b b3 e6 36 3d 62 0b b4 be 4f 37 86 3e
       0.0050655575 0.044653606 -0.35164934 0.26214072
0000a0 1c 3e da bc ed f1 a1 be 0e dc 20 bf b0 d7 23 3c
       -0.026640944 -0.31629887 -0.62835777 0.010000154
0000b0 3a 3e 4f 3e 87 14 a7 3e bc 6f 92 be 08 82 61 3d
       0.20238581 0.3263285 -0.28600872 0.055055648
0000c0 85 50 87 be 46 2d 7e be ec 82 a5 be 14 4b 33 bb
       -0.2642862 -0.24821958 -0.32326448 -0.0027357982
0000d0 2b 9e d4 bd 78 56 e6 be b7 b6 fb be 7c 25 40 be
       -0.10381731 -0.44987845 -0.49162838 -0.18764299
0000e0 c5 a5 8f be a0 3a e3 bd f2 01 68 be 82 30 b8 bd
       -0.2805616 -0.11095166 -0.22656992 -0.08993627
0000f0 e8 d5 c3 bc a2 fc 33 be 7e aa ce bd 43 56 17 be
       -0.02390571 -0.1757684 -0.100911126 -0.14779
000100 d6 19 8a bd 48 e6 33 be 61 2f 08 3f d3 63 84 3e
       -0.06743209 -0.17568314 0.53197294 0.2585741
000110 dd a8 a4 3e 0b 3a 3b be b8 0f e7 bd 7c 62 e0 be
       0.32160082 -0.1828386 -0.11282295 -0.43825138
000120 80 a6 b2 be 6c e9 00 be 11 47 ac bd de d5 80 be
       -0.34892654 -0.12589043 -0.08411992 -0.25163168
000130 c4 ae cd be 90 ae a9 3d 01 5b 1a be 78 39 e3 3d
       -0.40172398 0.08285248 -0.15073778 0.11094946
000140 0a a0 b2 bd 15 de 92 3d e3 dd 8b be 40 9b 50 bd
       -0.08721931 0.07171265 -0.27317724 -0.050929308
000150 7b 85 3f be 9a 23 5b 3c db c1 b6 3c e2 72 09 bd
       -0.18703263 0.013375187 0.022309234 -0.033556826
000160 a6 7b 47 be c0 fc d6 bb 18 1f 64 3d 99 08 f6 3d
       -0.19480762 -0.006560892 0.055693716 0.120133586
000170 b0 6c a7 bd 2e ae 1e be 9e 12 8e bd db 15 7c 3c
       -0.08175027 -0.15496132 -0.06937145 0.01538607
000180 d9 5b 0a be 32 cb 78 be 75 68 aa be e0 07 de 3e
       -0.135116 -0.24296263 -0.3328282 0.43365383
000190 1c a2 5d 3f e7 ed e8 bd 1b 1c 95 bc 79 ed 62 be
       0.86575484 -0.11373501 -0.018201878 -0.22160901
0001a0 b3 f7 67 3e 6d 3a ad be 91 22 be bd c9 55 19 bf
       0.22653084 -0.33833638 -0.09283937 -0.5989652
0001b0 47 4f 95 bd 58 6d a5 be 3c 78 eb 3e ab 62 83 be
       -0.072905116 -0.32309985 0.4599017 -0.25661215
0001c0 89 91 95 be 93 e6 e0 3d a2 92 f4 3d 8a 03 82 be
       -0.29212597 0.109814785 0.119420305 -0.25393325
0001d0 08 02 8c 3d 55 a9 35 bf ff a4 2d be c5 55 b1 be
       0.06836325 -0.70961505 -0.16957472 -0.3463575
0001e0 d6 1b 0a bf 6c 79 6e bd a0 70 b1 bd 7c a8 2e be
       -0.53948724 -0.058221266 -0.0866406 -0.17056459
0001f0 3a 9f 06 3e 0d ac 0f be 74 2b 8a be f6 b2 02 be
       0.13146678 -0.14030476 -0.26986277 -0.1276358
000200 c0 64 90 3c 02 50 0f 3e 37 52 09 bd 8b 00 7d 3d
       0.017626166 0.13995364 -0.03352567 0.061768096
000210 9f 75 87 be 6e 33 b5 bd 1f 0d 1b be 60 f7 f1 3c
       -0.26456925 -0.088477 -0.15141724 0.029536903
000220 ac 7e fc 3d 44 96 72 3e 47 85 43 be 7c e2 63 be
       0.12328848 0.23690134 -0.1909381 -0.22254366
000230 a8 5d 90 be c9 ef 90 be 36 d2 6d be c6 ad 8b 3f
       -0.28196454 -0.28307942 -0.2322472 1.0912406
000240 5c 54 1c be cb 1c e3 bd 24 15 a9 bd cc d4 3d bf
       -0.15266556 -0.11089476 -0.082559854 -0.7415283
000250 a1 85 cf bb 70 50 9e bd bf 81 6c be 1b 40 7c be
       -0.0063330685 -0.07730186 -0.23096369 -0.2463383
000260 35 94 f8 be 86 5d 44 bc 5e af 34 3e 8e 92 0a 3e
       -0.48550573 -0.011985188 0.17645022 0.13532469
000270 84 e2 8f be 28 3f b0 3d 51 65 80 3d d8 6b 37 be
       -0.28102505 0.08605796 0.062693246 -0.17912233
000280 b3 95 2f be 85 88 ca bc a3 f2 b8 bd 66 3d de 3d
       -0.1714695 -0.0247233 -0.09030654 0.108515546
000290 91 9d d9 3c 03 4c 08 3f 5c b5 b2 bd 0f ec 64 3e
       0.026564391 0.53240985 -0.08725998 0.22355674
0002a0 a6 46 f7 bd 75 b4 1b 3e d9 2a aa 3e c8 89 38 3d
       -0.12074022 0.15205558 0.33235815 0.045053273
0002b0 3a f6 8a be 82 7c db be 45 f1 90 be bb 8d 93 be
       -0.2714098 -0.4286843 -0.28309074 -0.2881907
0002c0 a5 79 83 3e 54 54 2b 3e 9a c2 7b 3e 43 29 fa bd
       0.25678745 0.16731387 0.24585953 -0.12214901
0002d0 f8 0f 2c be 8b 79 86 bc ad 23 1c 3e bf 06 42 be
       -0.16802967 -0.016415378 0.15247984 -0.18947886
0002e0 89 e9 47 be dc 5e 9c be 6b 96 27 bf 24 d2 cd 3e
       -0.1952268 -0.30541122 -0.65463895 0.40199387
0002f0 54 68 66 be 77 6c 75 be 4a 45 28 be f3 d5 1a 3d
       -0.22500736 -0.23967157 -0.16432682 0.037801694
000300 62 1d a4 bd f1 e5 07 bd 49 bd 98 bd 3b 04 bf be
       -0.08013417 -0.033178274 -0.07457978 -0.37307915
000310 07 3e 9b bd 60 18 c4 be c0 8b a1 bd 94 6f 0f be
       -0.0758019 -0.38299847 -0.07887983 -0.14007407
000320 b5 9e 92 3d 42 9e 8b 3e 68 2e c4 3d c1 a2 10 3e
       0.07159177 0.2726918 0.09579164 0.14124586
000330 05 a3 88 be 60 61 c3 bc eb b6 95 bd 8a a7 65 be
       -0.26686874 -0.023850143 -0.073102795 -0.22427192
000340 fb 02 42 be c0 7c fa 3d 82 d2 8b be 98 03 5c be
       -0.1894645 0.122308254 -0.27309042 -0.21485746
000350 6e 60 3c 3d 5c ca b0 3d 60 7b 77 3d 00 98 98 3b
       0.0459904 0.08632347 0.060420394 0.0046567917
000360 2e 86 4f bd 80 ed a1 bc 77 05 31 be a4 e1 32 be
       -0.050665073 -0.01976657 -0.17287241 -0.17468888
000370 99 ef 56 be 82 fa 21 3e 2b 2c 4c bb d0 3d 87 bd
       -0.20989837 0.15818217 -0.0031154256 -0.06603587
000380 64 a5 8d be ee c7 05 3d 45 db a3 3c 42 b3 96 be
       -0.27665246 0.03266137 0.020002017 -0.29433638
000390 38 20 82 3d bd 28 bb bc 4a dc a1 be eb 55 07 3f
       0.063538015 -0.022846574 -0.3161338 0.52865475
0003a0 62 82 14 3f 56 97 2f be bc e2 21 be 9e 62 12 bf
       0.5801145 -0.17147574 -0.15809149 -0.5718173
0003b0 3d be 8a be b8 7b 89 bd 2f 4e 15 bd 69 7a d9 be
       -0.27098265 -0.067130506 -0.036451515 -0.42476204
0003c0 91 68 c6 be bb c9 c6 be 57 85 98 bd c0 4b 45 bd
       -0.38751653 -0.38825783 -0.074473076 -0.048167944
0003d0 d0 f8 b9 bc b4 84 87 bd 80 8b 7e bd 66 de 85 be
       -0.02270165 -0.06617108 -0.062144756 -0.2614624
0003e0 00 29 8c ba 7f b6 29 bd a1 49 8a bd 3b 79 65 be
       -0.0010693371 -0.041433807 -0.06752325 -0.22409527
0003f0 aa 4c 54 be ce ca 2a bc 92 e7 6a be 1d 07 c6 be
       -0.2073237 -0.010424329 -0.229399 -0.38677302

linear1.bias f4 [128]
000000 ee 3f 74 be 8a 37 1f be 33 7a 95 be 7e 8a 9b be
       -0.23852512 -0.1554853 -0.29194793 -0.303791
000010 53 23 5d be 48 7b d1 bd 4e fb 9e be aa 78 77 be
       -0.21595506 -0.10228592 -0.31051105 -0.24167123
000020 66 2d 6b be 57 e9 34 bf 79 78 d3 be 46 74 dc be
       -0.22966537 -0.7066855 -0.4130285 -0.4305746
000030 61 31 d3 bd a6 39 d6 3b 65 33 d5 be 06 a7 34 be
       -0.10312153 0.006537634 -0.41640773 -0.1764184
000040 4c c9 ff bc 30 f6 9e be a2 8e 81 be ba 51 8a be
       -0.031223916 -0.310472 -0.25304133 -0.27015477
000050 76 ba a6 be 0a 65 c1 bd 89 3c 1c be e1 bf 72 be
       -0.32564133 -0.094431 -0.15257467 -0.23706008
000060 f2 bf 0d be 85 c3 9d be 5c 41 90 be 7d 6f 80 be
       -0.13842753 -0.30813232 -0.28174865 -0.2508506
000070 3a 54 71 be b8 00 61 be ec 29 26 be 58 d1 60 be
       -0.23567286 -0.2197293 -0.1622693 -0.21954858
000080 74 0e f5 bc 02 f8 02 be 5d ce bc bd b0 21 60 be
       -0.029914118 -0.1278992 -0.09219048 -0.21887851
000090 de b8 6d be b1 fb c9 bc 57 60 ce be 9a a0 2d be
       -0.23215052 -0.024656149 -0.40307876 -0.16955796
0000a0 f2 7c c8 be 03 52 e4 be 9a d5 90 be 07 0c 1d be
       -0.39157826 -0.4459382 -0.28287965 -0.1533662
0000b0 ae a9 fe be e7 a1 17 bf 2d 50 3d bd 0a 2f 24 be
       -0.4973883 -0.5923142 -0.04621904 -0.16033569
0000c0 b6 b0 ce be ac c6 bf be de 0f 49 bd 0e 8e 2f be
       -0.40369195 -0.37456262 -0.049087398 -0.17144033
0000d0 0d 80 20 be 2d d6 73 be 2a 9e 85 be d2 b8 87 3d
       -0.15673847 -0.2381217 -0.26097232 0.066270486
0000e0 b7 e9 c5 be 26 27 18 be 67 d6 9a be b9 1e 04 bf
       -0.38654873 -0.14858684 -0.302417 -0.5160938
0000f0 16 05 e8 bd 65 3d ce be b6 77 cd be 18 a1 b8 be
       -0.11329095 -0.40281215 -0.40130395 -0.36060405
000100 2f f9 3a be 8a 09 07 bd af 90 a0 bd 78 2d 77 be
       -0.18259118 -0.03296808 -0.07840096 -0.24138439
000110 63 d8 f7 bd 36 35 21 be f0 ea 61 3e 6e b2 e9 3c
       -0.12101819 -0.15742955 0.22062278 0.028527465
000120 ff 0b 1d bf d3 8c 8b be c5 71 08 be 55 6d 08 bf
       -0.6134643 -0.27255878 -0.1332465 -0.5329183
000130 76 48 33 be 7d c4 ef bd b3 4e 16 bf 7a 1d 85 be
       -0.1750811 -0.11707399 -0.58713835 -0.2599905
000140 d2 96 fd bd 34 eb d1 be d9 37 04 be d3 22 7c be
       -0.12382282 -0.40999758 -0.12911929 -0.2462266
000150 9a 75 72 be 08 20 0f bf 55 82 96 be af 59 aa be
       -0.23677674 -0.5590825 -0.2939631 -0.33271548
000160 5d 5f 3a be e5 09 93 be c6 d1 aa be 61 7b cf be
       -0.1820044 -0.28718486 -0.3336317 -0.40523818
000170 9b bf 97 be fb b6 90 be 30 db f4 be e6 ef 3e be
       -0.2963837 -0.28264603 -0.47823477 -0.18646201
000180 53 a2 dd be 5b 1b b4 bd fd f2 05 3d 9d 08 fc be
       -0.43287906 -0.0879428 0.032702435 -0.4922532
000190 d5 3c 3a be a2 43 97 3e 9e 1e c2 be 7e ab 8b be
       -0.18187268 0.29543787 -0.37913984 -0.27279276
0001a0 fc 44 8e be 6e 67 b4 be a0 ee ca be db 04 a4 bd
       -0.27787006 -0.3523516 -0.3963518 -0.080087386
0001b0 2c c4 38 be 8d f0 a5 be bb a1 94 bc 45 1e 5d be
       -0.18043584 -0.32410088 -0.018143525 -0.21593578
0001c0 ee e2 a8 be 44 4e f4 be b3 4c bb be 2e 68 6d 3d
       -0.32985634 -0.47715962 -0.36581954 0.05796068
0001d0 0d 9c cf bd 08 5c 91 be d3 c0 d0 be 3d 91 a4 be
       -0.10137186 -0.28390527 -0.40772113 -0.32142058
0001e0 b0 e4 e7 be 48 c0 85 bd b1 da 51 be c7 ca 92 be
       -0.45291662 -0.06530815 -0.2049358 -0.28670332
0001f0 e1 64 d4 3c 93 ba 39 be 5f 4c fb be be ea 65 bb
       0.025927009 -0.18137579 -0.49081704 -0.0035082544

linear2.weight f4 [64, 128]
000000 6c 1a c8 bc 25 af 50 bd 99 63 93 3d e0 bd e3 3c
       -0.024426661 -0.05094828 0.07196731 0.0278005
000010 bb 5e 78 bd 92 28 01 be 82 4a 12 be c0 f8 a8 bc
       -0.060637217 -0.12613133 -0.14286235 -0.020626426
000020 20 56 b1 3b 50 8c 27 bd 06 3a 33 3d 65 d9 67 bd
       0.005411878 -0.040905297 0.043756507 -0.056603808
000030 c1 a2 88 3d 9a 80 9b bd 64 d1 6a bd 84 85 45 bd
       0.06671668 -0.07592888 -0.057328597 -0.048223034
000040 52 e9 2d bd 04 ad ac 3c 4a 17 64 3d 70 ba 99 bd
       -0.04245884 0.021078594 0.055686273 -0.07506263
000050 7a 97 f8 bc b6 35 5b bd 24 c6 90 bc 9e 67 6c 3d
       -0.030345667 -0.05351802 -0.017672606 0.057716005
000060 5e 7d e6 bd 0a e6 1b 3d 88 fb 02 3c 41 b0 b3 3d
       -0.11254381 0.03806118 0.00799454 0.08773852
000070 73 c0 6f bd 1c c8 f9 3c 80 18 bf bd a4 c4 f0 bc
       -0.058533143 0.030490927 -0.09330845 -0.02939064
000080 e4 77 ab bd 18 ff 03 3c ae 4c 7f 3d b4 52 db 3c
       -0.08372477 0.008056425 0.062328987 0.026772834
000090 42 2b 31 3d 3a 8d 51 3d 94 4d a5 bc 06 25 69 3d
       0.043254144 0.051160075 -0.020178594 0.056920074
0000a0 44 89 c7 bd f0 ff f9 bb 00 a6 9f bb b0 c0 d5 3c
       -0.09742978 -0.007629387 -0.0048720837 0.026092857
0000b0 a7 9e 94 3d d6 a0 45 3d 10 47 8c 3c 66 f0 9b bd
       0.07256823 0.04824909 0.017123729 -0.07614212
0000c0 72 91 85 bd 6b 3c ad 3d fa d5 79 bd ae 85 78 bd
       -0.06521882 0.084587894 -0.06099508 -0.060674362
0000d0 62 65 22 bd 9c 4c 2e 3d 7e 36 78 bd bb b2 05 bd
       -0.039647467 0.04255353 -0.060598843 -0.032641154
0000e0 e8 3b 21 3c e0 09 26 bd 00 be a1 ba cf e3 97 3d
       0.009840943 -0.04053676 -0.001233995 0.07416498
0000f0 51 3c 2c bd e0 27 8a 3c ec 89 c0 3c ab f3 b3 3d
       -0.04204971 0.016864717 0.023503266 0.0878671
000100 6d 87 5e bd a1 9a 8b bd 05 9c 3b bd 93 68 72 bd
       -0.05432837 -0.068166025 -0.04580309 -0.05918176
000110 74 fe 13 3d 86 42 d9 bc d5 ec 92 3d dd 2c 64 be
       0.036131337 -0.026520979 0.071740784 -0.22282739
000120 3f 91 00 be b4 44 02 bd b6 28 c8 bd f0 f6 5e bc
       -0.12555407 -0.0318038 -0.0977339 -0.013608679
000130 88 4f f0 3c d6 04 14 bd fa 07 73 3d 64 be da bc
       0.029334798 -0.036137424 0.05933378 -0.026702113
000140 ac b0 ff bc bf 29 f4 bd b2 d5 5e bd eb bc 86 3d
       -0.031212173 -0.11922025 -0.054403014 0.06579002
000150 6c 2a 99 bd 5b c8 61 bd 4a e1 d5 bc 14 45 df bc
       -0.074787945 -0.055122714 -0.026108403 -0.027254619
000160 c7 25 5c 3d db d9 88 3d 30 23 14 3c 65 9f 7b bd
       0.053746965 0.06682178 0.0090415925 -0.061431307
000170 b2 9f 00 3d d1 d2 1d be 04 ce 92 bd f9 96 10 bd
       0.031402297 -0.15412451 -0.071682006 -0.03530023
000180 60 55 13 3b d2 fb 5b 3d 38 fe 05 bb 12 d6 9d bd
       0.0022481307 0.05370695 -0.0020445716 -0.07706846
000190 4c 87 1c 3c dc c1 12 be 30 6f 7c 3c be c6 6f bd
       0.009553742 -0.14331764 0.015407369 -0.058539145
0001a0 3b 27 85 bd 00 70 81 bb 81 6c 8c 3d 12 cc 98 bd
       -0.06501623 -0.003950119 0.06856633 -0.07460798
0001b0 7e 84 b2 bd 0f aa a6 bd 07 33 c2 bd e9 a3 60 bd
       -0.08716677 -0.08137905 -0.09482389 -0.054843817
0001c0 75 03 92 3d e2 6c 34 3d e4 39 b6 bc f4 aa 0d 3d
       0.071295656 0.04404915 -0.022244401 0.03458686
0001d0 44 50 09 bd 6d e9 9f 3d 88 fe 75 bc ba 6d 4f 3d
       -0.033523813 0.07808194 -0.015014298 0.050641753
0001e0 a0 fc 09 3b c8 96 52 bc ce dc 64 3d 00 e1 ca 39
       0.0021055117 -0.012853332 0.05587464 0.0003869608
0001f0 6a d9 bc bd 41 92 0b 3c f4 b2 d3 3c 4a 92 82 bd
       -0.09221156 0.008518756 0.025842167 -0.06375559
000200 52 a6 91 bd 4e ca 7f 3d 1c f1 3e bd 73 52 09 be
       -0.07111801 0.062448792 -0.04661666 -0.13410358
000210 02 c0 09 bb bb 0d e2 bb d6 3a 11 be 5e 7a 3f bd
       -0.0021018987 -0.0068986095 -0.141826 -0.046747558
000220 20 f8 26 3d ef 14 b8 3a f4 c4 dd bd 7b 08 b2 bd
       0.040763974 0.0014044325 -0.108285815 -0.08693024
000230 b0 d1 48 bd 1c 89 ed 3d 72 0b 03 3e c4 75 4b 3d
       -0.0490281 0.11598417 0.12797335 0.049672857
000240 d4 87 94 3d df bc 8b 3d db 6f 1b be 6b 67 0a 3d
       0.0725247 0.06823134 -0.15179388 0.033790033
000250 3e 02 f2 bc 5c 8c 77 be 2b 3d e9 3d 06 1d 72 3d
       -0.029542085 -0.24174637 0.1138862 0.05910971
000260 6c ec 1c 3d fd 60 18 3e cd 0f d6 bc 35 dd 90 3d
       0.038311407 0.14880748 -0.026130581 0.07073442
000270 aa 91 df bc 34 f3 c1 3c 7b 90 0c be ce 91 e5 bd
       -0.027291138 0.023675539 -0.1372699 -0.11209451
000280 83 90 81 bc 70 26 1b 3c 4b ab bc 3d 39 d7 3e 3d
       -0.015815979 0.009469613 0.09212359 0.04659197
000290 86 6d 94 bd 84 65 47 3d ba fe 38 3d e4 d0 94 bd
       -0.072474524 0.048680797 0.0451648 -0.07266405
0002a0 5c fa 62 bc 43 8b 1c be d2 00 72 3d 49 ee 2e bd
       -0.013853636 -0.15287499 0.059082814 -0.042707715
0002b0 22 f5 37 3d 8e 14 f7 bc 1b ac 4c 3c 48 fe 66 3c
       0.04491151 -0.030161168 0.012492205 0.014098711
0002c0 ad fe 2a bc b6 72 60 3d 71 26 ac bd 0d 68 18 be
       -0.010436696 0.054796897 -0.084057696 -0.14883442
0002d0 37 bd 00 bd ff 7a fc bd 9d 28 aa bc 11 09 c2 3c
       -0.03143045 -0.12328147 -0.020771319 0.023685964
0002e0 29 53 ad bd 6e db 8c bc 4a 03 20 3d 00 3e a8 bd
       -0.08463127 -0.017194476 0.039065637 -0.082149506
0002f0 7f 59 01 be 44 14 00 bd 11 5f 4e 3d ec 73 d9 3d
       -0.12631796 -0.031269327 0.05038363 0.106178135
000300 f1 f6 29 3e 2f 1c 1c bb ec 2e 95 bd 2b 92 fa bc
       0.16598107 -0.002382051 -0.0728434 -0.030587276
000310 6e fc ae 3d 2b 8d ae bc 4d 78 51 bd 90 e0 b8 3d
       0.08544241 -0.021307549 -0.05114012 0.09027207
000320 a0 e1 38 bc ce 15 e5 3c 36 74 d0 bd e2 d8 16 bd
       -0.011284262 0.027964499 -0.101784155 -0.03682793
000330 5a fd ff bd 08 30 01 bc 1e 5e d9 bd bf d2 d3 bd
       -0.12499495 -0.007884987 -0.106136546 -0.10342931
000340 cb 7b 91 bd e6 48 c3 3c 82 d9 76 bd 84 14 f7 3c
       -0.0710369 0.023838472 -0.060266025 0.03016115
000350 16 98 88 3c f8 19 8d 3c be 89 d9 bc c0 6b e5 bb
       0.016674083 0.017224297 -0.026554938 -0.00700137
000360 26 d2 ec bc 23 9e 06 3e f5 74 54 3d 2f 54 21 bd
       -0.0289088 0.13146262 0.05186935 -0.039386924
000370 6d 3b 48 3d 48 11 83 bd cf 41 8a 3d f7 7f 1a 3d
       0.048884798 -0.063997805 0.06750833 0.037719693
000380 73 7c f4 bd 1e 8b 77 bd 8b 84 31 3d cd c6 3c bd
       -0.11937799 -0.060435407 0.043339293 -0.04608803
000390 8b 14 27 be 72 c9 2e 3d b8 33 54 bd f2 50 c1 bd
       -0.1631643 0.042672582 -0.051807135 -0.09439267
0003a0 02 95 9b bd fa 00 f0 bc 11 38 84 3d 0c eb 3b 3d
       -0.0759678 -0.02929734 0.06456006 0.045878455
0003b0 f6 39 22 bd 35 1c 8d 3b 7e da 76 be e3 b3 ef bc
       -0.039606057 0.004306341 -0.24106786 -0.029260581
0003c0 35 9c 98 3d da bd d7 3d 93 90 55 bd c9 c6 a7 3d
       0.07451669 0.10534258 -0.05213983 0.08192212
0003d0 93 6d 87 3b 38 75 37 bd cf 78 23 bd ab 8f 12 3d
       0.0041329353 -0.044789523 -0.039910134 0.035781544
0003e0 08 66 b6 3c 81 33 fa bd d7 e3 03 bd 86 03 9b bc
       0.02226545 -0.12216855 -0.032199707 -0.018922579
0003f0 ca fb 6d bd 61 9c 16 bd 0e 4d 81 bb 06 70 8f bc
       -0.058101453 -0.03677023 -0.003945953 -0.017509472

linear2.bias f4 [64]
000000 a1 83 3a be c7 00 5e be 10 eb 17 be 90 7b 2b be
       -0.18214275 -0.21679984 -0.14835763 -0.16746354
000010 ff 7b 57 be a1 fd 47 bd b7 d4 a1 be 39 14 29 bd
       -0.21043395 -0.048825864 -0.316076 -0.04127905
000020 b8 bc 49 be ca b5 cd bd ea 78 3d be f6 ca ee bd
       -0.19700897 -0.10044439 -0.18503156 -0.116598055
000030 f9 15 54 be 40 0b 23 be fd 03 52 be 6f 47 9e bd
       -0.20711507 -0.1592226 -0.20509334 -0.077284686
000040 95 47 6f bd 19 4a 0d be 94 bd e4 3e ff 41 c3 bd
       -0.058417875 -0.13797797 0.44675887 -0.09534072
000050 bc fb 99 bc 66 45 23 be 0d 93 99 bd b1 82 2f bd
       -0.018796794 -0.15944442 -0.07498751 -0.042849246
000060 1a 62 35 be cc fd 8a 3d 46 82 35 be 8c d9 f2 bd
       -0.17713204 0.06786689 -0.17725477 -0.118579
000070 0a 7a 92 bd e6 e9 0e be 89 fb 5f bd 8a 8c 23 be
       -0.07152183 -0.13956413 -0.054683242 -0.1597158
000080 77 cb e7 bd ca 05 fd bd 17 7d bb bd c1 6e ed bd
       -0.11318105 -0.1235462 -0.09154718 -0.1159339
000090 5d 13 ba bd 6f 3e 54 be e7 da 6f bd 32 c5 a6 bd
       -0.090857245 -0.20726942 -0.05855837 -0.08143081
0000a0 33 ab 7c be 3e 95 e2 bd b9 06 6e bd a1 f1 2d be
       -0.24674682 -0.11063622 -0.05811188 -0.16986705
0000b0 17 9b eb bd 27 83 7d be aa c6 4e bc 6c c2 0c be
       -0.115041904 -0.24757062 -0.012620607 -0.13746041
0000c0 19 34 ca bd 75 10 1e bd f1 04 57 be fc 7d 65 be
       -0.09873218 -0.038589913 -0.20997979 -0.2241134
0000d0 4b ab ea bd 45 fb a7 bd e4 f3 85 bd 16 32 bc bd
       -0.11458453 -0.08202223 -0.06540659 -0.09189241
0000e0 f7 38 d2 bd 35 53 08 be dc e3 6a be 30 b4 7a bd
       -0.102647714 -0.13312991 -0.22938484 -0.061206996
0000f0 b0 a3 95 bd e3 12 02 be a2 e0 d9 bd 83 49 f5 bd
       -0.073066115 -0.12702517 -0.106385484 -0.11976912

linear3.weight f4 [3, 64]
000000 99 1d 65 bc f6 5f 1e 3d 49 7c 4d 3c dc 9d ec bd
       -0.013984107 0.038665734 0.012541839 -0.11553547
000010 09 06 e4 bc 0a 7c 9d be c7 1b b8 3d db f2 03 3d
       -0.027834909 -0.30758697 0.08989673 0.032214027
000020 a4 23 19 3e b2 d8 18 3d ee 98 80 3e fb d9 b1 bd
       0.14955002 0.03731603 0.25116676 -0.086841546
000030 72 bf 05 be 58 0f c9 bc 7e 09 b2 bc b2 80 7d bb
       -0.13061312 -0.02454345 -0.021733042 -0.0038681445
000040 f8 25 df 3c 01 4b b4 b8 ab 84 db be 75 44 61 bd
       0.027239785 -8.5970394e-05 -0.42874655 -0.054996926
000050 9b 79 32 3d 0e d9 10 bb f3 7d 8f 3d 89 d3 ac bd
       0.043573003 -0.002210203 0.07006445 -0.08438785
000060 07 73 65 3d 8d 19 a7 be 20 a0 0e be 2d 38 b8 3b
       0.0560179 -0.3263668 -0.1392827 0.005621931
000070 cc 7f dd bd bb 8a 5d bd b5 1d 74 bd eb d0 f3 bc
       -0.10815391 -0.05408738 -0.059598643 -0.029762706
000080 b4 b8 4d bd b2 24 85 3d 99 0d 20 be 1f f6 3e bd
       -0.050224975 0.0650114 -0.15630187 -0.046621438
000090 20 d3 62 3b 99 f7 9b 3d 3e 54 a0 bd 10 39 27 be
       0.0034610704 0.07615585 -0.07828568 -0.16330361
0000a0 23 e6 36 be 72 17 ee 3d 53 e5 7c 3c d0 87 e9 bd
       -0.17861228 0.116255656 0.0154355345 -0.11402857
0000b0 36 9e 40 bb 20 ef 6c bd 2e d1 1d be 0a 4f 4c 3e
       -0.0029391176 -0.057845235 -0.15411827 0.19952026
0000c0 46 20 88 bd 07 4e 53 3e 6f 89 a8 3c c1 ef 24 3d
       -0.06646781 0.20635234 0.020573346 0.04026771
0000d0 50 10 b3 bd 39 86 82 3d 6a c9 c4 bc 99 4e 33 bd
       -0.08743346 0.06373257 -0.024021823 -0.04377613
0000e0 0d 54 2a 3d 9a 5b cb bd ad 52 7d 3e f8 95 3d 3d
       0.041584063 -0.09929581 0.2473857 0.0462856
0000f0 d5 42 1b 3d 76 18 41 3d 5a 96 b0 bd 06 5a 4d 3e
       0.037905533 0.04714247 -0.08622427 0.20053872
000100 f3 1c 35 bd 5c 01 24 bd b2 a8 93 bd 35 0d 05 3e
       -0.04421706 -0.04004036 -0.072099105 0.1299332
000110 19 b1 fc 3d 51 ff a3 bc 07 eb f4 bc db 43 ff 3b
       0.12338466 -0.020019205 -0.029897226 0.0077900714
000120 bb 24 b3 3b b2 70 96 bc fe 41 1f 3e 51 96 3b bb
       0.005467025 -0.018364284 0.15552518 -0.002862353
000130 76 96 b2 3d b3 63 85 bd 7d 73 94 3d 05 e6 90 bc
       0.087201044 -0.06513157 0.0724859 -0.017687807
000140 40 30 b6 bd 5e 35 d8 bc c6 2e b2 bd ee 5d 3f 3e
       -0.08895922 -0.026392635 -0.087003276 0.18688175
000150 34 b5 9c bd d8 de 6d 3c ed 79 86 ba e8 49 54 3d
       -0.07651749 0.014518462 -0.0010259725 0.051828295
000160 00 aa 25 3e 49 aa a1 be 75 37 3e 3d fd e0 c3 3d
       0.16178131 -0.3157523 0.046439607 0.095643975
000170 16 7a a0 3d 4e a3 23 3e f8 c2 33 3c e0 64 68 bc
       0.07835786 0.15980265 0.010971777 -0.014184207
000180 0d 4d 9f bc b0 93 96 3d b1 9e 11 3d b0 07 03 bd
       -0.01944592 0.07352388 0.03555173 -0.031989753
000190 38 d9 61 3e 70 a6 78 bc ce 9c 87 3d 20 cc a1 bd
       0.22055519 -0.015176401 0.06621705 -0.07900262
0001a0 3d f6 f0 bc 3e 68 4b bd a9 72 e5 3b 6b 97 d4 bd
       -0.02941429 -0.04965996 0.007002194 -0.10380443
0001b0 7e ea e0 bd cb 56 e9 bc ce bb cf 3d c3 4b 3f 3e
       -0.10982226 -0.028483769 0.10143243 0.18681245
0001c0 a3 4e aa bb e8 c1 05 3f d1 aa 03 3e 4e dd 26 bd
       -0.0051973625 0.52249 0.1285813 -0.040738396
0001d0 6f c4 91 bd 30 05 05 3c 74 0a 3d 3c 83 93 63 3c
       -0.07117545 0.008118913 0.011538137 0.01389015
0001e0 5e 9e df 3d 5b 6c 9b 3d 3b 2e 99 3d ff 61 99 bb
       0.10918878 0.075890265 0.07479521 -0.0046808715
0001f0 46 53 15 3c b4 84 66 3d 6a 04 18 bd 12 39 de bd
       0.009114092 0.0562789 -0.037113585 -0.10850729
000200 e7 ea fc 3c 68 fc f6 3c 20 60 73 3d e2 92 55 3e
       0.030873729 0.030149654 0.059417844 0.20856813
000210 bd 04 42 3e 2b ed 7a be 03 ee ec 3d ee ac 57 3d
       0.1894712 -0.24504535 0.11568835 0.052655153
000220 72 5b ce bd 45 11 5b bd fa 35 96 bd 0c f5 e9 3b
       -0.100760356 -0.053483266 -0.07334514 0.0071398076
000230 3d 0f 2c bd 26 25 af 3c 09 af 15 be c9 ec 13 3d
       -0.04200672 0.021380018 -0.14617552 0.036114488
000240 7f 08 be 3c 3a 5d 4c be 26 13 d7 bc b8 87 8c bd
       0.02319741 -0.19957438 -0.026254248 -0.06861824
000250 fe fc ce 3c ed 75 00 bd 6b 26 40 bd da e0 1b bd
       0.02526712 -0.031362463 -0.04691164 -0.038056232
000260 8e 4c f7 3d 8e a0 03 bd 34 6b 0b 3d 32 86 73 bd
       0.120751485 -0.03213554 0.034037784 -0.05945415
000270 c4 11 c0 3d 48 de 08 be fa 4b b7 3b a3 eb be 3d
       0.093783885 -0.13366044 0.005593774 0.09322288
000280 fc 8f ae bd 3f c4 5f bd 58 c7 e1 3b 8a df d2 bd
       -0.085235566 -0.054630514 0.0068902187 -0.10296543
000290 cf 8d 4a 3e 78 e2 ec 3c c1 25 4f 3d 9a 01 99 3c
       0.19780658 0.028916582 0.050573114 0.018677521
0002a0 be 67 52 be 10 b7 18 bd db 65 9a 3c 65 e1 af 3d
       -0.20547387 -0.037283957 0.018847397 0.085879125
0002b0 77 bb 80 3d 93 24 13 bd 8b 32 fc 3d 6b b0 8d 3d
       0.06285756 -0.03592355 0.12314328 0.06918415
0002c0 d2 77 82 bd 98 bd be bd b8 82 9f bc a3 a9 7e bd
       -0.0637051 -0.09313506 -0.019471511 -0.062173497
0002d0 00 4c 4c 39 b3 1e df 3d 02 24 95 3d bd 76 8d 3c
       0.00019483268 0.10894527 0.072822586 0.017268533
0002e0 00 ce ec b9 74 c2 62 3d bc 39 b7 3d 33 57 fe 3c
       -0.0004516691 0.055361226 0.08946559 0.03104744
0002f0 85 de 32 be 1f db b4 bd 40 a1 d2 3b 59 35 85 3d
       -0.17467697 -0.088308565 0.006427914 0.06504316

linear3.bias f4 [3]
000000 df 21 1e bf 84 8e 67 bf 75 97 4e bf
       -0.61770433 -0.90451837 -0.80699855
