model_backup_60.pth (torch, 42263 bytes, 6 tensors)

linear1.weight f4 [128, 11]
-0.15760572 -0.1626771 -0.19460553 0.0447343 0.096040584 0.032057505 -0.1962748 0.06294697
0.13725132 -0.2007443 -0.261517 0.123880655 0.06700316 -0.18510002 -0.16639453 -0.17770973
-0.21795096 -0.28930867 -0.0806313 -0.05922033 -0.26079276 -0.19469777 -0.2110439 0.17318465
-0.038683772 0.21020497 -0.079358645 -0.117303714 -0.2582026 0.07230177 -0.063586414 -0.09149322
-0.35944852 -0.26321825 -0.51208127 -0.23803069 0.0050655575 0.044653606 -0.35164934 0.26214072
-0.026640944 -0.31629887 -0.62835777 0.010000154 0.33014858 0.3125196 -0.28600872 0.11138174
-0.2642862 -0.24821958 -0.32326448 -0.0071090446 0.006492602 -0.44987845 -0.49162838 -0.18764299
-0.2805616 -0.11095166 -0.22656992 -0.08993627 -0.02390571 -0.1757684 -0.100911126 -0.14779
-0.06743209 -0.17568314 0.40479073 0.3955847 0.22229858 0.13661613 -0.20182995 -0.22594903
-0.16277999 0.18035583 0.12337188 -0.075571254 -0.15360346 0.08285248 -0.15073778 0.11094946
-0.08721931 0.07171265 -0.27317724 -0.050929308 -0.18703263 0.013375187 0.022309234 -0.033556826
-0.19480762 -0.006560892 0.055693716 0.120133586 -0.08175027 -0.15496132 -0.06937145 0.01538607
-0.135116 -0.24296263 -0.3328282 0.044270888 0.9188308 -0.1611428 0.1026299 -0.14322425
0.23375121 -0.040878452 -0.11980194 0.047214117 -0.14039706 -0.067245975 0.50988674 -0.25661215
-0.29212597 0.20684965 0.119420305 -0.25393325 0.06836329 -0.70961505 -0.13318571 -0.3463575
-0.53948724 -0.058221266 -0.0866406 -0.17056459 0.13146678 -0.14030476 -0.26986277 -0.1276358
0.017626166 0.13995364 -0.03352567 0.061768096 -0.26456925 -0.088477 -0.15141724 0.029536903
0.12328848 0.23690134 -0.1909381 -0.22254366 -0.28196454 -0.28307942 -0.2322472 0.6506353
-0.2393098 -0.01569944 0.1084239 -0.31498778 -0.098704875 0.15046759 -0.07548247 -0.33811212
-0.19973747 -0.3510998 0.17645022 0.13532469 -0.28102505 0.08605796 0.062693246 -0.17912233
-0.1714695 -0.0247233 -0.09030654 0.108515546 0.026564391 0.50262433 -0.08725998 0.22335455
-0.12074022 0.15185338 0.30971432 0.045053273 -0.28022492 -0.43090063 -0.28309074 -0.515735
0.3305867 0.2278744 0.24645288 -0.10796988 -0.16802967 -0.016308194 0.2107949 -0.18802437
-0.1132553 -0.26742488 -0.65463895 0.40199387 -0.22500736 -0.23967157 -0.16432682 0.037801694
-0.08013417 -0.033178274 -0.07457978 -0.37307915 -0.0758019 -0.38299847 -0.07887983 -0.14007407
0.07159177 0.2726918 0.09579164 0.14124586 -0.26686874 -0.023850143 -0.073102795 -0.22427192
-0.1894645 0.122308254 -0.27309042 -0.21485746 0.0459904 0.08632347 0.060420394 0.0046567917
-0.050665073 -0.01976657 -0.17287241 -0.17468888 -0.20989837 0.15818217 -0.0031154256 -0.06603587
-0.27665246 0.03266137 0.020002017 -0.29433638 0.063538015 -0.022846574 -0.3161338 0.61074436
0.6567279 -0.17147574 -0.024946447 -0.57166296 -0.1931693 0.011996619 0.10744034 -0.36356765
-0.39002502 -0.17608437 -0.074473076 -0.048167944 -0.02270165 -0.06617108 -0.062144756 -0.2614624
-0.0010693371 -0.041433807 -0.06752325 -0.22409527 -0.2073237 -0.010424329 -0.229399 -0.38677302
00000000: 6563 21be d394 26be ac46 47be 503b 373d
00000010: edb0 c43d bb4e 033d 43fc 48be 57ea 803d
00000020: 9c8b 0c3e ea8f 4dbe 8ee5 85be 24b5 fd3d
00000030: f438 893d dc8a 3dbe 5463 2abe 8af9 35be
00000040: 892e 5fbe 4420 94be 0622 a5bd 0491 72bd
00000050: a186 85be da5e 47be e41b 58be 5157 313e
00000060: e072 1ebd f93f 573e c986 a2bd ee3c f0bd
00000070: 2233 84be f312 943d 9839 82bd cc60 bbbd
00000080: a309 b8be 8bc4 86be c217 03bf 51be 73be
00000090: fafc a53b b3e6 363d 620b b4be 4f37 863e
000000a0: 1c3e dabc edf1 a1be 0edc 20bf b0d7 233c
000000b0: 3c09 a93e 9202 a03e bc6f 92be 1c1c e43d
000000c0: 8550 87be 462d 7ebe ec82 a5be fdf2 e8bb
000000d0: e5bf d43b 7856 e6be b7b6 fbbe 7c25 40be
000000e0: c5a5 8fbe a03a e3bd f201 68be 8230 b8bd
000000f0: e8d5 c3bc a2fc 33be 7eaa cebd 4356 17be
00000100: d619 8abd 48e6 33be bb40 cf3e 148a ca3e
00000110: 3da2 633e 19e5 0b3e 83ac 4ebe 2f5f 67be
00000120: ccaf 26be 33af 383e 65aa fc3d 1ac5 9abd
00000130: 3a4a 1dbe 90ae a93d 015b 1abe 7839 e33d
00000140: 0aa0 b2bd 15de 923d e3dd 8bbe 409b 50bd
00000150: 7b85 3fbe 9a23 5b3c dbc1 b63c e272 09bd
00000160: a67b 47be c0fc d6bb 181f 643d 9908 f63d
00000170: b06c a7bd 2eae 1ebe 9e12 8ebd db15 7c3c
00000180: d95b 0abe 32cb 78be 7568 aabe 6455 353d
00000190: 7f38 6b3f 9e02 25be a02f d23d 61a9 12be
000001a0: 7a5c 6f3e 2a70 27bd b85a f5bd 9763 413d
000001b0: 3fc4 0fbe 42b8 89bd f087 023f ab62 83be
000001c0: 8991 95be 65d0 533e a292 f43d 8a03 82be
000001d0: 0d02 8c3d 55a9 35bf d661 08be c555 b1be
000001e0: d61b 0abf 6c79 6ebd a070 b1bd 7ca8 2ebe
000001f0: 3a9f 063e 0dac 0fbe 742b 8abe f6b2 02be
00000200: c064 903c 0250 0f3e 3752 09bd 8b00 7d3d
00000210: 9f75 87be 6e33 b5bd 1f0d 1bbe 60f7 f13c
00000220: ac7e fc3d 4496 723e 4785 43be 7ce2 63be
00000230: a85d 90be c9ef 90be 36d2 6dbe 0990 263f
00000240: a10d 75be 1d9c 80bc 5a0d de3d 1446 a1be
00000250: c825 cabd 2d14 1a3e 8e96 9abd 081d adbe
00000260: fb87 4cbe 5ac3 b3be 5eaf 343e 8e92 0a3e
00000270: 84e2 8fbe 283f b03d 5165 803d d86b 37be
00000280: b395 2fbe 8588 cabc a3f2 b8bd 663d de3d
00000290: 919d d93c fdab 003f 5cb5 b2bd 0eb7 643e
000002a0: a646 f7bd 747f 1b3e e092 9e3e c889 383d
000002b0: a479 8fbe 029f dcbe 45f1 90be 3507 04bf
000002c0: a942 a93e e857 693e 255e 7c3e 501f ddbd
000002d0: f80f 2cbe c398 85bc 9eda 573e 7689 40be
000002e0: 65f2 e7bd eaeb 88be 6b96 27bf 24d2 cd3e
000002f0: 5468 66be 776c 75be 4a45 28be f3d5 1a3d
00000300: 621d a4bd f1e5 07bd 49bd 98bd 3b04 bfbe
00000310: 073e 9bbd 6018 c4be c08b a1bd 946f 0fbe
00000320: b59e 923d 429e 8b3e 682e c43d c1a2 103e
00000330: 05a3 88be 6061 c3bc ebb6 95bd 8aa7 65be
00000340: fb02 42be c07c fa3d 82d2 8bbe 9803 5cbe
00000350: 6e60 3c3d 5cca b03d 607b 773d 0098 983b
00000360: 2e86 4fbd 80ed a1bc 7705 31be a4e1 32be
00000370: 99ef 56be 82fa 213e 2b2c 4cbb d03d 87bd
00000380: 64a5 8dbe eec7 053d 45db a33c 42b3 96be
00000390: 3820 823d bd28 bbbc 4adc a1be be59 1c3f
000003a0: 521f 283f 5697 2fbe 7e5c ccbc 8158 12bf
000003b0: 2cce 45be 788d 443c ae09 dc3d 8a25 babe
000003c0: 5cb1 c7be 764f 34be 5785 98bd c04b 45bd
000003d0: d0f8 b9bc b484 87bd 808b 7ebd 66de 85be
000003e0: 0029 8cba 7fb6 29bd a149 8abd 3b79 65be
000003f0: aa4c 54be ceca 2abc 92e7 6abe 1d07 c6be

linear1.bias f4 [128]
-0.23852512 -0.1554853 -0.24283294 -0.303791 -0.16109596 -0.10228592 0.10773628 -0.24167123
-0.22966537 -0.28684276 -0.37715697 -0.4305746 -0.10312153 -0.015486615 -0.41640773 -0.18462455
0.02045383 -0.310472 -0.25304133 -0.27015477 -0.32564133 0.061603423 -0.15257467 -0.23706008
0.08876031 -0.30813232 -0.28174865 -0.2442187 -0.23567286 -0.2197293 0.24213353 -0.10271141
0.08318113 -0.1278992 -0.09219048 -0.20347412 -0.23215052 -0.024656149 -0.40307876 -0.16955796
-0.39157826 -0.4459382 -0.28287965 -0.033890903 -0.4973883 -0.46438822 -0.04621904 -0.16033569
-0.32213873 -0.37456262 0.07150832 -0.17144033 -0.12296715 -0.24563153 -0.26097232 0.06200125
-0.38654873 -0.14858684 -0.302417 -0.342039 -0.11329095 -0.40281215 -0.28053698 -0.37262186
-0.145857 -0.03296808 0.2372932 -0.24138439 -0.12101819 -0.15742955 -0.022312718 0.42573345
-0.4194672 -0.27255878 -0.049521595 -0.5329183 -0.046385527 -0.11707399 -0.42908913 -0.12524459
-0.21229428 -0.3610441 -0.12911929 -0.2462266 -0.12423322 -0.43274322 -0.2986611 -0.33271548
-0.05227005 -0.28718486 -0.3336317 -0.40523818 -0.2963837 -0.20933312 -0.3968402 -0.18646201
-0.43287906 -0.23334597 0.032702435 -0.4922532 -0.18187268 0.62609774 -0.37913984 -0.27279276
-0.27787006 -0.3523516 -0.2629407 -0.080087386 -0.18043584 -0.17502187 -0.018143525 -0.21593578
-0.32985634 -0.47715962 -0.36581954 0.06593301 -0.1737667 -0.28390527 -0.40772113 -0.32142058
-0.45291662 -0.06530815 -0.2049358 -0.28670332 0.025927009 -0.18137579 -0.28659895 -0.0035082544
00000000: ee3f 74be 8a37 1fbe 33a9 78be 7e8a 9bbe
00000010: 57f6 24be 487b d1bd d7a4 dc3d aa78 77be
00000020: 662d 6bbe 0edd 92be b81a c1be 4674 dcbe
00000030: 6131 d3bd 92bb 7dbc 6533 d5be 380e 3dbe
00000040: ca8e a73c 30f6 9ebe a28e 81be ba51 8abe
00000050: 76ba a6be df53 7c3d 893c 1cbe e1bf 72be
00000060: f7c7 b53d 85c3 9dbe 5c41 90be 7814 7abe
00000070: 3a54 71be b800 61be daf1 773e 5c5a d2bd
00000080: de5a aa3d 02f8 02be 5dce bcbd 855b 50be
00000090: deb8 6dbe b1fb c9bc 5760 cebe 9aa0 2dbe
000000a0: f27c c8be 0352 e4be 9ad5 90be 30d1 0abd
000000b0: aea9 febe 4bc4 edbe 2d50 3dbd 0a2f 24be
000000c0: 5eef a4be acc6 bfbe f472 923d 0e8e 2fbe
000000d0: 33d6 fbbd d586 7bbe 2a9e 85be 06f5 7d3d
000000e0: b7e9 c5be 2627 18be 67d6 9abe bc1f afbe
000000f0: 1605 e8bd 653d cebe 8ba2 8fbe 4bc8 bebe
00000100: 8a5b 15be 8a09 07bd fdfc 723e 782d 77be
00000110: 63d8 f7bd 3635 21be 29c9 b6bc bcf9 d93e
00000120: 68c4 d6be d38c 8bbe 28d7 4abd 556d 08bf
00000130: c0fe 3dbd 7dc4 efbd 92b1 dbbe 1e40 00be
00000140: ac63 59be c6da b8be d937 04be d322 7cbe
00000150: fd6d febd 8590 ddbe 1cea 98be af59 aabe
00000160: 1f19 56bd e509 93be c6d1 aabe 617b cfbe
00000170: 9bbf 97be 6c5b 56be a42e cbbe e6ef 3ebe
00000180: 53a2 ddbe 3ff2 6ebe fdf2 053d 9d08 fcbe
00000190: d53c 3abe f147 203f 9e1e c2be 7eab 8bbe
000001a0: fc44 8ebe 6e67 b4be 2aa0 86be db04 a4bd
000001b0: 2cc4 38be ef38 33be bba1 94bc 451e 5dbe
000001c0: eee2 a8be 444e f4be b34c bbbe e307 873d
000001d0: e6ef 31be 085c 91be d3c0 d0be 3d91 a4be
000001e0: b0e4 e7be 48c0 85bd b1da 51be c7ca 92be
000001f0: e164 d43c 93ba 39be 19bd 92be beea 65bb

linear2.weight f4 [64, 128]
-0.024426661 -0.05094828 0.07196731 0.0278005 -0.060637217 -0.12613133 -0.14286235 -0.020626426
0.005411878 -0.040905297 0.043756507 -0.056603808 0.06671668 -0.07592888 -0.057328597 -0.048223034
-0.04245884 0.021078594 0.055686273 -0.07506263 -0.030345667 -0.05351802 -0.017672606 0.057716005
-0.11254381 0.03806118 0.00799454 0.08773852 -0.058533143 0.030490927 -0.09330845 -0.02939064
-0.08372477 0.008056425 0.062328987 0.026772834 0.043254144 0.051160075 -0.020178594 0.056920074
-0.09742978 -0.007629387 -0.0048720837 0.026092857 0.07256823 0.04824909 0.017123729 -0.07614212
-0.06521882 0.084587894 -0.06099508 -0.060674362 -0.039647467 0.04255353 -0.060598843 -0.032641154
0.009840943 -0.04053676 -0.001233995 0.07416498 -0.04204971 0.016864717 0.023503266 0.0878671
-0.05432837 -0.068166025 -0.04580309 -0.05918176 0.036131337 -0.026520979 0.071740784 -0.07376338
-0.12555407 -0.0318038 -0.0977339 -0.013608679 0.029334798 -0.036137424 0.05933378 -0.026702113
-0.031212173 0.03234823 -0.054403014 0.06579002 0.07844616 -0.055122714 -0.026108403 -0.027254619
0.053746965 0.06682178 0.0090415925 -0.061431307 0.031402297 -0.15412451 -0.071682006 -0.03530023
0.0022481307 0.05370695 -0.0020445716 -0.07706846 0.009553742 0.010034725 0.015407369 -0.058539145
-0.06501623 -0.003950119 0.06856633 -0.07460798 -0.08716677 -0.08137905 -0.09482389 -0.054843817
0.071295656 0.04404915 -0.022244401 0.03458686 -0.033523813 0.07808194 -0.015014298 0.050641753
0.0021055117 -0.012853332 0.05587464 0.0003869608 -0.09221156 0.008518756 0.025842167 -0.06375559
-0.07111801 0.062448792 -0.04661666 -0.13410358 -0.0021018987 -0.0068986095 -0.141826 -0.046747558
0.040763974 0.0014044325 -0.108285815 -0.08693024 -0.0490281 0.11598417 0.12797335 0.049672857
0.0725247 0.06823134 -0.15179388 0.033790033 -0.029542085 -0.24174637 0.1138862 0.05910971
0.038311407 0.14880748 -0.026130581 0.07073442 -0.027291138 0.023675539 -0.1372699 -0.11209451
-0.015815979 0.009469613 0.09212359 0.04659197 -0.072474524 0.048680797 0.0451648 -0.07266405
-0.013853636 -0.15287499 0.059082814 -0.042707715 0.04491151 -0.030161168 0.012492205 0.014098711
-0.010436696 0.054796897 -0.084057696 -0.14883442 -0.03143045 -0.12328147 -0.020771319 0.023685964
-0.08463127 -0.017194476 0.039065637 -0.082149506 -0.12631796 -0.031269327 0.05038363 0.106178135
0.16598107 -0.002382051 -0.0728434 -0.030587276 0.08544241 -0.021307549 -0.05114012 0.09027207
-0.011284262 0.027964499 -0.101784155 -0.03682793 -0.12499495 -0.007884987 -0.106136546 -0.10342931
-0.0710369 0.023838472 -0.060266025 0.03016115 0.016674083 0.017224297 -0.026554938 -0.00700137
-0.0289088 0.13146262 0.05186935 -0.039386924 0.048884798 -0.063997805 0.06750833 0.037719693
-0.11937799 -0.060435407 0.043339293 -0.04608803 -0.1631643 0.042672582 -0.051807135 -0.09439267
-0.0759678 -0.02929734 0.06456006 0.045878455 -0.039606057 0.004306341 -0.24106786 -0.029260581
0.07451669 0.10534258 -0.05213983 0.08192212 0.0041329353 -0.044789523 -0.039910134 0.035781544
0.02226545 -0.12216855 -0.032199707 -0.018922579 -0.058101453 -0.03677023 -0.003945953 -0.017509472
00000000: 6c1a c8bc 25af 50bd 9963 933d e0bd e33c
00000010: bb5e 78bd 9228 01be 824a 12be c0f8 a8bc
00000020: 2056 b13b 508c 27bd 063a 333d 65d9 67bd
00000030: c1a2 883d 9a80 9bbd 64d1 6abd 8485 45bd
00000040: 52e9 2dbd 04ad ac3c 4a17 643d 70ba 99bd
00000050: 7a97 f8bc b635 5bbd 24c6 90bc 9e67 6c3d
00000060: 5e7d e6bd 0ae6 1b3d 88fb 023c 41b0 b33d
00000070: 73c0 6fbd 1cc8 f93c 8018 bfbd a4c4 f0bc
00000080: e477 abbd 18ff 033c ae4c 7f3d b452 db3c
00000090: 422b 313d 3a8d 513d 944d a5bc 0625 693d
000000a0: 4489 c7bd f0ff f9bb 00a6 9fbb b0c0 d53c
000000b0: a79e 943d d6a0 453d 1047 8c3c 66f0 9bbd
000000c0: 7291 85bd 6b3c ad3d fad5 79bd ae85 78bd
000000d0: 6265 22bd 9c4c 2e3d 7e36 78bd bbb2 05bd
000000e0: e83b 213c e009 26bd 00be a1ba cfe3 973d
000000f0: 513c 2cbd e027 8a3c ec89 c03c abf3 b33d
00000100: 6d87 5ebd a19a 8bbd 059c 3bbd 9368 72bd
00000110: 74fe 133d 8642 d9bc d5ec 923d 4111 97bd
00000120: 3f91 00be b444 02bd b628 c8bd f0f6 5ebc
00000130: 884f f03c d604 14bd fa07 733d 64be dabc
00000140: acb0 ffbc 947f 043d b2d5 5ebd ebbc 863d
00000150: 61a8 a03d 5bc8 61bd 4ae1 d5bc 1445 dfbc
00000160: c725 5c3d dbd9 883d 3023 143c 659f 7bbd
00000170: b29f 003d d1d2 1dbe 04ce 92bd f996 10bd
00000180: 6055 133b d2fb 5b3d 38fe 05bb 12d6 9dbd
00000190: 4c87 1c3c b068 243c 306f 7c3c bec6 6fbd
000001a0: 3b27 85bd 0070 81bb 816c 8c3d 12cc 98bd
000001b0: 7e84 b2bd 0faa a6bd 0733 c2bd e9a3 60bd
000001c0: 7503 923d e26c 343d e439 b6bc f4aa 0d3d
000001d0: 4450 09bd 6de9 9f3d 88fe 75bc ba6d 4f3d
000001e0: a0fc 093b c896 52bc cedc 643d 00e1 ca39
000001f0: 6ad9 bcbd 4192 0b3c f4b2 d33c 4a92 82bd
00000200: 52a6 91bd 4eca 7f3d 1cf1 3ebd 7352 09be
00000210: 02c0 09bb bb0d e2bb d63a 11be 5e7a 3fbd
00000220: 20f8 263d ef14 b83a f4c4 ddbd 7b08 b2bd
00000230: b0d1 48bd 1c89 ed3d 720b 033e c475 4b3d
00000240: d487 943d dfbc 8b3d db6f 1bbe 6b67 0a3d
00000250: 3e02 f2bc 5c8c 77be 2b3d e93d 061d 723d
00000260: 6cec 1c3d fd60 183e cd0f d6bc 35dd 903d
00000270: aa91 dfbc 34f3 c13c 7b90 0cbe ce91 e5bd
00000280: 8390 81bc 7026 1b3c 4bab bc3d 39d7 3e3d
00000290: 866d 94bd 8465 473d bafe 383d e4d0 94bd
000002a0: 5cfa 62bc 438b 1cbe d200 723d 49ee 2ebd
000002b0: 22f5 373d 8e14 f7bc 1bac 4c3c 48fe 663c
000002c0: adfe 2abc b672 603d 7126 acbd 0d68 18be
000002d0: 37bd 00bd ff7a fcbd 9d28 aabc 1109 c23c
000002e0: 2953 adbd 6edb 8cbc 4a03 203d 003e a8bd
000002f0: 7f59 01be 4414 00bd 115f 4e3d ec73 d93d
00000300: f1f6 293e 2f1c 1cbb ec2e 95bd 2b92 fabc
00000310: 6efc ae3d 2b8d aebc 4d78 51bd 90e0 b83d
00000320: a0e1 38bc ce15 e53c 3674 d0bd e2d8 16bd
00000330: 5afd ffbd 0830 01bc 1e5e d9bd bfd2 d3bd
00000340: cb7b 91bd e648 c33c 82d9 76bd 8414 f73c
00000350: 1698 883c f819 8d3c be89 d9bc c06b e5bb
00000360: 26d2 ecbc 239e 063e f574 543d 2f54 21bd
00000370: 6d3b 483d 4811 83bd cf41 8a3d f77f 1a3d
00000380: 737c f4bd 1e8b 77bd 8b84 313d cdc6 3cbd
00000390: 8b14 27be 72c9 2e3d b833 54bd f250 c1bd
000003a0: 0295 9bbd fa00 f0bc 1138 843d 0ceb 3b3d
000003b0: f639 22bd 351c 8d3b 7eda 76be e3b3 efbc
000003c0: 359c 983d dabd d73d 9390 55bd c9c6 a73d
000003d0: 936d 873b 3875 37bd cf78 23bd ab8f 123d
000003e0: 0866 b63c 8133 fabd d7e3 03bd 8603 9bbc
000003f0: cafb 6dbd 619c 16bd 0e4d 81bb 0670 8fbc

linear2.bias f4 [64]
-0.025703302 -0.21679984 -0.14835763 -0.012085648 -0.21043395 -0.006883759 -0.15770988 -0.04127905
-0.08701035 -0.10044439 -0.18503156 -0.116598055 -0.20711507 -0.1592226 -0.20509334 -0.077284686
-0.05841163 -0.13797797 0.5675826 -0.09534072 -0.018796794 -0.15944442 -0.07498751 -0.042849246
-0.17713204 -0.044976242 -0.17725477 -0.118579 -0.07152183 -0.13956413 -0.054683242 -0.1597158
-0.11318105 -0.1235462 -0.09154718 -0.1159339 -0.08823125 -0.048468508 -0.046915248 -0.08143081
-0.1656072 -0.11063622 -0.05811188 -0.16986705 -0.115041904 -0.13301985 -0.047913697 0.0045537963
-0.09873218 0.12012614 -0.20997979 -0.02630029 -0.11458453 -0.08202223 -0.06540659 -0.09189241
-0.102647714 -0.13312991 -0.22938484 -0.061206996 -0.014928122 -0.12702517 -0.106385484 -0.025841106
00000000: bb8f d2bc c700 5ebe 10eb 17be e202 46bc
00000010: ff7b 57be 2891 e1bb b37e 21be 3914 29bd
00000020: 7b32 b2bd cab5 cdbd ea78 3dbe f6ca eebd
00000030: f915 54be 400b 23be fd03 52be 6f47 9ebd
00000040: 0941 6fbd 194a 0dbe 184d 113f ff41 c3bd
00000050: bcfb 99bc 6645 23be 0d93 99bd b182 2fbd
00000060: 1a62 35be 0239 38bd 4682 35be 8cd9 f2bd
00000070: 0a7a 92bd e6e9 0ebe 89fb 5fbd 8a8c 23be
00000080: 77cb e7bd ca05 fdbd 177d bbbd c16e edbd
00000090: 96b2 b4bd ea86 46bd 342a 40bd 32c5 a6bd
000000a0: ef94 29be 3e95 e2bd b906 6ebd a1f1 2dbe
000000b0: 179b ebbd 5b36 08be 2741 44bd 0338 953b
000000c0: 1934 cabd b204 f63d f104 57be b573 d7bc
000000d0: 4bab eabd 45fb a7bd e4f3 85bd 1632 bcbd
000000e0: f738 d2bd 3553 08be dce3 6abe 30b4 7abd
000000f0: 1595 74bc e312 02be a2e0 d9bd bab0 d3bc

linear3.weight f4 [3, 64]
-0.12300955 0.038665734 0.012541839 0.03174957 -0.027834909 -0.013667008 -0.062180433 0.032214027
-0.016492592 0.03731603 0.25116676 -0.086841546 -0.13061312 -0.02454345 -0.021733042 -0.0038681445
0.027128765 -8.5970394e-05 -0.36435467 -0.054996926 0.043573003 -0.002210203 0.07006445 -0.08438785
0.0560179 -0.011118574 -0.1392827 0.005621931 -0.10815391 -0.05408738 -0.059598643 -0.029762706
-0.050224975 0.0650114 -0.15630187 -0.046621438 0.19173148 -0.061258584 -0.07828568 -0.16330361
-0.17861228 0.116255656 0.0154355345 -0.11402857 -0.0029391176 -0.057845235 -0.061184645 0.19952026
-0.06646781 0.20635234 0.020573346 0.04496732 -0.08743346 0.06373257 -0.024021823 -0.04377613
0.041584063 -0.09929581 0.2473857 0.0462856 -0.030335104 0.04714247 -0.08622427 0.10889301
-0.041330285 -0.04004036 -0.072099105 -0.026383612 0.12338466 -0.042847842 -0.16266827 0.0077900714
-0.06174069 -0.018364284 0.15552518 -0.002862353 0.087201044 -0.06513157 0.0724859 -0.017687807
-0.08898346 -0.026392635 -0.08118141 0.18688175 -0.07651749 0.014518462 -0.0010259725 0.051828295
0.16178131 -0.04210837 0.046439607 0.095643975 0.07835786 0.15980265 0.010971777 -0.014184207
-0.01944592 0.07352388 0.03555173 -0.031989753 0.08908844 -0.015176401 0.098694414 -0.07900262
0.030532919 -0.04965996 0.007002194 -0.10380443 -0.10982226 -0.031225026 -0.123583436 0.18947068
-0.0051973625 0.52249 0.1285813 -0.0019469596 -0.07117545 0.008118913 0.011538137 0.01389015
0.10918878 0.075890265 0.07479521 -0.0046808715 0.14630829 0.0562789 -0.037113585 0.060313933
-0.032223444 0.030149654 0.059417844 0.054015886 0.1894712 0.056284577 -0.035078604 0.052655153
0.04157532 -0.053483266 -0.07334514 0.0071398076 -0.04200672 0.021380018 -0.14617552 0.036114488
0.023172656 -0.19957438 -0.23225628 -0.06861824 0.02526712 -0.031362463 -0.04691164 -0.038056232
0.120751485 -0.021316499 0.034037784 -0.05945415 0.093783885 -0.13366044 0.005593774 0.09322288
-0.085235566 -0.054630514 0.0068902187 -0.10296543 0.044004817 0.028916582 0.07444799 0.018677521
-0.21614935 -0.037283957 0.018847397 0.085879125 0.06285756 -0.03592355 -0.123612046 0.06918415
-0.0637051 0.06423627 -0.019471511 -0.08589003 0.00019483268 0.10894527 0.072822586 0.017268533
-0.0004516691 0.055361226 0.08946559 0.03104744 -0.059301496 -0.088308565 0.006427914 -0.018237162
00000000: 6eec fbbd f65f 1e3d 497c 4d3c d60b 023d
00000010: 0906 e4bc 96eb 5fbc e9b0 7ebd dbf2 033d
00000020: 791b 87bc b2d8 183d ee98 803e fbd9 b1bd
00000030: 72bf 05be 580f c9bc 7e09 b2bc b280 7dbb
00000040: 253d de3c 014b b4b8 b28c babe 7544 61bd
00000050: 9b79 323d 0ed9 10bb f37d 8f3d 89d3 acbd
00000060: 0773 653d ae2a 36bc 20a0 0ebe 2d38 b83b
00000070: cc7f ddbd bb8a 5dbd b51d 74bd ebd0 f3bc
00000080: b4b8 4dbd b224 853d 990d 20be 1ff6 3ebd
00000090: 4255 443e 48ea 7abd 3e54 a0bd 1039 27be
000000a0: 23e6 36be 7217 ee3d 53e5 7c3c d087 e9bd
000000b0: 369e 40bb 20ef 6cbd c09c 7abd 0a4f 4c3e
000000c0: 4620 88bd 074e 533e 6f89 a83c a72f 383d
000000d0: 5010 b3bd 3986 823d 6ac9 c4bc 994e 33bd
000000e0: 0d54 2a3d 9a5b cbbd ad52 7d3e f895 3d3d
000000f0: 5381 f8bc 7618 413d 5a96 b0bd 4c03 df3d
00000100: f249 29bd 5c01 24bd b2a8 93bd 7222 d8bc
00000110: 19b1 fc3d 3881 2fbd 8392 26be db43 ff3b
00000120: cee3 7cbd b270 96bc fe41 1f3e 5196 3bbb
00000130: 7696 b23d b363 85bd 7d73 943d 05e6 90bc
00000140: f63c b6bd 5e35 d8bc 7042 a6bd ee5d 3f3e
00000150: 34b5 9cbd d8de 6d3c ed79 86ba e849 543d
00000160: 00aa 253e d479 2cbd 7537 3e3d fde0 c33d
00000170: 167a a03d 4ea3 233e f8c2 333c e064 68bc
00000180: 0d4d 9fbc b093 963d b19e 113d b007 03bd
00000190: 0074 b63d 70a6 78bc 4c20 ca3d 20cc a1bd
000001a0: 2c20 fa3c 3e68 4bbd a972 e53b 6b97 d4bd
000001b0: 7eea e0bd a0cb ffbc 5019 fdbd 9a04 423e
000001c0: a34e aabb e8c1 053f d1aa 033e 2031 ffba
000001d0: 6fc4 91bd 3005 053c 740a 3d3c 8393 633c
000001e0: 5e9e df3d 5b6c 9b3d 3b2e 993d ff61 99bb
000001f0: d7d1 153e b484 663d 6a04 18bd be0b 773d
00000200: bbfc 03bd 68fc f63c 2060 733d c33f 5d3d
00000210: bd04 423e a88a 663d 95ae 0fbd eeac 573d
00000220: e24a 2a3d 4511 5bbd fa35 96bd 0cf5 e93b
00000230: 3d0f 2cbd 2625 af3c 09af 15be c9ec 133d
00000240: 95d4 bd3c 3a5d 4cbe 97d4 6dbe b887 8cbd
00000250: fefc ce3c ed75 00bd 6b26 40bd dae0 1bbd
00000260: 8e4c f73d f09f aebc 346b 0b3d 3286 73bd
00000270: c411 c03d 48de 08be fa4b b73b a3eb be3d
00000280: fc8f aebd 3fc4 5fbd 58c7 e13b 8adf d2bd
00000290: 653e 343d 78e2 ec3c 3078 983d 9a01 993c
000002a0: 4156 5dbe 10b7 18bd db65 9a3c 65e1 af3d
000002b0: 77bb 803d 9324 13bd 5028 fdbd 6bb0 8d3d
000002c0: d277 82bd 4e8e 833d b882 9fbc 1de7 afbd
000002d0: 004c 4c39 b31e df3d 0224 953d bd76 8d3c
000002e0: 00ce ecb9 74c2 623d bc39 b73d 3357 fe3c
000002f0: 20e6 72bd 1fdb b4bd 40a1 d23b 1a66 95bc

linear3.bias f4 [3]
-0.48798972 -0.71729577 -0.6088717
00000000: cad9 f9be b2a0 37bf 04df 1bbf
