model_backup_160.pth (torch, 42271 bytes, 6 tensors)

linear1.weight f4 [128, 11]
0	0xbe216365	-0.15760572
1	0xbe2694d3	-0.1626771
2	0xbe4746ac	-0.19460553
3	0x3d373b50	0.0447343
4	0x3dc4b0ed	0.096040584
5	0x3d034ebb	0.032057505
6	0xbe48fc43	-0.1962748
7	0x3d80ea57	0.06294697
8	0x3e0c8b9c	0.13725132
9	0xbe4d8fea	-0.2007443
10	0xbe85e58e	-0.261517
11	0x3dfdb524	0.123880655
12	0x3d8938f4	0.06700316
13	0xbe3d8adc	-0.18510002
14	0xbe2a6354	-0.16639453
15	0xbe35f98a	-0.17770973
16	0xbe5f2e89	-0.21795096
17	0xbe942044	-0.28930867
18	0xbda52206	-0.0806313
19	0xbd729104	-0.05922033
20	0xbe8586a1	-0.26079276
21	0xbe475eda	-0.19469777
22	0xbe581be4	-0.2110439
23	0x3dd3d05b	0.10342475
24	0xbd1e72e0	-0.038683772
25	0x3e23e6d9	0.1600603
26	0xbda286c9	-0.079358645
27	0xbdf03cee	-0.117303714
28	0xbe843322	-0.2582026
29	0x3c7ff780	0.015622973
30	0xbd9734b6	-0.07383101
31	0xbdbb60cc	-0.09149322
32	0xbeb809a3	-0.35944852
33	0xbe86c48b	-0.26321825
34	0xbf0317c2	-0.51208127
35	0xbe73be51	-0.23803069
36	0x3ba5fcfa	0.0050655575
37	0x3d36e6b3	0.044653606
38	0xbeb40b62	-0.35164934
39	0x3e86374f	0.26214072
40	0xbcda3e1c	-0.026640944
41	0xbea1f1ed	-0.31629887
42	0xbf20dc0e	-0.62835777
43	0x3c23d7b0	0.010000154
44	0x3e9ec7c9	0.310118
45	0x3f046cb8	0.5172839
46	0xbe926fbc	-0.28600872
47	0xbcbf92a2	-0.02338535
48	0xbe86aa01	-0.26301578
49	0xbe4ba9a7	-0.19888936
50	0xbef5cda5	-0.48008457
51	0xbe030302	-0.12794116
52	0xbe130785	-0.14358337
53	0xbf2a3329	-0.66484314
54	0xbee1e5fe	-0.44120783
55	0xbe40257c	-0.18764299
56	0xbe8fa5c5	-0.2805616
57	0xbde33aa0	-0.11095166
58	0xbe6801f2	-0.22656992
59	0xbdb83082	-0.08993627
60	0xbcc3d5e8	-0.02390571
61	0xbe33fca2	-0.1757684
62	0xbdceaa7e	-0.100911126
63	0xbe175643	-0.14779
64	0xbd8a19d6	-0.06743209
65	0xbe33e648	-0.17568314
66	0x3ef60d0d	0.48056832
67	0x3e84284d	0.25811997
68	0x3e87900b	0.26477084
69	0xbe0aba01	-0.13547517
70	0xbe0af687	-0.13570605
71	0xbee06edc	-0.4383458
72	0xbf0f392d	-0.5594662
73	0xbe7b8c59	-0.24565257
74	0xbd70ab08	-0.058756858
75	0xbde35cac	-0.1110166
76	0xbecdefe1	-0.40222076
77	0x3da9ae90	0.08285248
78	0xbe1a5b01	-0.15073778
79	0x3de33978	0.11094946
80	0xbdb2a00a	-0.08721931
81	0x3d92de15	0.07171265
82	0xbe8bdde3	-0.27317724
83	0xbd509b40	-0.050929308
84	0xbe3f857b	-0.18703263
85	0x3c5b239a	0.013375187
86	0x3cb6c1db	0.022309234
87	0xbd0972e2	-0.033556826
88	0xbe477ba6	-0.19480762
89	0xbbd6fcc0	-0.006560892
90	0x3d641f18	0.055693716
91	0x3df60899	0.120133586
92	0xbda76cb0	-0.08175027
93	0xbe1eae2e	-0.15496132
94	0xbd8e129e	-0.06937145
95	0x3c7c15db	0.01538607
96	0xbe0a5bd9	-0.135116
97	0xbe78cb32	-0.24296263
98	0xbeaa6875	-0.3328282
99	0x3f859893	1.0437187
100	0x3f267abd	0.65031034
101	0xbde8ede7	-0.11373501
102	0xbc942617	-0.018084569
103	0xbe633dfd	-0.22191615
104	0x3df70794	0.12061992
105	0xbead3a6d	-0.33833638
106	0xbe6b276a	-0.22964254
107	0xbf197371	-0.59941775
108	0xbe80d157	-0.25159714
109	0xbeebfbbb	-0.46090493
110	0x3eeb783c	0.4599017
111	0xbe8362ab	-0.25661215
112	0xbe959189	-0.29212597
113	0x3de0e693	0.109814785
114	0x3df492a2	0.119420305
115	0xbe82038a	-0.25393325
116	0x3d8c0208	0.06836325
117	0xbf35a955	-0.70961505
118	0xbe2da4ff	-0.16957472
119	0xbeb155c5	-0.3463575
120	0xbf0a1bd6	-0.53948724
121	0xbd6e796c	-0.058221266
122	0xbdb170a0	-0.0866406
123	0xbe2ea87c	-0.17056459
124	0x3e069f3a	0.13146678
125	0xbe0fac0d	-0.14030476
126	0xbe8a2b74	-0.26986277
127	0xbe02b2f6	-0.1276358
128	0x3c9064c0	0.017626166
129	0x3e0f5002	0.13995364
130	0xbd095237	-0.03352567
131	0x3d7d008b	0.061768096
132	0xbe87759f	-0.26456925
133	0xbdb5336e	-0.088477
134	0xbe1b0d1f	-0.15141724
135	0x3cf1f760	0.029536903
136	0x3dfc7eac	0.12328848
137	0x3e729644	0.23690134
138	0xbe438547	-0.1909381
139	0xbe63e27c	-0.22254366
140	0xbe905da8	-0.28196454
141	0xbe90efc9	-0.28307942
142	0xbe6dd236	-0.2322472
143	0x3fa4e967	1.2883729
144	0xbe237285	-0.15961654
145	0xbeab9186	-0.33509463
146	0xbf17e0e4	-0.5932753
147	0xbfb7388d	-1.4314133
148	0xbea82bda	-0.32845956
149	0xbe7ddfa7	-0.24792348
150	0xbeacf88c	-0.33783376
151	0xbf40e438	-0.75348234
152	0xbf561bba	-0.8363606
153	0xbed1db62	-0.40987688
154	0x3c90680a	0.017627735
155	0xbcc07e80	-0.02349782
156	0xbe8fe284	-0.28102505
157	0x3db03f28	0.08605796
158	0xbdc4df67	-0.09612923
159	0xbe376bd8	-0.17912233
160	0xbe2f95b3	-0.1714695
161	0xbe3bf376	-0.18354592
162	0xbdb8f2a3	-0.09030654
163	0xbd4e0ead	-0.050306965
164	0x3cd99d91	0.026564391
165	0x3ed3c41c	0.41360557
166	0xbe7bc691	-0.24587466
167	0x3ed13d7f	0.4086723
168	0xbe5b7451	-0.2143109
169	0xbdc62a38	-0.09676021
170	0xbc9873ae	-0.018609848
171	0x3da2ca2e	0.07948719
172	0xbe8f4d14	-0.27988493
173	0xbf06ccd9	-0.5265632
174	0xbf276e42	-0.65402615
175	0xbf444e98	-0.76682425
176	0x3f42bb3b	0.7606694
177	0x3d7a116a	0.061051764
178	0x3e04d000	0.1296997
179	0xbe30f9d3	-0.172828
180	0xbdf77468	-0.120827496
181	0xbe628b1d	-0.2212338
182	0xbd811710	-0.06303227
183	0xbe0d6d62	-0.13811257
184	0xbe67adf5	-0.22624953
185	0xbf56f0a2	-0.83960927
186	0xbf76cbbe	-0.96404636
187	0x3e7903c7	0.24317847
188	0xbe666854	-0.22500736
189	0xbe756c77	-0.23967157
190	0xbe28454a	-0.16432682
191	0xbdf7d95e	-0.121020064
192	0xbda41d62	-0.08013417
193	0xbd07e5f1	-0.033178274
194	0xbe6efee0	-0.23339415
195	0xbebf043b	-0.37307915
196	0xbd9b3e07	-0.0758019
197	0xbec41860	-0.38299847
198	0x3df7ea6e	0.12105261
199	0xbf13e06d	-0.5776432
200	0xbe8ffd81	-0.28123096
201	0x3dd1943e	0.10233353
202	0xbdb4ac13	-0.08821883
203	0xbe88ca87	-0.26717016
204	0xbf2715a1	-0.6526738
205	0x3db8a523	0.09015872
206	0xbe8d30ec	-0.27576387
207	0xbefa5d49	-0.48899296
208	0xbf004533	-0.5010559
209	0x3dfa7cc0	0.122308254
210	0xbe8bd282	-0.27309042
211	0xbe5c0398	-0.21485746
212	0x3d3c606e	0.0459904
213	0x3db0ca5c	0.08632347
214	0x3d777b60	0.060420394
215	0x3b989800	0.0046567917
216	0xbd4f862e	-0.050665073
217	0xbca1ed80	-0.01976657
218	0xbe310577	-0.17287241
219	0xbe32e1a4	-0.17468888
220	0xbe56ef99	-0.20989837
221	0x3e21fa82	0.15818217
222	0xbb4c2c2b	-0.0031154256
223	0xbd873dd0	-0.06603587
224	0xbe8da564	-0.27665246
225	0x3d05c7ee	0.03266137
226	0x3ca3db45	0.020002017
227	0xbe96b342	-0.29433638
228	0x3d822038	0.063538015
229	0xbcbb28bd	-0.022846574
230	0xbea1dc4a	-0.3161338
231	0x3ec0049e	0.37503523
232	0x3f3ab71f	0.7293567
233	0xbea8a73e	-0.32940096
234	0x3ebc9c8b	0.36838183
235	0xbf12629e	-0.5718173
236	0xbec275f3	-0.37980613
237	0xbe6db16f	-0.23212217
238	0x3d9ecfbf	0.07754468
239	0xbf0ac5d0	-0.5420809
240	0xbf371337	-0.71513695
241	0xbf648cc0	-0.8927727
242	0xbd988557	-0.074473076
243	0xbd454bc0	-0.048167944
244	0xbcb9f8d0	-0.02270165
245	0xbd8784b4	-0.06617108
246	0xbd7e8b80	-0.062144756
247	0xbe85de66	-0.2614624
248	0xba8c2900	-0.0010693371
249	0xbd29b67f	-0.041433807
250	0xbd8a49a1	-0.06752325
251	0xbe65793b	-0.22409527
252	0xbe544caa	-0.2073237
253	0xbc2acace	-0.010424329
254	0xbe6ae792	-0.229399
255	0xbec6071d	-0.38677302

linear1.bias f4 [128]
0	0xbe743fee	-0.23852512
1	0xbe1f378a	-0.1554853
2	0xbe957a33	-0.29194793
3	0xbe9b8a7e	-0.303791
4	0xbf026412	-0.50933945
5	0xbdd17b48	-0.10228592
6	0xbee58d5c	-0.4483441
7	0xbe7778aa	-0.24167123
8	0xbe6b2d66	-0.22966537
9	0xbf61941a	-0.8811661
10	0xbed37879	-0.4130285
11	0xbedc7446	-0.4305746
12	0xbdd33161	-0.10312153
13	0xbe68caaf	-0.22733568
14	0xbf134247	-0.57523006
15	0xbe8209c4	-0.25398076
16	0xbe69cb14	-0.22831374
17	0xbef04645	-0.4692861
18	0xbedc75c9	-0.43058613
19	0xbe8a51ba	-0.27015477
20	0xbea6ba76	-0.32564133
21	0x3cd47a05	0.02593709
22	0xbe1c3c89	-0.15257467
23	0xbe72bfe1	-0.23706008
24	0xbae05b73	-0.0017117098
25	0xbe9dc385	-0.30813232
26	0xbeb3ce4d	-0.35118333
27	0xbea46483	-0.32107934
28	0xbe71543a	-0.23567286
29	0xbe6100b8	-0.2197293
30	0xbe7f3928	-0.24924147
31	0xbe60d158	-0.21954858
32	0xbea94157	-0.33057663
33	0xbe02f802	-0.1278992
34	0xbdbcce5d	-0.09219048
35	0xbe636172	-0.22205141
36	0xbebe1510	-0.37125444
37	0xbcc9fbb1	-0.024656149
38	0xbece6057	-0.40307876
39	0xbe2da09a	-0.16955796
40	0xbec87cf2	-0.39157826
41	0xbee45203	-0.4459382
42	0xbe90d59a	-0.28287965
43	0xbeb0d2af	-0.3453574
44	0xbefea9ae	-0.4973883
45	0xbf2e537b	-0.6809613
46	0xbd3d502d	-0.04621904
47	0xbef97306	-0.48720568
48	0xbeceb0b6	-0.40369195
49	0xbece94c0	-0.40347862
50	0xbebca159	-0.36841848
51	0xbe2f8e0e	-0.17144033
52	0xbea0e828	-0.3142712
53	0xbee05400	-0.43814087
54	0xbe859e2a	-0.26097232
55	0x3deb607d	0.11493013
56	0xbec5e9b7	-0.38654873
57	0xbe182726	-0.14858684
58	0xbe9ad667	-0.302417
59	0xbea2012c	-0.3164152
60	0xbde80516	-0.11329095
61	0xbece3d65	-0.40281215
62	0xbecd77b6	-0.40130395
63	0xbe9b2c3a	-0.3030718
64	0xbe3d378d	-0.18478222
65	0xbe444cc1	-0.19169904
66	0xbf1c42d1	-0.61039454
67	0xbe8667ee	-0.26251167
68	0xbdf7d863	-0.12101819
69	0xbe213536	-0.15742955
70	0xbe772782	-0.24136165
71	0xbe29e443	-0.16590981
72	0xbf45b4e2	-0.7722913
73	0xbe8b8cd3	-0.27255878
74	0xbe64c33d	-0.22340102
75	0xbf086d55	-0.5329183
76	0xbe82227b	-0.25416932
77	0xbdefc47d	-0.11707399
78	0xbf164eb3	-0.58713835
79	0xbe851d7a	-0.2599905
80	0xbea5d5eb	-0.3238977
81	0xbe78b120	-0.24286318
82	0xbe0437d9	-0.12911929
83	0xbecf5ad3	-0.4049898
84	0xbee98e72	-0.4561649
85	0xbf1a00c3	-0.6015741
86	0xbea7d39e	-0.3277864
87	0xbeaa59af	-0.33271548
88	0xbe3a5f5d	-0.1820044
89	0xbe9309e5	-0.28718486
90	0xbefbec87	-0.49203894
91	0xbecf7b61	-0.40523818
92	0xbe82f5ef	-0.25578257
93	0xbed2facc	-0.41206968
94	0xbf1fc8ca	-0.62415755
95	0xbe3eefe6	-0.18646201
96	0xbf1238fa	-0.5711819
97	0x3e8df45c	0.27725494
98	0x3d05f2fd	0.032702435
99	0xbefc089d	-0.4922532
100	0xbe3a3cd5	-0.18187268
101	0xbe716bb3	-0.2357624
102	0xbf09139f	-0.53545564
103	0xbe8bab7e	-0.27279276
104	0xbeade1b1	-0.3396125
105	0xbeb4676e	-0.3523516
106	0xbecaeea0	-0.3963518
107	0xbda404db	-0.080087386
108	0xbe38c42c	-0.18043584
109	0xbea5f08d	-0.32410088
110	0xbdd6b951	-0.10484565
111	0xbe5d1e45	-0.21593578
112	0xbea8e2ee	-0.32985634
113	0xbef44e44	-0.47715962
114	0xbebb4cb3	-0.36581954
115	0xbd860130	-0.06543195
116	0xbebd0f51	-0.36925748
117	0xbe915c08	-0.28390527
118	0xbed0c0d3	-0.40772113
119	0xbf30e171	-0.69093996
120	0xbee7e4b0	-0.45291662
121	0xbd85c048	-0.06530815
122	0xbe51dab1	-0.2049358
123	0xbe92cac7	-0.28670332
124	0x3cd464e1	0.025927009
125	0xbe39ba93	-0.18137579
126	0xbf187cc8	-0.595654
127	0xbb65eabe	-0.0035082544

linear2.weight f4 [64, 128]
0	0xbcc81a6c	-0.024426661
1	0xbd50af25	-0.05094828
2	0x3d936399	0.07196731
3	0x3ce3bde0	0.0278005
4	0xbd785ebb	-0.060637217
5	0xbe012892	-0.12613133
6	0xbe124a82	-0.14286235
7	0xbca8f8c0	-0.020626426
8	0x3bb15620	0.005411878
9	0xbd278c50	-0.040905297
10	0x3d333a06	0.043756507
11	0xbd67d965	-0.056603808
12	0x3d88a2c1	0.06671668
13	0xbd9b809a	-0.07592888
14	0xbd6ad164	-0.057328597
15	0xbd458584	-0.048223034
16	0xbd2de952	-0.04245884
17	0x3cacad04	0.021078594
18	0x3d64174a	0.055686273
19	0xbd99ba70	-0.07506263
20	0xbcf8977a	-0.030345667
21	0xbd5b35b6	-0.05351802
22	0xbc90c624	-0.017672606
23	0x3d6c679e	0.057716005
24	0xbde67d5e	-0.11254381
25	0x3d1be60a	0.03806118
26	0x3c02fb88	0.00799454
27	0x3db3b041	0.08773852
28	0xbd6fc073	-0.058533143
29	0x3cf9c81c	0.030490927
30	0xbdbf1880	-0.09330845
31	0xbcf0c4a4	-0.02939064
32	0xbdab77e4	-0.08372477
33	0x3c03ff18	0.008056425
34	0x3d7f4cae	0.062328987
35	0x3cdb52b4	0.026772834
36	0x3d312b42	0.043254144
37	0x3d518d3a	0.051160075
38	0xbca54d94	-0.020178594
39	0x3d692506	0.056920074
40	0xbdc78944	-0.09742978
41	0xbbf9fff0	-0.007629387
42	0xbb9fa600	-0.0048720837
43	0x3cd5c0b0	0.026092857
44	0x3d949ea7	0.07256823
45	0x3d45a0d6	0.04824909
46	0x3c8c4710	0.017123729
47	0xbd9bf066	-0.07614212
48	0xbd859172	-0.06521882
49	0x3dad3c6b	0.084587894
50	0xbd79d5fa	-0.06099508
51	0xbd7885ae	-0.060674362
52	0xbd226562	-0.039647467
53	0x3d2e4c9c	0.04255353
54	0xbd78367e	-0.060598843
55	0xbd05b2bb	-0.032641154
56	0x3c213be8	0.009840943
57	0xbd2609e0	-0.04053676
58	0xbaa1be00	-0.001233995
59	0x3d97e3cf	0.07416498
60	0xbd2c3c51	-0.04204971
61	0x3c8a27e0	0.016864717
62	0x3cc089ec	0.023503266
63	0x3db3f3ab	0.0878671
64	0xbd5e876d	-0.05432837
65	0xbd8b9aa1	-0.068166025
66	0xbd3b9c05	-0.04580309
67	0xbd726893	-0.05918176
68	0x3d13fe74	0.036131337
69	0xbcd94286	-0.026520979
70	0x3d92ecd5	0.071740784
71	0xbe642cdd	-0.22282739
72	0xbe00913f	-0.12555407
73	0xbd0244b4	-0.0318038
74	0xbdc828b6	-0.0977339
75	0xbc5ef6f0	-0.013608679
76	0x3cf04f88	0.029334798
77	0xbd1404d6	-0.036137424
78	0x3d7307fa	0.05933378
79	0xbcdabe64	-0.026702113
80	0xbcffb0ac	-0.031212173
81	0xbdf429bf	-0.11922025
82	0xbd5ed5b2	-0.054403014
83	0x3d86bceb	0.06579002
84	0xbd992a6c	-0.074787945
85	0xbd61c85b	-0.055122714
86	0xbcd5e14a	-0.026108403
87	0xbcdf4514	-0.027254619
88	0x3d5c25c7	0.053746965
89	0x3d88d9db	0.06682178
90	0x3c142330	0.0090415925
91	0xbd7b9f65	-0.061431307
92	0x3d009fb2	0.031402297
93	0xbe1dd2d1	-0.15412451
94	0xbd92ce04	-0.071682006
95	0xbd1096f9	-0.03530023
96	0x3b135560	0.0022481307
97	0x3d5bfbd2	0.05370695
98	0xbb05fe38	-0.0020445716
99	0xbd9dd612	-0.07706846
100	0x3c1c874c	0.009553742
101	0xbe12c1dc	-0.14331764
102	0x3c7c6f30	0.015407369
103	0xbd6fc6be	-0.058539145
104	0xbd85273b	-0.06501623
105	0xbb817000	-0.003950119
106	0x3d8c6c81	0.06856633
107	0xbd98cc12	-0.07460798
108	0xbdb2847e	-0.08716677
109	0xbda6aa0f	-0.08137905
110	0xbdc23307	-0.09482389
111	0xbd60a3e9	-0.054843817
112	0x3d920375	0.071295656
113	0x3d346ce2	0.04404915
114	0xbcb639e4	-0.022244401
115	0x3d0daaf4	0.03458686
116	0xbd095044	-0.033523813
117	0x3d9fe96d	0.07808194
118	0xbc75fe88	-0.015014298
119	0x3d4f6dba	0.050641753
120	0x3b09fca0	0.0021055117
121	0xbc5296c8	-0.012853332
122	0x3d64dcce	0.05587464
123	0x39cae100	0.0003869608
124	0xbdbcd96a	-0.09221156
125	0x3c0b9241	0.008518756
126	0x3cd3b2f4	0.025842167
127	0xbd82924a	-0.06375559
128	0xbd91a652	-0.07111801
129	0x3d7fca4e	0.062448792
130	0xbd3ef11c	-0.04661666
131	0xbe095273	-0.13410358
132	0x3e636718	0.22207296
133	0xbbe20dbb	-0.0068986095
134	0xbe1365a8	-0.14394248
135	0xbd3f7a5e	-0.046747558
136	0x3d26f820	0.040763974
137	0x3e3003a2	0.17188886
138	0xbdddc4f4	-0.108285815
139	0xbdb2087b	-0.08693024
140	0xbd48d1b0	-0.0490281
141	0x3e36f47f	0.17866705
142	0xbcfc3811	-0.030788453
143	0x3dc85c94	0.09783283
144	0xbe6c6afc	-0.23087686
145	0xbdb9846b	-0.0905846
146	0x3c39a590	0.011330977
147	0x3d0a676b	0.033790033
148	0xbcf2023e	-0.029542085
149	0x3ec471e0	0.3836813
150	0x3de93d2b	0.1138862
151	0x3d721d06	0.05910971
152	0x3e776745	0.24160488
153	0x3e1860fd	0.14880748
154	0xbdc7c96b	-0.09755214
155	0xbe9b11cb	-0.30287012
156	0xbcdf91aa	-0.027291138
157	0x3cc1f334	0.023675539
158	0x3ee75d80	0.45188522
159	0xbde591ce	-0.11209451
160	0xbc819083	-0.015815979
161	0x3c1b2670	0.009469613
162	0x3dbcab4b	0.09212359
163	0x3d603868	0.054741293
164	0xbe58a9ea	-0.21158567
165	0x3d476584	0.048680797
166	0x3d38feba	0.0451648
167	0xbd94d0e4	-0.07266405
168	0xbc62fa5c	-0.013853636
169	0xbe1c8b43	-0.15287499
170	0x3d7200d2	0.059082814
171	0x3dd625c6	0.104564235
172	0x3d37f522	0.04491151
173	0x3e0347f5	0.12820418
174	0x3c4cac1b	0.012492205
175	0xbe9578f5	-0.29193845
176	0xbc2afead	-0.010436696
177	0x3d6072b6	0.054796897
178	0xbc0b2d84	-0.0084947385
179	0xbe18680d	-0.14883442
180	0xbe42ac73	-0.19011097
181	0xbef1b36e	-0.47207206
182	0xbcaa289d	-0.020771319
183	0x3e53dc32	0.20689467
184	0xbdad5329	-0.08463127
185	0xbc8cdb6e	-0.017194476
186	0x3d20034a	0.039065637
187	0x3f6d2612	0.92636216
188	0xbe01597f	-0.12631796
189	0xbd001444	-0.031269327
190	0x3d4e5f11	0.05038363
191	0x3dbf44ba	0.093392804
192	0x3e29f6f1	0.16598107
193	0x3e1f9757	0.15585075
194	0xbddcaad5	-0.10774771
195	0xbd68f174	-0.056870893
196	0x3daefc6e	0.08544241
197	0xbcae8d2b	-0.021307549
198	0xbda26875	-0.0793008
199	0xbddd44de	-0.10804151
200	0x3e171291	0.14753176
201	0x3ce515ce	0.027964499
202	0x3d694c27	0.05695739
203	0xbd16d8e2	-0.03682793
204	0xbdfffd5a	-0.12499495
205	0xbc013008	-0.007884987
206	0xbdd95e1e	-0.106136546
207	0xbdd3d2bf	-0.10342931
208	0xbd917bcb	-0.0710369
209	0xbf22f7dd	-0.6365946
210	0xbd76d982	-0.060266025
211	0xbe03bb91	-0.1286452
212	0xbc52083f	-0.012819349
213	0xbd0758da	-0.03304372
214	0xbd8c3861	-0.06846691
215	0xbbe56bc0	-0.00700137
216	0xbcecd226	-0.0289088
217	0x3e069e23	0.13146262
218	0x3d5474f5	0.05186935
219	0xbd21542f	-0.039386924
220	0xbdd0d3d1	-0.10196651
221	0xbee501a2	-0.44727808
222	0x3e43793c	0.19089216
223	0x3d1a7ff7	0.037719693
224	0x3c91f850	0.0178186
225	0x3ea82d13	0.3284689
226	0x3d31848b	0.043339293
227	0xbd3cc6cd	-0.04608803
228	0xbe27148b	-0.1631643
229	0x3d483c3b	0.048885565
230	0xbd5433b8	-0.051807135
231	0xbdc150f2	-0.09439267
232	0x3e1a671e	0.15078399
233	0xbcf000fa	-0.02929734
234	0x3d843811	0.06456006
235	0x3d3beb0c	0.045878455
236	0xbd2239f6	-0.039606057
237	0x3b8d1c35	0.004306341
238	0xbedd007c	-0.43164432
239	0xbcefb3e3	-0.029260581
240	0x3d989c35	0.07451669
241	0x3dd7bdda	0.10534258
242	0xbd559093	-0.05213983
243	0x3e1f28a7	0.15542851
244	0x3b876d93	0.0041329353
245	0xbd377538	-0.044789523
246	0xbd2378cf	-0.039910134
247	0x3d1bbf41	0.03802419
248	0x3cb66608	0.02226545
249	0xbdfa3381	-0.12216855
250	0xbd03e3d7	-0.032199707
251	0xbc9b0386	-0.018922579
252	0xbd6dfbca	-0.058101453
253	0xbd169c61	-0.03677023
254	0xbb814d0e	-0.003945953
255	0xbc8f7006	-0.017509472

linear2.bias f4 [64]
0	0xbe3a83a1	-0.18214275
1	0x3d837eef	0.06420695
2	0xbf1b4517	-0.606523
3	0xbe2b7b90	-0.16746354
4	0xbeb792dd	-0.35854235
5	0xbde4e92c	-0.111772865
6	0xbea1d4b7	-0.316076
7	0x3e18ed12	0.14934185
8	0xbe49bcb8	-0.19700897
9	0xbdcdb5ca	-0.10044439
10	0xbe3d78ea	-0.18503156
11	0xbdeecaf6	-0.116598055
12	0xbe5415f9	-0.20711507
13	0xbe230b40	-0.1592226
14	0xbe5203fd	-0.20509334
15	0xbe71835b	-0.23585264
16	0xbe86a2f4	-0.26296198
17	0xbe0603ff	-0.13087462
18	0x3e47034c	0.19434851
19	0xbdc341ff	-0.09534072
20	0xbe89eb3e	-0.26937288
21	0xbe234566	-0.15944442
22	0xbd99930d	-0.07498751
23	0xbd2f82b1	-0.042849246
24	0xbe35621a	-0.17713204
25	0xbc3952c4	-0.011311237
26	0xbe358246	-0.17725477
27	0xbe8e07d1	-0.27740338
28	0xbe6bdfa1	-0.23034526
29	0xbe982a44	-0.29719746
30	0xbe58d62f	-0.21175455
31	0xbe238c8a	-0.1597158
32	0xbde7cb77	-0.11318105
33	0xbe85b340	-0.2611332
34	0xbdbb7d17	-0.09154718
35	0xbded6ec1	-0.1159339
36	0xbe6c568e	-0.23079893
37	0xbe543e6f	-0.20726942
38	0xbdf6e5be	-0.120555386
39	0xbda8d6bf	-0.082440846
40	0xbe94103c	-0.28918636
41	0xbde2953e	-0.11063622
42	0xbe69890b	-0.22806184
43	0xbea84208	-0.32862878
44	0xbe054958	-0.1301626
45	0xbe7d8327	-0.24757062
46	0x3d914cab	0.070947014
47	0xbe0cc26c	-0.13746041
48	0xbe430cbf	-0.19047831
49	0xbd1e1075	-0.038589913
50	0xbe5704f1	-0.20997979
51	0xbe8aaa1e	-0.27082914
52	0xbe6400a5	-0.22265871
53	0xbdb347b7	-0.08753913
54	0xbd16ec06	-0.036846183
55	0xbe67536a	-0.22590414
56	0xbe5b4f10	-0.21416879
57	0xbe48000f	-0.19531272
58	0xbe6ae3dc	-0.22938484
59	0xbe0066f1	-0.12539269
60	0xbdcb6e3e	-0.099331364
61	0xbe26dcf1	-0.1629522
62	0xbe0a44a8	-0.13502753
63	0xbdf54983	-0.11976912

linear3.weight f4 [3, 64]
0	0xbc651d99	-0.013984107
1	0xbef26b0a	-0.4734729
2	0xbe3939c3	-0.1808844
3	0xbdec9ddc	-0.11553547
4	0xbce40609	-0.027834909
5	0x3de79d2a	0.113092735
6	0x3db81bc7	0.08989673
7	0xbf06b6e2	-0.5262281
8	0x3e1923a4	0.14955002
9	0x3d18d8b2	0.03731603
10	0x3e8098ee	0.25116676
11	0xbdb1d9fb	-0.086841546
12	0xbe05bf72	-0.13061312
13	0xbcc90f58	-0.02454345
14	0xbcb2097e	-0.021733042
15	0xbb7d80b2	-0.0038681445
16	0xbf1cada0	-0.6120243
17	0xbe2ecc3c	-0.17070097
18	0xbf13551b	-0.57551736
19	0xbd614475	-0.054996926
20	0x3db8dc9e	0.090264544
21	0xbb10d90e	-0.002210203
22	0x3d8f7df3	0.07006445
23	0xbdacd389	-0.08438785
24	0x3d657307	0.0560179
25	0x3e320b17	0.17387043
26	0xbe0ea020	-0.1392827
27	0x3bb8382d	0.005621931
28	0xbddd7fcc	-0.10815391
29	0xbd5d8abb	-0.05408738
30	0x3dc0dadf	0.09416746
31	0xbcf3d0eb	-0.029762706
32	0xbd4db8b4	-0.050224975
33	0x3d8524b2	0.0650114
34	0xbe200d99	-0.15630187
35	0xbd3ef61f	-0.046621438
36	0xbfbdf233	-1.4839538
37	0x3d9bf799	0.07615585
38	0xbd9e2145	-0.077211894
39	0x3e6087fc	0.21926874
40	0xbe36e623	-0.17861228
41	0x3dee1772	0.116255656
42	0x3e7621b4	0.24036294
43	0xbe1db634	-0.15401536
44	0x3c473c8a	0.01216043
45	0xbd6cef20	-0.057845235
46	0xbd8fdeb0	-0.07024896
47	0x3e4c4f0a	0.19952026
48	0xbdeff3f5	-0.11716453
49	0x3e534e07	0.20635234
50	0x3ca8896f	0.020573346
51	0x3d24efc1	0.04026771
52	0xbdb31050	-0.08743346
53	0x3e09fd7c	0.13475603
54	0xbeb47762	-0.35247332
55	0xbd334e99	-0.04377613
56	0x3d2a540d	0.041584063
57	0x3c0b173a	0.008489424
58	0x3e7d52ad	0.2473857
59	0x3ec0c4d2	0.37650162
60	0xbcde85bb	-0.027163377
61	0x3e9f1821	0.31073096
62	0xbd2f15f5	-0.04274555
63	0x3e4d5a06	0.20053872
64	0xbd351cf3	-0.04421706
65	0xbee40986	-0.44538516
66	0xbab95061	-0.0014138335
67	0x3e050d35	0.1299332
68	0xbcca7b6b	-0.024717053
69	0xbd147222	-0.036241658
70	0xbcf4eb07	-0.029897226
71	0x3d941aee	0.07231699
72	0x3bb324bb	0.005467025
73	0xbc9670b2	-0.018364284
74	0x3e1f41fe	0.15552518
75	0xbb3b9651	-0.002862353
76	0x3db29676	0.087201044
77	0xbd8563b3	-0.06513157
78	0x3d94737d	0.0724859
79	0x3e031081	0.12799264
80	0xbdf6fe22	-0.12060191
81	0xbf7e6f08	-0.9938817
82	0xbe08f671	-0.1337526
83	0x3e3f5dee	0.18688175
84	0xbdbc2b15	-0.09187905
85	0x3c6dded8	0.014518462
86	0xba8679ed	-0.0010259725
87	0x3d5449e8	0.051828295
88	0x3e25aa00	0.16178131
89	0x3d2cfb8a	0.042232074
90	0x3d3e3775	0.046439607
91	0xbd815da5	-0.063166894
92	0xbda4bbaa	-0.080436066
93	0x3e23a34e	0.15980265
94	0x3e175fb7	0.14782606
95	0xbc6864e0	-0.014184207
96	0xbc9f4d0d	-0.01944592
97	0xbd3ba256	-0.045809112
98	0x3d119eb1	0.03555173
99	0xbd0307b0	-0.031989753
100	0x3d67ae7b	0.056562882
101	0xbc78a670	-0.015176401
102	0x3d06f2bf	0.032946344
103	0xbfac24ef	-1.3448771
104	0xbd68872a	-0.056769527
105	0xbd4b683e	-0.04965996
106	0xbb09ff1b	-0.0021056596
107	0x3d22116d	0.0395674
108	0xbdc2755b	-0.0949504
109	0xbce956cb	-0.028483769
110	0x3ea5f8c1	0.32416347
111	0x3e3f4bc3	0.18681245
112	0x3dab4bf9	0.083641
113	0x3f05c1e8	0.52249
114	0x3e03aad1	0.1285813
115	0xbd95b94f	-0.073107354
116	0xbd91c46f	-0.07117545
117	0xbedfb0e6	-0.4368965
118	0xbd7ec9e1	-0.062204245
119	0xbcdd0ed9	-0.026984619
120	0x3db52f9e	0.08846973
121	0xbea42e2a	-0.3206647
122	0x3d992e3b	0.07479521
123	0xbf911039	-1.1333076
124	0xbd868a83	-0.06569388
125	0x3e782a24	0.24234825
126	0x3d28875c	0.041144714
127	0xbdde3912	-0.10850729
128	0x3cfceae7	0.030873729
129	0xbc914064	-0.0177309
130	0x3d1347de	0.03595721
131	0x3e5592e2	0.20856813
132	0x3e4204bd	0.1894712
133	0xbfadde91	-1.3583547
134	0x3decee03	0.11568835
135	0x3dd061f2	0.101749316
136	0xbdce5b72	-0.100760356
137	0xbd5b1145	-0.053483266
138	0xbd9635fa	-0.07334514
139	0x3be9f50c	0.0071398076
140	0xbd2c0f3d	-0.04200672
141	0x3caf2526	0.021380018
142	0xbe15af09	-0.14617552
143	0x3d13ecc9	0.036114488
144	0x3e00c772	0.12576082
145	0xbdad90fc	-0.08474919
146	0xbea098a6	-0.31366462
147	0xbd8c87b8	-0.06861824
148	0x3c1d8fe0	0.009616822
149	0xbd0075ed	-0.031362463
150	0xbd40266b	-0.04691164
151	0xbd1be0da	-0.038056232
152	0x3df74c8e	0.120751485
153	0xbd8e82b2	-0.06958522
154	0x3d0b6b34	0.034037784
155	0xbd738632	-0.05945415
156	0x3dc011c4	0.093783885
157	0x3ca33d39	0.019926654
158	0x3e111c37	0.1417092
159	0x3dbeeba3	0.09322288
160	0xbdae8ffc	-0.085235566
161	0xbd5fc43f	-0.054630514
162	0x3be1c758	0.0068902187
163	0xbdd2df8a	-0.10296543
164	0x3e17755b	0.14790861
165	0x3cece278	0.028916582
166	0x3d6c03bd	0.057620753
167	0x3df40df8	0.11916727
168	0xbe42360f	-0.18965934
169	0xbd18b710	-0.037283957
170	0xbe36835f	-0.17823552
171	0xbc2c3686	-0.010511046
172	0x3d465bdc	0.048427448
173	0xbd132493	-0.03592355
174	0x3ec69953	0.38788852
175	0x3d8db06b	0.06918415
176	0x3c66247f	0.014046787
177	0xbdbebd98	-0.09313506
178	0xbc9f82b8	-0.019471511
179	0xbd376d02	-0.044781692
180	0xbdd6eb78	-0.10494131
181	0x3c6e815a	0.014557207
182	0xbe4c043f	-0.19923495
183	0x3c8d76bd	0.017268533
184	0xb9ecce00	-0.0004516691
185	0xbd9c411f	-0.07629608
186	0x3db739bc	0.08946559
187	0x3e1a28dd	0.1505465
188	0xbdc94aa3	-0.09828689
189	0xbd6c293c	-0.05765651
190	0xbe60be24	-0.21947533
191	0x3d853559	0.06504316

linear3.bias f4 [3]
0	0xbf22b9c1	-0.6356469
1	0xbf67c327	-0.90532154
2	0xbf725d49	-0.9467359
