model_backup_20.pth (torch, 42263 bytes, 6 tensors)

linear1.weight f4 [128, 11]
0	0xbe216365	-0.15760572
1	0xbe2694d3	-0.1626771
2	0xbe4746ac	-0.19460553
3	0x3d373b50	0.0447343
4	0x3e23fc32	0.16014174
5	0x3d034ebb	0.032057505
6	0xbe48fc43	-0.1962748
7	0x3e0218e8	0.12704813
8	0x3e0c8b9c	0.13725132
9	0xbe4d8fea	-0.2007443
10	0xbe85e58e	-0.261517
11	0x3dfdb524	0.123880655
12	0x3e3388d4	0.17532665
13	0xbe3d8adc	-0.18510002
14	0xbd6ddbd8	-0.058070987
15	0xbe35f98a	-0.17770973
16	0xbe5f2e89	-0.21795096
17	0xbe942044	-0.28930867
18	0x3ce2dab0	0.027692169
19	0xbd729104	-0.05922033
20	0xbe8586a1	-0.26079276
21	0xbdb0e4f8	-0.08637422
22	0xbe250600	-0.1611557
23	0x3e37ee5a	0.17962018
24	0xbd1e72e0	-0.038683772
25	0x3e836bd0	0.25668192
26	0xbc0de749	-0.0086611
27	0xbdf03cee	-0.117303714
28	0xbe843322	-0.2582026
29	0xbc3c2140	-0.011482537
30	0x3daa7cd3	0.083245896
31	0xbbecdfdc	-0.0072288346
32	0xbe4ec636	-0.20192799
33	0xbda9736e	-0.082739696
34	0xbe42218d	-0.18958111
35	0xbd197370	-0.037463605
36	0x3dcf2d17	0.10116022
37	0x3e897f1b	0.26854786
38	0xbe8fbb40	-0.28072548
39	0x3de995e8	0.114055455
40	0x3bede863	0.0072603687
41	0xbddc03d3	-0.10742917
42	0xbe5eb5ca	-0.21749035
43	0x3cc9bdc2	0.024626616
44	0x3e8ec284	0.2788278
45	0x3e38ae42	0.18035224
46	0xbe926fbc	-0.28600872
47	0x3e50ad09	0.20378508
48	0xbde7a8e4	-0.1131151
49	0xbe0b513d	-0.13605209
50	0xbe3f278a	-0.18667427
51	0x3e59958d	0.21248455
52	0xbd1d08ea	-0.03833858
53	0xbe324366	-0.17408523
54	0xbe231faa	-0.15930048
55	0xbe40257c	-0.18764299
56	0xbe8fa5c5	-0.2805616
57	0xbde33aa0	-0.11095166
58	0xbe6801f2	-0.22656992
59	0xbdb83082	-0.08993627
60	0x3d7bcf80	0.061477184
61	0xbe33fca2	-0.1757684
62	0xbc7e6a44	-0.015528265
63	0xbe175643	-0.14779
64	0xbd8a19d6	-0.06743209
65	0xbe33e648	-0.17568314
66	0xbbdfe2a5	-0.006832438
67	0xbd3d0fc8	-0.04615763
68	0xbd664f57	-0.056228008
69	0x3e515baa	0.20445123
70	0xbe537cc0	-0.20653057
71	0xbe11135b	-0.1416754
72	0xbe01e61a	-0.12685433
73	0xbd99d7ff	-0.07511901
74	0x3ee92df7	0.4554288
75	0x3d3743ef	0.04474252
76	0x3db04292	0.08606447
77	0x3da9ae90	0.08285248
78	0xbe1a5b01	-0.15073778
79	0x3de33978	0.11094946
80	0xbdb2a00a	-0.08721931
81	0x3d92de15	0.07171265
82	0xbe8bdde3	-0.27317724
83	0xbd509b40	-0.050929308
84	0xbe3f857b	-0.18703263
85	0x3c5b239a	0.013375187
86	0x3cb6c1db	0.022309234
87	0xbd0972e2	-0.033556826
88	0xbe477ba6	-0.19480762
89	0xbbd6fcc0	-0.006560892
90	0x3d641f18	0.055693716
91	0x3e67a3c0	0.2262106
92	0xbda76cb0	-0.08175027
93	0xbe1eae2e	-0.15496132
94	0xbd8e129e	-0.06937145
95	0x3df8c19f	0.12146305
96	0xbe0a5bd9	-0.135116
97	0xbe78cb32	-0.24296263
98	0xbeaa6875	-0.3328282
99	0x3d02fc16	0.03197869
100	0x3e48e232	0.19617537
101	0xbe5ced7d	-0.2157497
102	0x3dfc9e67	0.123349
103	0x3e648d34	0.2231949
104	0x3d5be00c	0.053680465
105	0x3ddca8e8	0.10774404
106	0x3c89dc18	0.016828582
107	0x3d974e4c	0.07387981
108	0x3e188c85	0.14897354
109	0x3e08a0eb	0.13342635
110	0x3e7108b0	0.2353847
111	0xbd89cf1c	-0.06728956
112	0xbe959189	-0.29212597
113	0x3df264bc	0.1183562
114	0xbc960260	-0.01831168
115	0xbd12af80	-0.0358119
116	0x3e535fe5	0.2064205
117	0xbe70b3e7	-0.23506127
118	0xbe8fb59e	-0.2806825
119	0x3be4c1bb	0.0069811023
120	0xbe529f1d	-0.2056851
121	0xbd6e796c	-0.058221266
122	0xbdb170a0	-0.0866406
123	0xbe2ea87c	-0.17056459
124	0x3e069f3a	0.13146678
125	0xbe0fac0d	-0.14030476
126	0xbe8a2b74	-0.26986277
127	0xbe02b2f6	-0.1276358
128	0x3c9064c0	0.017626166
129	0x3e0f5002	0.13995364
130	0xbd095237	-0.03352567
131	0x3d7d008b	0.061768096
132	0xbe87759f	-0.26456925
133	0xbdb5336e	-0.088477
134	0xbe1b0d1f	-0.15141724
135	0x3cf1f760	0.029536903
136	0x3e723ff4	0.23657209
137	0x3e6d7c78	0.23192012
138	0xbe438547	-0.1909381
139	0xbdcac17a	-0.09900184
140	0xbe905da8	-0.28196454
141	0xbe82d8d6	-0.25556058
142	0xbdf3a338	-0.11896366
143	0x3e642132	0.22278288
144	0xbe87e4be	-0.26541704
145	0xbe4a463c	-0.19753355
146	0x3e144afc	0.1448173
147	0xbe12d18d	-0.1433775
148	0x3d20f2d2	0.03929407
149	0x3e8f5730	0.27996206
150	0xbe823d0e	-0.25437206
151	0x3d6c5d14	0.057705954
152	0xbcf7e51c	-0.030260615
153	0xbe27a460	-0.16371298
154	0x3e67bf3f	0.22631548
155	0x3e0a928e	0.13532469
156	0xbe8fe284	-0.28102505
157	0x3e0b2f77	0.13592325
158	0x3d806551	0.062693246
159	0xbe376bd8	-0.17912233
160	0xbe2f95b3	-0.1714695
161	0xbcca8885	-0.0247233
162	0xbd25a5ba	-0.040441252
163	0x3e222e95	0.15838082
164	0x3cd99d91	0.026564391
165	0x3db19ff0	0.08673084
166	0x3d5c6c60	0.053814292
167	0x3e4f3028	0.20233214
168	0x3de3af3c	0.11117408
169	0x3e703a87	0.23459826
170	0x3e390297	0.18067394
171	0x3d3889c8	0.045053273
172	0xbe440fea	-0.19146696
173	0xbe7531fc	-0.23944849
174	0xbe9591e9	-0.29212883
175	0xbe91b3b3	-0.28457412
176	0xbdd5362a	-0.104107216
177	0x3e047ace	0.12937471
178	0xbe64a94e	-0.2233021
179	0xbc082480	-0.0083094835
180	0xbe75b924	-0.23996407
181	0xbbddf8b4	-0.0067740325
182	0x3cd09970	0.02546379
183	0xbe530c31	-0.2061012
184	0x3b7aaa3d	0.0038248443
185	0xbe4b5809	-0.19857801
186	0xbe91e9f1	-0.28498796
187	0x3d75e478	0.060032338
188	0xbe666854	-0.22500736
189	0xbe756c77	-0.23967157
190	0xbe0cec8c	-0.1376211
191	0x3e84902b	0.2589124
192	0xbe314ff5	-0.17315657
193	0x3e15e2ad	0.14637251
194	0xbcf02ec0	-0.029319167
195	0xbe21ed51	-0.15813185
196	0x3d8fbdf3	0.07018652
197	0xbe91145e	-0.2833585
198	0xbda18bc0	-0.07887983
199	0xbe0f6f94	-0.14007407
200	0x3e6a3cfa	0.22874823
201	0x3e65ec38	0.22453392
202	0x3dc42e68	0.09579164
203	0x3e661e29	0.22472443
204	0xbe88a305	-0.26686874
205	0x3dd2e650	0.10297835
206	0xbdc2257d	-0.094798066
207	0xbde427bd	-0.11140392
208	0xbd42d2f1	-0.04756445
209	0x3dfa7cc0	0.122308254
210	0xbe8bd282	-0.27309042
211	0xbe5c0398	-0.21485746
212	0x3e1d4276	0.15357384
213	0x3db0ca5c	0.08632347
214	0x3d777b60	0.060420394
215	0x3b989800	0.0046567917
216	0x3d69233b	0.056918364
217	0xbca1ed80	-0.01976657
218	0xbe310577	-0.17287241
219	0xbe32e1a4	-0.17468888
220	0xbe23d4e5	-0.15999182
221	0x3e96ba7e	0.29439157
222	0xbd6a0923	-0.05713762
223	0x3d1117df	0.035423156
224	0xbe57e663	-0.2108398
225	0x3def3759	0.116804786
226	0x3e2c654e	0.1683552
227	0xbe96b342	-0.29433638
228	0x3e678889	0.22610678
229	0x3e19db3d	0.15025039
230	0xbe6f3a85	-0.23362167
231	0x3e8f6da8	0.2801335
232	0x3e258b68	0.1616646
233	0xbd4934f8	-0.04912278
234	0x3bd9e2c3	0.0066493466
235	0xbe860273	-0.26173744
236	0xbc41d4b2	-0.011830496
237	0xbdb48c47	-0.08815818
238	0x3e253c21	0.16136219
239	0x3cbfc877	0.023411019
240	0xbeb2909d	-0.34875956
241	0x3e7be758	0.2459997
242	0x3d84cc98	0.06484336
243	0xbd454bc0	-0.048167944
244	0xbcb9f8d0	-0.02270165
245	0xbd8784b4	-0.06617108
246	0xbd7e8b80	-0.062144756
247	0xbdfa27b7	-0.12214606
248	0xba8c2900	-0.0010693371
249	0xbd29b67f	-0.041433807
250	0x3d93084d	0.071793176
251	0xbe65793b	-0.22409527
252	0xbe544caa	-0.2073237
253	0xbda2880c	-0.07936105
254	0xbe6ae792	-0.229399
255	0xbe4970f2	-0.19671991

linear1.bias f4 [128]
0	0xbe329c38	-0.17442405
1	0xbd412cb0	-0.047161758
2	0xbe35d8c8	-0.17758477
3	0xbd18a6a7	-0.037268307
4	0x3cc89b45	0.0244881
5	0xbc8a7848	-0.016903058
6	0x3e651943	0.22372918
7	0xbe7778aa	-0.24167123
8	0xbdfd1bf0	-0.12358844
9	0x3d20dab0	0.039271057
10	0xbe5820c7	-0.21106254
11	0xbedc7446	-0.4305746
12	0xbddbba50	-0.10728896
13	0x3e4d3ada	0.20041981
14	0xbebbab78	-0.36654258
15	0x3cfaaa17	0.030598683
16	0x3d9f29ec	0.07771668
17	0xbe5fe46d	-0.21864481
18	0xbe30d7aa	-0.1726977
19	0xbe267924	-0.16257149
20	0xbe1b40a5	-0.15161379
21	0x3e8ad64d	0.27116624
22	0xbc593941	-0.013258279
23	0xbe2b84e6	-0.16749915
24	0x3e108369	0.14112629
25	0xbe272640	-0.16323185
26	0xbe16c064	-0.14721829
27	0xbc953211	-0.01821235
28	0xbde4d88d	-0.11174116
29	0xbe6100b8	-0.2197293
30	0x3e717c87	0.2358266
31	0x3d0c3002	0.03422547
32	0x3e5fe51f	0.21864747
33	0xbb57225d	-0.0032826879
34	0xbc8aa0ff	-0.016922472
35	0x3d976bc4	0.073936015
36	0xbe028fe7	-0.12750207
37	0x3e1e20cc	0.15442199
38	0xbe95912a	-0.29212314
39	0x3d4b461a	0.0496274
40	0xbe533f8f	-0.20629714
41	0xbe094b05	-0.13407524
42	0xbe438e6f	-0.19097303
43	0x3e63e16b	0.22253959
44	0xbe619576	-0.22029671
45	0xbe928a62	-0.28621203
46	0x3dbe8247	0.09302192
47	0xbe242f0a	-0.16033569
48	0xbe149af6	-0.14512238
49	0xbe8d8584	-0.27640927
50	0x3e9206aa	0.2852071
51	0xbd7fc8f5	-0.062447507
52	0x3d6e167d	0.058126915
53	0xbdac01b6	-0.08398764
54	0xbdeb8b66	-0.115011975
55	0x3e6947fe	0.22781369
56	0xbe4c4aa5	-0.1995035
57	0x3e1c1e2b	0.15245883
58	0xbe174ea6	-0.14776096
59	0xbe996d9f	-0.29966447
60	0x3d8eb316	0.06967752
61	0xbece3d65	-0.40281215
62	0xbce10513	-0.02746824
63	0xbe803943	-0.25043687
64	0x3d579d20	0.05264008
65	0x3d628e67	0.055311587
66	0x3ec774ea	0.38956386
67	0x3b26e9bf	0.0025468913
68	0xbd91ddf1	-0.0712241
69	0xbd981c20	-0.074272394
70	0x3dc4bb90	0.09606087
71	0x3eb93a65	0.36177364
72	0xbc0da318	-0.008644842
73	0xbe22e061	-0.15905906
74	0x3e08f7ce	0.1337578
75	0xbe900684	-0.2812997
76	0x3e093122	0.13397649
77	0x3d968036	0.07348673
78	0xbedbb192	-0.42908913
79	0x3e574de4	0.21025807
80	0xbe351112	-0.17682293
81	0xbe4a5e37	-0.19762503
82	0x3dbd3671	0.092388995
83	0xbd98b73c	-0.07456824
84	0xbc37e09b	-0.011222984
85	0xbe39d0bb	-0.1814603
86	0xbe4d32f2	-0.20038965
87	0xbe0d1082	-0.13775828
88	0x3d1f69a6	0.038919114
89	0xbe9309e5	-0.28718486
90	0xbe8ff4bd	-0.28116408
91	0xbd51403a	-0.05108664
92	0xbe1a517b	-0.15070145
93	0xbb2cc128	-0.0026360247
94	0xbe823d9c	-0.2543763
95	0xbb4858be	-0.0030570473
96	0xbebdcfe7	-0.3707268
97	0x3ccff16e	0.025383677
98	0x3d05f2fd	0.032702435
99	0xbebd1827	-0.3693249
100	0xbdd80dcd	-0.10549507
101	0x3f14bedf	0.58103746
102	0xbdc868a3	-0.09785583
103	0xbd7f1351	-0.06227428
104	0xbe844c45	-0.2583944
105	0xbe8b02e9	-0.27150658
106	0xbe0b1334	-0.13581544
107	0x3e255790	0.16146684
108	0x3bc70cad	0.006074509
109	0x3d6572ff	0.056017872
110	0x3dedb43c	0.116066426
111	0xbe0259ac	-0.1272952
112	0xbe5dd854	-0.21664554
113	0xbec9dbbe	-0.39425462
114	0xbe9bdf86	-0.30443972
115	0x3e9d00ba	0.30664617
116	0x3dce2a5e	0.10066675
117	0xbe06202c	-0.1309821
118	0xbe9e0be1	-0.30868438
119	0xbea4913d	-0.32142058
120	0xbe8709d4	-0.26374686
121	0xbd85c048	-0.06530815
122	0xbe51dab1	-0.2049358
123	0xbe92cac7	-0.28670332
124	0x3cd464e1	0.025927009
125	0xbda74c61	-0.08168865
126	0xbd944d70	-0.072413325
127	0xbb65eabe	-0.0035082544

linear2.weight f4 [64, 128]
0	0xbcc81a6c	-0.024426661
1	0xbd50af25	-0.05094828
2	0x3d936399	0.07196731
3	0x3ce3bde0	0.0278005
4	0xbd785ebb	-0.060637217
5	0xbe012892	-0.12613133
6	0xbe124a82	-0.14286235
7	0xbca8f8c0	-0.020626426
8	0x3bb15620	0.005411878
9	0xbd278c50	-0.040905297
10	0x3d333a06	0.043756507
11	0xbd67d965	-0.056603808
12	0x3d88a2c1	0.06671668
13	0xbd9b809a	-0.07592888
14	0xbd6ad164	-0.057328597
15	0xbd458584	-0.048223034
16	0xbd2de952	-0.04245884
17	0x3cacad04	0.021078594
18	0x3d64174a	0.055686273
19	0xbd99ba70	-0.07506263
20	0xbcf8977a	-0.030345667
21	0xbd5b35b6	-0.05351802
22	0xbc90c624	-0.017672606
23	0x3d6c679e	0.057716005
24	0xbde67d5e	-0.11254381
25	0x3d1be60a	0.03806118
26	0x3c02fb88	0.00799454
27	0x3db3b041	0.08773852
28	0xbd6fc073	-0.058533143
29	0x3cf9c81c	0.030490927
30	0xbdbf1880	-0.09330845
31	0xbcf0c4a4	-0.02939064
32	0xbdab77e4	-0.08372477
33	0x3c03ff18	0.008056425
34	0x3d7f4cae	0.062328987
35	0x3cdb52b4	0.026772834
36	0x3d312b42	0.043254144
37	0x3d518d3a	0.051160075
38	0xbca54d94	-0.020178594
39	0x3d692506	0.056920074
40	0xbdc78944	-0.09742978
41	0xbbf9fff0	-0.007629387
42	0xbb9fa600	-0.0048720837
43	0x3cd5c0b0	0.026092857
44	0x3d949ea7	0.07256823
45	0x3d45a0d6	0.04824909
46	0x3c8c4710	0.017123729
47	0xbd9bf066	-0.07614212
48	0xbd859172	-0.06521882
49	0x3dad3c6b	0.084587894
50	0xbd79d5fa	-0.06099508
51	0xbd7885ae	-0.060674362
52	0xbd226562	-0.039647467
53	0x3d2e4c9c	0.04255353
54	0xbd78367e	-0.060598843
55	0xbd05b2bb	-0.032641154
56	0x3c213be8	0.009840943
57	0xbd2609e0	-0.04053676
58	0xbaa1be00	-0.001233995
59	0x3d97e3cf	0.07416498
60	0xbd2c3c51	-0.04204971
61	0x3c8a27e0	0.016864717
62	0x3cc089ec	0.023503266
63	0x3db3f3ab	0.0878671
64	0xbd5e876d	-0.05432837
65	0xbd8b9aa1	-0.068166025
66	0xbd3b9c05	-0.04580309
67	0xbd726893	-0.05918176
68	0x3d13fe74	0.036131337
69	0xbcd94286	-0.026520979
70	0x3d92ecd5	0.071740784
71	0xbd971141	-0.07376338
72	0xbe00913f	-0.12555407
73	0xbd0244b4	-0.0318038
74	0xbdc828b6	-0.0977339
75	0xbc5ef6f0	-0.013608679
76	0x3cf04f88	0.029334798
77	0xbd1404d6	-0.036137424
78	0x3d7307fa	0.05933378
79	0xbcdabe64	-0.026702113
80	0xbcffb0ac	-0.031212173
81	0x3d047f94	0.03234823
82	0xbd5ed5b2	-0.054403014
83	0x3d86bceb	0.06579002
84	0x3da0a861	0.07844616
85	0xbd61c85b	-0.055122714
86	0xbcd5e14a	-0.026108403
87	0xbcdf4514	-0.027254619
88	0x3d5c25c7	0.053746965
89	0x3d88d9db	0.06682178
90	0x3c142330	0.0090415925
91	0xbd7b9f65	-0.061431307
92	0x3d009fb2	0.031402297
93	0xbe1dd2d1	-0.15412451
94	0xbd92ce04	-0.071682006
95	0xbd1096f9	-0.03530023
96	0x3b135560	0.0022481307
97	0x3d5bfbd2	0.05370695
98	0xbb05fe38	-0.0020445716
99	0xbd9dd612	-0.07706846
100	0x3c1c874c	0.009553742
101	0x3c2468b0	0.010034725
102	0x3c7c6f30	0.015407369
103	0xbd6fc6be	-0.058539145
104	0xbd85273b	-0.06501623
105	0xbb817000	-0.003950119
106	0x3d8c6c81	0.06856633
107	0xbd98cc12	-0.07460798
108	0xbdb2847e	-0.08716677
109	0xbda6aa0f	-0.08137905
110	0xbdc23307	-0.09482389
111	0xbd60a3e9	-0.054843817
112	0x3d920375	0.071295656
113	0x3d346ce2	0.04404915
114	0xbcb639e4	-0.022244401
115	0x3d0daaf4	0.03458686
116	0xbd095044	-0.033523813
117	0x3d9fe96d	0.07808194
118	0xbc75fe88	-0.015014298
119	0x3d4f6dba	0.050641753
120	0x3b09fca0	0.0021055117
121	0xbc5296c8	-0.012853332
122	0x3d64dcce	0.05587464
123	0x39cae100	0.0003869608
124	0xbdbcd96a	-0.09221156
125	0x3c0b9241	0.008518756
126	0x3cd3b2f4	0.025842167
127	0xbd82924a	-0.06375559
128	0xbd91a652	-0.07111801
129	0x3d7fca4e	0.062448792
130	0xbd3ef11c	-0.04661666
131	0xbe095273	-0.13410358
132	0xbb09c002	-0.0021018987
133	0xbbe20dbb	-0.0068986095
134	0xbe113ad6	-0.141826
135	0xbd3f7a5e	-0.046747558
136	0x3d26f820	0.040763974
137	0x3ab814ef	0.0014044325
138	0xbdddc4f4	-0.108285815
139	0xbdb2087b	-0.08693024
140	0xbd48d1b0	-0.0490281
141	0x3ded891c	0.11598417
142	0x3e030b72	0.12797335
143	0x3d4b75c4	0.049672857
144	0x3d9487d4	0.0725247
145	0x3d8bbcdf	0.06823134
146	0xbe1b6fdb	-0.15179388
147	0x3d0a676b	0.033790033
148	0xbcf2023e	-0.029542085
149	0xbe778c5c	-0.24174637
150	0x3de93d2b	0.1138862
151	0x3d721d06	0.05910971
152	0x3d1cec6c	0.038311407
153	0x3e1860fd	0.14880748
154	0xbcd60fcd	-0.026130581
155	0x3d90dd35	0.07073442
156	0xbcdf91aa	-0.027291138
157	0x3cc1f334	0.023675539
158	0xbe0c907b	-0.1372699
159	0xbde591ce	-0.11209451
160	0xbc819083	-0.015815979
161	0x3c1b2670	0.009469613
162	0x3dbcab4b	0.09212359
163	0x3d3ed739	0.04659197
164	0xbd946d86	-0.072474524
165	0x3d476584	0.048680797
166	0x3d38feba	0.0451648
167	0xbd94d0e4	-0.07266405
168	0xbc62fa5c	-0.013853636
169	0xbe1c8b43	-0.15287499
170	0x3d7200d2	0.059082814
171	0xbd2eee49	-0.042707715
172	0x3d37f522	0.04491151
173	0xbcf7148e	-0.030161168
174	0x3c4cac1b	0.012492205
175	0x3c66fe48	0.014098711
176	0xbc2afead	-0.010436696
177	0x3d6072b6	0.054796897
178	0xbdac2671	-0.084057696
179	0xbe18680d	-0.14883442
180	0xbd00bd37	-0.03143045
181	0xbdfc7aff	-0.12328147
182	0xbcaa289d	-0.020771319
183	0x3cc20911	0.023685964
184	0xbdad5329	-0.08463127
185	0xbc8cdb6e	-0.017194476
186	0x3d20034a	0.039065637
187	0xbda83e00	-0.082149506
188	0xbe01597f	-0.12631796
189	0xbd001444	-0.031269327
190	0x3d4e5f11	0.05038363
191	0x3dd973ec	0.106178135
192	0x3e29f6f1	0.16598107
193	0xbb1c1c2f	-0.002382051
194	0xbd952eec	-0.0728434
195	0xbcfa922b	-0.030587276
196	0x3daefc6e	0.08544241
197	0xbcae8d2b	-0.021307549
198	0xbd51784d	-0.05114012
199	0x3db8e090	0.09027207
200	0xbc38e1a0	-0.011284262
201	0x3ce515ce	0.027964499
202	0xbdd07436	-0.101784155
203	0xbd16d8e2	-0.03682793
204	0xbdfffd5a	-0.12499495
205	0xbc013008	-0.007884987
206	0xbdd95e1e	-0.106136546
207	0xbdd3d2bf	-0.10342931
208	0xbd917bcb	-0.0710369
209	0x3cc348e6	0.023838472
210	0xbd76d982	-0.060266025
211	0x3cf71484	0.03016115
212	0x3c889816	0.016674083
213	0x3c8d19f8	0.017224297
214	0xbcd989be	-0.026554938
215	0xbbe56bc0	-0.00700137
216	0xbcecd226	-0.0289088
217	0x3e069e23	0.13146262
218	0x3d5474f5	0.05186935
219	0xbd21542f	-0.039386924
220	0x3d483b6d	0.048884798
221	0xbd831148	-0.063997805
222	0x3d8a41cf	0.06750833
223	0x3d1a7ff7	0.037719693
224	0xbdf47c73	-0.11937799
225	0xbd778b1e	-0.060435407
226	0x3d31848b	0.043339293
227	0xbd3cc6cd	-0.04608803
228	0xbe27148b	-0.1631643
229	0x3d2ec972	0.042672582
230	0xbd5433b8	-0.051807135
231	0xbdc150f2	-0.09439267
232	0xbd9b9502	-0.0759678
233	0xbcf000fa	-0.02929734
234	0x3d843811	0.06456006
235	0x3d3beb0c	0.045878455
236	0xbd2239f6	-0.039606057
237	0x3b8d1c35	0.004306341
238	0xbe76da7e	-0.24106786
239	0xbcefb3e3	-0.029260581
240	0x3d989c35	0.07451669
241	0x3dd7bdda	0.10534258
242	0xbd559093	-0.05213983
243	0x3da7c6c9	0.08192212
244	0x3b876d93	0.0041329353
245	0xbd377538	-0.044789523
246	0xbd2378cf	-0.039910134
247	0x3d128fab	0.035781544
248	0x3cb66608	0.02226545
249	0xbdfa3381	-0.12216855
250	0xbd03e3d7	-0.032199707
251	0xbc9b0386	-0.018922579
252	0xbd6dfbca	-0.058101453
253	0xbd169c61	-0.03677023
254	0xbb814d0e	-0.003945953
255	0xbc8f7006	-0.017509472

linear2.bias f4 [64]
0	0xbcd28fbb	-0.025703302
1	0xbe5e00c7	-0.21679984
2	0xbe17eb10	-0.14835763
3	0xbc4602e2	-0.012085648
4	0xbe577bff	-0.21043395
5	0xbbe19128	-0.006883759
6	0xbe217eb3	-0.15770988
7	0xbd291439	-0.04127905
8	0xbdb41eb3	-0.08794918
9	0xbdcdb5ca	-0.10044439
10	0xbce2e5d0	-0.027697474
11	0xbdeecaf6	-0.116598055
12	0xbd312a9d	-0.04325353
13	0xbd467b18	-0.048457235
14	0xbd412c81	-0.047161583
15	0xbd9e476f	-0.077284686
16	0xbd6f4109	-0.05841163
17	0xbe0d4a19	-0.13797797
18	0x3eadf52b	0.3397611
19	0xbdc341ff	-0.09534072
20	0xbc99fbbc	-0.018796794
21	0xbcec33f7	-0.028833373
22	0xbd99930d	-0.07498751
23	0xbd2f82b1	-0.042849246
24	0xbd858f4a	-0.06521471
25	0xbd383902	-0.044976242
26	0xbca07b46	-0.019590031
27	0xbdf2d98c	-0.118579
28	0xbd927a0a	-0.07152183
29	0xbe0ee9e6	-0.13956413
30	0xbd5ffb89	-0.054683242
31	0xbd3b9936	-0.04580041
32	0xbde7cb77	-0.11318105
33	0xbdfd05ca	-0.1235462
34	0xbdbb7d17	-0.09154718
35	0xbded6ec1	-0.1159339
36	0xbdb4b296	-0.08823125
37	0xbd4686ea	-0.048468508
38	0x3cae9aeb	0.021314105
39	0x3cd43c7e	0.025907751
40	0xbde412e7	-0.11136418
41	0xbde2953e	-0.11063622
42	0xbd6e06b9	-0.05811188
43	0xbdb12ffe	-0.08651732
44	0xbdeb9b17	-0.115041904
45	0xbe08365b	-0.13301985
46	0xbd444127	-0.047913697
47	0x3e08f40e	0.1337435
48	0xbd767849	-0.060173307
49	0x3df604b2	0.12012614
50	0xbe5704f1	-0.20997979
51	0xbd21e23b	-0.03952239
52	0xbdeaab4b	-0.11458453
53	0xbda7fb45	-0.08202223
54	0xbd85f3e4	-0.06540659
55	0xbdbc3216	-0.09189241
56	0xbdd238f7	-0.102647714
57	0xbe085335	-0.13312991
58	0x3b19459f	0.0023387445
59	0xbd7ab430	-0.061206996
60	0xbc749515	-0.014928122
61	0xbe0212e3	-0.12702517
62	0xbdd9e0a2	-0.106385484
63	0xbd2a6db3	-0.041608524

linear3.weight f4 [3, 64]
0	0xbdfbec6e	-0.12300955
1	0x3d1e5ff6	0.038665734
2	0x3c4d7c49	0.012541839
3	0x3d020bd6	0.03174957
4	0xbce40609	-0.027834909
5	0xbc5feb96	-0.013667008
6	0xbd7eb0e9	-0.062180433
7	0x3d03f2db	0.032214027
8	0xbc87451e	-0.01651245
9	0x3d18d8b2	0.03731603
10	0x3dcb93ac	0.099402755
11	0xbdb1d9fb	-0.086841546
12	0xbca5c778	-0.020236716
13	0xbcc90f58	-0.02454345
14	0xbcb2097e	-0.021733042
15	0xbb7d80b2	-0.0038681445
16	0x3cde3d25	0.027128765
17	0xb8b44b01	-8.5970394e-05
18	0xbe997822	-0.29974467
19	0xbd614475	-0.054996926
20	0x3d32799b	0.043573003
21	0xbda7738b	-0.08176335
22	0x3d8f7df3	0.07006445
23	0xbdacd389	-0.08438785
24	0xbd26452e	-0.04059332
25	0xbc362aae	-0.011118574
26	0x3c313c4b	0.010817598
27	0x3bb8382d	0.005621931
28	0xbddd7fcc	-0.10815391
29	0xbd5d8abb	-0.05408738
30	0xbd741db5	-0.059598643
31	0x3a54dc5e	0.00081199955
32	0xbd4db8b4	-0.050224975
33	0x3d8524b2	0.0650114
34	0xbe200d99	-0.15630187
35	0xbd3ef61f	-0.046621438
36	0x3e445542	0.19173148
37	0xbd7aea48	-0.061258584
38	0x3dd467a0	0.103713274
39	0xbdc97d99	-0.09838409
40	0xbdc8bd37	-0.09801715
41	0x3dee1772	0.116255656
42	0x3c7ce553	0.0154355345
43	0xbceabc61	-0.02865428
44	0xbb409e36	-0.0029391176
45	0xbd6cef20	-0.057845235
46	0xbd7a9cc0	-0.061184645
47	0x3e8cefa9	0.27526596
48	0xbd85b4b2	-0.065286055
49	0x3e534e07	0.20635234
50	0x3ca8896f	0.020573346
51	0x3e1a6142	0.15076163
52	0xbdb31050	-0.08743346
53	0x3d828639	0.06373257
54	0xbcc4c96a	-0.024021823
55	0xbd334e99	-0.04377613
56	0x3d2a540d	0.041584063
57	0xbdcb5b9a	-0.09929581
58	0x3c548c63	0.012972924
59	0x3d3d95f8	0.0462856
60	0xbcf88153	-0.030335104
61	0x3d411876	0.04714247
62	0xbdb0965a	-0.08622427
63	0x3dca39c0	0.09874296
64	0xbd2949f2	-0.041330285
65	0xbd24015c	-0.04004036
66	0xbd93a8b2	-0.072099105
67	0xbcd82272	-0.026383612
68	0x3dfcb119	0.12338466
69	0xbd2f8138	-0.042847842
70	0xbe269283	-0.16266827
71	0x3bff43db	0.0077900714
72	0xbd7cdef2	-0.061736055
73	0xbc9670b2	-0.018364284
74	0x3e99ffce	0.30077976
75	0xbb3b9651	-0.002862353
76	0x3db29676	0.087201044
77	0xbd8563b3	-0.06513157
78	0x3d94737d	0.0724859
79	0xbc90e605	-0.017687807
80	0xbdb63cf6	-0.08898346
81	0xbcd8355e	-0.026392635
82	0xbe4182b8	-0.18897521
83	0x3e3f5dee	0.18688175
84	0xbd9cb534	-0.07651749
85	0x3d3f11a5	0.046647687
86	0xba8679ed	-0.0010259725
87	0x3d5449e8	0.051828295
88	0x3e31f204	0.17377478
89	0xbd2c79d4	-0.04210837
90	0x3d3e3775	0.046439607
91	0x3dc3e0fd	0.095643975
92	0x3da07a16	0.07835786
93	0x3e23a34e	0.15980265
94	0x3c33c2f8	0.010971777
95	0x3d451c3c	0.04812263
96	0xbc9f4d0d	-0.01944592
97	0x3d9693b0	0.07352388
98	0x3d119eb1	0.03555173
99	0xbd0307b0	-0.031989753
100	0x3db67400	0.08908844
101	0xbc78a670	-0.015176401
102	0x3dca204c	0.098694414
103	0xbdd1b35e	-0.1023929
104	0x3d299904	0.041405693
105	0xbd4b683e	-0.04965996
106	0x3be572a9	0.007002194
107	0x3dc6bc0a	0.09703834
108	0xbde0ea7e	-0.10982226
109	0xbcffcba0	-0.031225026
110	0xbdfd1950	-0.123583436
111	0x3e64bb24	0.22337013
112	0x3dadb4ba	0.084817365
113	0x3f05c1e8	0.52249
114	0x3e03aad1	0.1285813
115	0x3cb5d7a2	0.022197548
116	0xbd91c46f	-0.07117545
117	0x3c050530	0.008118913
118	0x3c3d0a74	0.011538137
119	0x3c639383	0.01389015
120	0x3ddf9e5e	0.10918878
121	0x3d9b6c5b	0.075890265
122	0xbdadf04b	-0.08493098
123	0xbb9961ff	-0.0046808715
124	0x3e15d1d7	0.14630829
125	0x3d6684b4	0.0562789
126	0xbd18046a	-0.037113585
127	0x3d7d65f5	0.061864812
128	0xbd03fcbb	-0.032223444
129	0x3cf6fc68	0.030149654
130	0x3d736020	0.059417844
131	0x3d5d3fc3	0.054015886
132	0x3e4204bd	0.1894712
133	0x3d668aa8	0.056284577
134	0xbd0fae95	-0.035078604
135	0x3d57acee	0.052655153
136	0x3d2a20cf	0.041535195
137	0xbd5b1145	-0.053483266
138	0x3da9ed3d	0.08297203
139	0x3be9f50c	0.0071398076
140	0x3dd27118	0.10275477
141	0xbdb6be1a	-0.08922978
142	0x3c4042c2	0.011734666
143	0x3d13ecc9	0.036114488
144	0x3cbdd495	0.023172656
145	0xbe4c5d3a	-0.19957438
146	0xbe883d50	-0.26609278
147	0xbd8c87b8	-0.06861824
148	0x3ccefcfe	0.02526712
149	0xbc395d94	-0.011313815
150	0xbd40266b	-0.04691164
151	0xbd1be0da	-0.038056232
152	0x3d0962d7	0.033541527
153	0xbcae9ff0	-0.021316499
154	0x3d0b6b34	0.034037784
155	0xbd738632	-0.05945415
156	0x3dc011c4	0.093783885
157	0xbe08de48	-0.13366044
158	0x3bb74bfa	0.005593774
159	0x3c7d7d60	0.015471786
160	0xbdae8ffc	-0.085235566
161	0xbd5fc43f	-0.054630514
162	0x3be1c758	0.0068902187
163	0xbdd2df8a	-0.10296543
164	0x3d343e65	0.044004817
165	0x3cece278	0.028916582
166	0x3e031e0c	0.1280443
167	0xbd461acf	-0.04836541
168	0x3d6992d3	0.057024788
169	0xbd18b710	-0.037283957
170	0x3c9a65db	0.018847397
171	0x3dae1c02	0.08501436
172	0x3d80bb77	0.06285756
173	0xbd132493	-0.03592355
174	0xbdfd2850	-0.123612046
175	0x3e257125	0.16156442
176	0x3c83bd70	0.016081542
177	0x3d838e4e	0.06423627
178	0xbc9f82b8	-0.019471511
179	0xbd4f22a4	-0.050570145
180	0x394c4c00	0.00019483268
181	0x3ddf1eb3	0.10894527
182	0x3d952402	0.072822586
183	0x3c8d76bd	0.017268533
184	0xb9ecce00	-0.0004516691
185	0x3d62c274	0.055361226
186	0xbda6ba48	-0.08140999
187	0x3cfe5733	0.03104744
188	0xbd72e620	-0.059301496
189	0xbdb4db1f	-0.088308565
190	0x3bd2a140	0.006427914
191	0xbce0fafe	-0.027463432

linear3.bias f4 [3]
0	0x3c18d470	0.009327993
1	0xbe84c3ca	-0.25930625
2	0xbe512ce4	-0.2042728
