model_backup_30.pth (torch, 42263 bytes, 6 tensors)

linear1.weight f4 [128, 11]
00000000: 6563 21be d394 26be ac46 47be 503b 373d
00000010: edb0 c43d bb4e 033d 43fc 48be 57ea 803d
00000020: 9c8b 0c3e ea8f 4dbe 8ee5 85be 24b5 fd3d
00000030: f438 893d dc8a 3dbe 5463 2abe 8af9 35be
00000040: 892e 5fbe 4420 94be 0622 a5bd 0491 72bd
00000050: a186 85be da5e 47be e41b 58be bcac a93d
00000060: e072 1ebd 5a25 3c3e c986 a2bd ee3c f0bd
00000070: 2233 84be b5f4 123d f4e1 81bd 4068 febd
00000080: 9fec b7be ecb5 86be c217 03bf dd68 ee3c
00000090: c1d2 e53d 89ce b23d 4781 89be 5963 843e
000000a0: b78b 903d ec97 8cbe 4d9e bdbe ab85 023e
000000b0: 6817 723e df54 933d bc6f 92be 642f 5c3d
000000c0: e4a8 e7bd 8fc3 e2bd 8a27 3fbe 8a65 cc3a
000000d0: f4f7 923c 980c 97be 938c fbbe 7c25 40be
000000e0: c5a5 8fbe a03a e3bd f201 68be 8230 b8bd
000000f0: e8d5 c3bc a2fc 33be 7eaa cebd 4356 17be
00000100: d619 8abd 48e6 33be 1f18 e13c 3ea9 cf3d
00000110: 975a 833d e516 7c3e 1940 04be 7a84 d7bd
00000120: 86d0 a4bd 2aa6 503e 1106 c03e fa92 943d
00000130: cda3 03bc 90ae a93d 015b 1abe 7839 e33d
00000140: 0aa0 b2bd 15de 923d e3dd 8bbe 409b 50bd
00000150: 7b85 3fbe 9a23 5b3c dbc1 b63c e272 09bd
00000160: a67b 47be c0fc d6bb 181f 643d 9908 f63d
00000170: b06c a7bd 2eae 1ebe 9e12 8ebd db15 7c3c
00000180: d95b 0abe 32cb 78be 7568 aabe 7491 723d
00000190: 9ce2 a23e 59f7 ffbd 933a c73d 26a8 233e
000001a0: f997 d13d 5c3f 173e e60e 083e 5abf 923a
000001b0: 9b8c b23d 958f 8b3d e1e6 c03e ab62 83be
000001c0: 8991 95be e087 ff3d 3cc3 f93d 1e4c 80be
000001d0: 4593 a23e 5717 bebe ff0e 6ebe 6635 ae3c
000001e0: 77fc acbe 6c79 6ebd a070 b1bd 7ca8 2ebe
000001f0: 3a9f 063e 0dac 0fbe 742b 8abe f6b2 02be
00000200: c064 903c 0250 0f3e 3752 09bd 8b00 7d3d
00000210: 9f75 87be 6e33 b5bd 1f0d 1bbe 60f7 f13c
00000220: ac7e fc3d 4496 723e 4785 43be 7ce2 63be
00000230: a85d 90be c9ef 90be 36d2 6dbe d3c2 9c3e
00000240: 30a9 30be 71de 02be 7af9 4c3e 0983 8bbe
00000250: 279f 473d e07a 983e b19d 88bd f1e2 75bd
00000260: b327 75bd 6150 59be 5eaf 343e 8e92 0a3e
00000270: 84e2 8fbe 283f b03d 5165 803d d86b 37be
00000280: b395 2fbe 8588 cabc a3f2 b8bd 663d de3d
00000290: 919d d93c 084a 7e3e 5cb5 b2bd 6f3c c03e
000002a0: a646 f7bd 1699 9b3e 86bd 3d3e c889 383d
000002b0: 4b6c 9bbe bdd6 a4be 45f1 90be 4d3a c0be
000002c0: dfc4 1a3d ea98 aa3d 0a79 1e3e c3ee 7f3d
000002d0: 8ac5 01bd e7f6 29ba 9a50 d83e 5c45 21bc
000002e0: 9620 6c3d 9539 e13b 3c82 24bf 71a9 a93e
000002f0: 5468 66be 776c 75be 4a45 28be 4d26 4f3e
00000300: 85a2 d7bd 341c fc3d 9b1c d33d 9b58 d1be
00000310: 28f5 db3d f408 c4be c08b a1bd 946f 0fbe
00000320: b59e 923d 429e 8b3e 682e c43d c1a2 103e
00000330: 05a3 88be 6061 c3bc ebb6 95bd 8aa7 65be
00000340: fb02 42be c07c fa3d 82d2 8bbe 9803 5cbe
00000350: 6e60 3c3d 5cca b03d 607b 773d 0098 983b
00000360: 2e86 4fbd 80ed a1bc 7705 31be a4e1 32be
00000370: 99ef 56be 3aee 873e 2b2c 4cbb b194 8abd
00000380: 64a5 8dbe eec7 053d c9cf 063e 42b3 96be
00000390: ccb1 f13d 120b fb3c 4adc a1be 33d8 ab3e
000003a0: e146 683e ac1b fbbd fe94 12bc ded9 b3be
000003b0: 4992 6a3d 1abd c73c 3e50 653e 3778 7bbd
000003c0: d2e0 dabe aa4d 213e 5785 98bd c04b 45bd
000003d0: d0f8 b9bc b484 87bd 808b 7ebd 66de 85be
000003e0: 0029 8cba 7fb6 29bd a149 8abd 3b79 65be
000003f0: aa4c 54be b1c6 2bbc 92e7 6abe 1d07 c6be
-0.15760572 -0.1626771 -0.19460553 0.0447343 0.096040584 0.032057505 -0.1962748 0.06294697
0.13725132 -0.2007443 -0.261517 0.123880655 0.06700316 -0.18510002 -0.16639453 -0.17770973
-0.21795096 -0.28930867 -0.0806313 -0.05922033 -0.26079276 -0.19469777 -0.2110439 0.082848996
-0.038683772 0.18373623 -0.079358645 -0.117303714 -0.2582026 0.035877902 -0.06341925 -0.12422228
-0.35922715 -0.2631067 -0.51208127 0.029102737 0.11221839 0.087308 -0.26856443 0.25857046
0.070578985 -0.27459657 -0.37034836 0.12746303 0.23641741 0.07193922 -0.28600872 0.053756133
-0.1131151 -0.11072456 -0.18667427 0.0015594226 0.017940499 -0.29501796 -0.49130687 -0.18764299
-0.2805616 -0.11095166 -0.22656992 -0.08993627 -0.02390571 -0.1757684 -0.100911126 -0.14779
-0.06743209 -0.17568314 0.027477322 0.10139702 0.06413763 0.24618109 -0.12915076 -0.10523315
-0.08047585 0.20375887 0.37504628 0.07254596 -0.008034659 0.08285248 -0.15073778 0.11094946
-0.08721931 0.07171265 -0.27317724 -0.050929308 -0.18703263 0.013375187 0.022309234 -0.033556826
-0.19480762 -0.006560892 0.055693716 0.120133586 -0.08175027 -0.15496132 -0.06937145 0.01538607
-0.135116 -0.24296263 -0.3328282 0.059220746 0.31813514 -0.1249835 0.09727969 0.15982112
0.102340646 0.14770263 0.13286933 0.0011195943 0.087182246 0.068144955 0.37676147 -0.25661215
-0.29212597 0.12477088 0.12195441 -0.25058073 0.31752983 -0.37127182 -0.23247908 0.021265697
-0.33786365 -0.058221266 -0.0866406 -0.17056459 0.13146678 -0.14030476 -0.26986277 -0.1276358
0.017626166 0.13995364 -0.03352567 0.061768096 -0.26456925 -0.088477 -0.15141724 0.029536903
0.12328848 0.23690134 -0.1909381 -0.22254366 -0.28196454 -0.28307942 -0.2322472 0.3061739
-0.1725204 -0.12780167 0.20017043 -0.2724841 0.048735764 0.29781246 -0.06670702 -0.06003088
-0.059852313 -0.21222068 0.17645022 0.13532469 -0.28102505 0.08605796 0.062693246 -0.17912233
-0.1714695 -0.0247233 -0.09030654 0.108515546 0.026564391 0.24832928 -0.08725998 0.37546107
-0.12074022 0.30390233 0.18529329 0.045053273 -0.30356058 -0.32195082 -0.28309074 -0.3754448
0.037785407 0.08329947 0.1547586 0.06248356 -0.03168253 -0.00064836297 0.42248994 -0.009843197
0.057648264 0.0068733194 -0.6426122 0.33137086 -0.22500736 -0.23967157 -0.16432682 0.20229454
-0.10529045 0.12310067 0.103081904 -0.40887913 0.10740119 -0.3828808 -0.07887983 -0.14007407
0.07159177 0.2726918 0.09579164 0.14124586 -0.26686874 -0.023850143 -0.073102795 -0.22427192
-0.1894645 0.122308254 -0.27309042 -0.21485746 0.0459904 0.08632347 0.060420394 0.0046567917
-0.050665073 -0.01976657 -0.17287241 -0.17468888 -0.20989837 0.2654894 -0.0031154256 -0.06766642
-0.27665246 0.03266137 0.13165201 -0.29433638 0.1180149 0.030644927 -0.3161338 0.33563384
0.22683288 -0.12261137 -0.008946655 -0.35127157 0.057268415 0.024382163 0.22393891 -0.061393943
-0.4274965 0.15752283 -0.074473076 -0.048167944 -0.02270165 -0.06617108 -0.062144756 -0.2614624
-0.0010693371 -0.041433807 -0.06752325 -0.22409527 -0.2073237 -0.010484383 -0.229399 -0.38677302

linear1.bias f4 [128]
00000000: ee3f 74be 8a37 1fbe 1c93 89be 0730 19be
00000010: 3b5c 1abe 487b d1bd d99b 9b3e aa78 77be
00000020: 662d 6bbe dff7 273d 3089 3bbe 4674 dcbe
00000030: 6131 d3bd 5827 5b3e 6533 d5be 8976 a2bd
00000040: 7b83 983e e97f 0cbe a28e 81be ba51 8abe
00000050: 37e1 8bbe 9952 b13e 893c 1cbe 115c 49be
00000060: 2196 6c3e 85c3 9dbe 4950 57be 0383 e5bd
00000070: 3a54 71be b800 61be f7a4 a53e 0012 50bd
00000080: 0263 813e 02f8 02be 5dce bcbd 7f36 b7bd
00000090: deb8 6dbe b1fb c9bc da75 93be 9abd 2abe
000000a0: f27c c8be e07f 99be b445 80be 430c 933e
000000b0: 14a5 91be e24a 0ebe 2d50 3dbd 0a2f 24be
000000c0: 9da5 0cbe acc6 bfbe 5e44 9f3e 0e8e 2fbe
000000d0: efa9 6c3d 4aff 673b 11e1 1abe bf46 113e
000000e0: b7e9 c5be 2627 18be 67d6 9abe c001 91be
000000f0: 4ab0 98bc 653d cebe cc2b 36be 4339 80be
00000100: d0df 06bb 8a09 07bd 2bec d33e 32fb 99bd
00000110: 63d8 f7bd 3635 21be c124 b8bd d2e7 003f
00000120: 70f1 0abe d38c 8bbe 3b86 293c 7fbe a6be
00000130: 2132 483d 7dc4 efbd 92b1 dbbe a444 7c3e
00000140: 21d6 49be 26fb b4be d937 04be d322 7cbe
00000150: 0c2d c8bd a438 97be 65d4 51be af59 aabe
00000160: 2032 75bd e509 93be c6d1 aabe 2914 87be
00000170: bdd5 c8bd fa8a b6bd 04c0 9ebe 3a5a 09be
00000180: 53a2 ddbe 6405 e2bd fdf2 053d 9d08 fcbe
00000190: d53c 3abe 557a 303f bf80 84be 4b99 6fbe
000001a0: fc44 8ebe 6e67 b4be 9cb1 70be 4089 d93d
000001b0: d280 b53c 883b 833d d7d5 903c 451e 5dbe
000001c0: eee2 a8be 5859 c7be b34c bbbe 1707 163e
000001d0: f58f 863d 228b 28be d3c0 d0be 3d91 a4be
000001e0: 09d0 86be 48c0 85bd b1da 51be c7ca 92be
000001f0: e164 d43c 93ba 39be 8e3b dd3c beea 65bb
-0.23852512 -0.1554853 -0.26870048 -0.14959727 -0.15074246 -0.10228592 0.3039234 -0.24167123
-0.22966537 0.041007873 -0.18314052 -0.4305746 -0.10312153 0.21401727 -0.41640773 -0.07932765
0.29787812 -0.13720669 -0.25304133 -0.27015477 -0.27320263 0.3463333 -0.15257467 -0.19664027
0.23104145 -0.30813232 -0.2102672 -0.11206629 -0.23567286 -0.2197293 0.3235242 -0.050798416
0.2527085 -0.1278992 -0.09219048 -0.08945941 -0.23215052 -0.024656149 -0.2880085 -0.1667389
-0.39157826 -0.29980373 -0.2505318 0.28720292 -0.28446257 -0.13895753 -0.04621904 -0.16033569
-0.13735051 -0.37456262 0.31106848 -0.17144033 0.05777925 0.0035399967 -0.15124919 0.14187144
-0.38654873 -0.14858684 -0.302417 -0.28321648 -0.018638749 -0.40281215 -0.17790145 -0.25043687
-0.002058018 -0.03296808 0.4139112 -0.07518615 -0.12101819 -0.15742955 -0.08991385 0.5035373
-0.13568664 -0.27255878 0.010346944 -0.32567212 0.04887593 -0.11707399 -0.42908913 0.2463556
-0.1971059 -0.3534786 -0.12911929 -0.2462266 -0.09774217 -0.295354 -0.20491178 -0.33271548
-0.059862256 -0.28718486 -0.3336317 -0.26382568 -0.09806392 -0.089132264 -0.3100587 -0.13413325
-0.43287906 -0.110361844 0.032702435 -0.4922532 -0.18187268 0.68936664 -0.25879475 -0.2339832
-0.27787006 -0.3523516 -0.23505253 0.106218815 0.022156153 0.06407839 0.017680092 -0.21593578
-0.32985634 -0.3893535 -0.36581954 0.14651142 0.065704264 -0.16459325 -0.40772113 -0.32142058
-0.26330593 -0.06530815 -0.2049358 -0.28670332 0.025927009 -0.18137579 0.027005937 -0.0035082544

linear2.weight f4 [64, 128]
00000000: 6c1a c8bc 25af 50bd 9963 933d e0bd e33c
00000010: bb5e 78bd 9228 01be 824a 12be c0f8 a8bc
00000020: 2056 b13b 508c 27bd 063a 333d 65d9 67bd
00000030: c1a2 883d 9a80 9bbd 64d1 6abd 8485 45bd
00000040: 52e9 2dbd 04ad ac3c 4a17 643d 70ba 99bd
00000050: 7a97 f8bc b635 5bbd 24c6 90bc 9e67 6c3d
00000060: 5e7d e6bd 0ae6 1b3d 88fb 023c 41b0 b33d
00000070: 73c0 6fbd 1cc8 f93c 8018 bfbd a4c4 f0bc
00000080: e477 abbd 18ff 033c ae4c 7f3d b452 db3c
00000090: 422b 313d 3a8d 513d 944d a5bc 0625 693d
000000a0: 4489 c7bd f0ff f9bb 00a6 9fbb b0c0 d53c
000000b0: a79e 943d d6a0 453d 1047 8c3c 66f0 9bbd
000000c0: 7291 85bd 6b3c ad3d fad5 79bd ae85 78bd
000000d0: 6265 22bd 9c4c 2e3d 7e36 78bd bbb2 05bd
000000e0: e83b 213c e009 26bd 00be a1ba cfe3 973d
000000f0: 513c 2cbd e027 8a3c ec89 c03c abf3 b33d
00000100: 6d87 5ebd a19a 8bbd 059c 3bbd 9368 72bd
00000110: 74fe 133d 8642 d9bc d5ec 923d 4111 97bd
00000120: 3f91 00be b444 02bd b628 c8bd f0f6 5ebc
00000130: 884f f03c d604 14bd fa07 733d 64be dabc
00000140: acb0 ffbc 947f 043d b2d5 5ebd ebbc 863d
00000150: 61a8 a03d 5bc8 61bd 4ae1 d5bc 1445 dfbc
00000160: c725 5c3d dbd9 883d 3023 143c 659f 7bbd
00000170: b29f 003d d1d2 1dbe 04ce 92bd f996 10bd
00000180: 6055 133b d2fb 5b3d 38fe 05bb 12d6 9dbd
00000190: 4c87 1c3c b068 243c 306f 7c3c bec6 6fbd
000001a0: 3b27 85bd 0070 81bb 816c 8c3d 12cc 98bd
000001b0: 7e84 b2bd 0faa a6bd 0733 c2bd e9a3 60bd
000001c0: 7503 923d e26c 343d e439 b6bc f4aa 0d3d
000001d0: 4450 09bd 6de9 9f3d 88fe 75bc ba6d 4f3d
000001e0: a0fc 093b c896 52bc cedc 643d 00e1 ca39
000001f0: 6ad9 bcbd 4192 0b3c f4b2 d33c 4a92 82bd
00000200: 52a6 91bd 4eca 7f3d 1cf1 3ebd 7352 09be
00000210: 02c0 09bb bb0d e2bb d63a 11be 5e7a 3fbd
00000220: 20f8 263d ef14 b83a f4c4 ddbd 7b08 b2bd
00000230: b0d1 48bd 1c89 ed3d 720b 033e c475 4b3d
00000240: d487 943d dfbc 8b3d db6f 1bbe 6b67 0a3d
00000250: 3e02 f2bc 5c8c 77be 2b3d e93d 061d 723d
00000260: 6cec 1c3d fd60 183e cd0f d6bc 35dd 903d
00000270: aa91 dfbc 34f3 c13c 7b90 0cbe ce91 e5bd
00000280: 8390 81bc 7026 1b3c 4bab bc3d 39d7 3e3d
00000290: 866d 94bd 8465 473d bafe 383d e4d0 94bd
000002a0: 5cfa 62bc 438b 1cbe d200 723d 49ee 2ebd
000002b0: 22f5 373d 8e14 f7bc 1bac 4c3c 48fe 663c
000002c0: adfe 2abc b672 603d 7126 acbd 0d68 18be
000002d0: 37bd 00bd ff7a fcbd 9d28 aabc 1109 c23c
000002e0: 2953 adbd 6edb 8cbc 4a03 203d 003e a8bd
000002f0: 7f59 01be 4414 00bd 115f 4e3d ec73 d93d
00000300: f1f6 293e 2f1c 1cbb ec2e 95bd 2b92 fabc
00000310: 6efc ae3d 2b8d aebc 4d78 51bd 90e0 b83d
00000320: a0e1 38bc ce15 e53c 3674 d0bd e2d8 16bd
00000330: 5afd ffbd 0830 01bc 1e5e d9bd bfd2 d3bd
00000340: cb7b 91bd e648 c33c 82d9 76bd 8414 f73c
00000350: 1698 883c f819 8d3c be89 d9bc c06b e5bb
00000360: 26d2 ecbc 239e 063e f574 543d 2f54 21bd
00000370: 6d3b 483d 4811 83bd cf41 8a3d f77f 1a3d
00000380: 737c f4bd 1e8b 77bd 8b84 313d cdc6 3cbd
00000390: 8b14 27be 72c9 2e3d b833 54bd f250 c1bd
000003a0: 0295 9bbd fa00 f0bc 1138 843d 0ceb 3b3d
000003b0: f639 22bd 351c 8d3b 7eda 76be e3b3 efbc
000003c0: 359c 983d dabd d73d 9390 55bd c9c6 a73d
000003d0: 936d 873b 3875 37bd cf78 23bd ab8f 123d
000003e0: 0866 b63c 8133 fabd d7e3 03bd 8603 9bbc
000003f0: cafb 6dbd 619c 16bd 0e4d 81bb 0670 8fbc
-0.024426661 -0.05094828 0.07196731 0.0278005 -0.060637217 -0.12613133 -0.14286235 -0.020626426
0.005411878 -0.040905297 0.043756507 -0.056603808 0.06671668 -0.07592888 -0.057328597 -0.048223034
-0.04245884 0.021078594 0.055686273 -0.07506263 -0.030345667 -0.05351802 -0.017672606 0.057716005
-0.11254381 0.03806118 0.00799454 0.08773852 -0.058533143 0.030490927 -0.09330845 -0.02939064
-0.08372477 0.008056425 0.062328987 0.026772834 0.043254144 0.051160075 -0.020178594 0.056920074
-0.09742978 -0.007629387 -0.0048720837 0.026092857 0.07256823 0.04824909 0.017123729 -0.07614212
-0.06521882 0.084587894 -0.06099508 -0.060674362 -0.039647467 0.04255353 -0.060598843 -0.032641154
0.009840943 -0.04053676 -0.001233995 0.07416498 -0.04204971 0.016864717 0.023503266 0.0878671
-0.05432837 -0.068166025 -0.04580309 -0.05918176 0.036131337 -0.026520979 0.071740784 -0.07376338
-0.12555407 -0.0318038 -0.0977339 -0.013608679 0.029334798 -0.036137424 0.05933378 -0.026702113
-0.031212173 0.03234823 -0.054403014 0.06579002 0.07844616 -0.055122714 -0.026108403 -0.027254619
0.053746965 0.06682178 0.0090415925 -0.061431307 0.031402297 -0.15412451 -0.071682006 -0.03530023
0.0022481307 0.05370695 -0.0020445716 -0.07706846 0.009553742 0.010034725 0.015407369 -0.058539145
-0.06501623 -0.003950119 0.06856633 -0.07460798 -0.08716677 -0.08137905 -0.09482389 -0.054843817
0.071295656 0.04404915 -0.022244401 0.03458686 -0.033523813 0.07808194 -0.015014298 0.050641753
0.0021055117 -0.012853332 0.05587464 0.0003869608 -0.09221156 0.008518756 0.025842167 -0.06375559
-0.07111801 0.062448792 -0.04661666 -0.13410358 -0.0021018987 -0.0068986095 -0.141826 -0.046747558
0.040763974 0.0014044325 -0.108285815 -0.08693024 -0.0490281 0.11598417 0.12797335 0.049672857
0.0725247 0.06823134 -0.15179388 0.033790033 -0.029542085 -0.24174637 0.1138862 0.05910971
0.038311407 0.14880748 -0.026130581 0.07073442 -0.027291138 0.023675539 -0.1372699 -0.11209451
-0.015815979 0.009469613 0.09212359 0.04659197 -0.072474524 0.048680797 0.0451648 -0.07266405
-0.013853636 -0.15287499 0.059082814 -0.042707715 0.04491151 -0.030161168 0.012492205 0.014098711
-0.010436696 0.054796897 -0.084057696 -0.14883442 -0.03143045 -0.12328147 -0.020771319 0.023685964
-0.08463127 -0.017194476 0.039065637 -0.082149506 -0.12631796 -0.031269327 0.05038363 0.106178135
0.16598107 -0.002382051 -0.0728434 -0.030587276 0.08544241 -0.021307549 -0.05114012 0.09027207
-0.011284262 0.027964499 -0.101784155 -0.03682793 -0.12499495 -0.007884987 -0.106136546 -0.10342931
-0.0710369 0.023838472 -0.060266025 0.03016115 0.016674083 0.017224297 -0.026554938 -0.00700137
-0.0289088 0.13146262 0.05186935 -0.039386924 0.048884798 -0.063997805 0.06750833 0.037719693
-0.11937799 -0.060435407 0.043339293 -0.04608803 -0.1631643 0.042672582 -0.051807135 -0.09439267
-0.0759678 -0.02929734 0.06456006 0.045878455 -0.039606057 0.004306341 -0.24106786 -0.029260581
0.07451669 0.10534258 -0.05213983 0.08192212 0.0041329353 -0.044789523 -0.039910134 0.035781544
0.02226545 -0.12216855 -0.032199707 -0.018922579 -0.058101453 -0.03677023 -0.003945953 -0.017509472

linear2.bias f4 [64]
00000000: bb8f d2bc c700 5ebe 10eb 17be e202 46bc
00000010: ff7b 57be 2891 e1bb b37e 21be 3914 29bd
00000020: b31e b4bd cab5 cdbd d0e5 e2bc f6ca eebd
00000030: 9d2a 31bd 400b 23be 812c 41bd 6f47 9ebd
00000040: 0941 6fbd 194a 0dbe 711d ff3e ff41 c3bd
00000050: bcfb 99bc a299 d2bd 0d93 99bd b182 2fbd
00000060: 1a62 35be 0239 38bd 467b a0bc 8cd9 f2bd
00000070: 0a7a 92bd e6e9 0ebe 89fb 5fbd 8a8c 23be
00000080: 77cb e7bd ca05 fdbd 177d bbbd c16e edbd
00000090: 96b2 b4bd ea86 46bd 342a 40bd db81 04bd
000000a0: 99d8 28be 3e95 e2bd b906 6ebd a1f1 2dbe
000000b0: 179b ebbd 5b36 08be 2741 44bd 0338 953b
000000c0: 1934 cabd b204 f63d f104 57be b573 d7bc
000000d0: 4bab eabd 45fb a7bd e4f3 85bd 1632 bcbd
000000e0: f738 d2bd 3553 08be dc2a 8dbd 30b4 7abd
000000f0: 1595 74bc e312 02be a2e0 d9bd b36d 2abd
-0.025703302 -0.21679984 -0.14835763 -0.012085648 -0.21043395 -0.006883759 -0.15770988 -0.04127905
-0.08794918 -0.10044439 -0.027697474 -0.116598055 -0.04325353 -0.1592226 -0.047161583 -0.077284686
-0.05841163 -0.13797797 0.4982715 -0.09534072 -0.018796794 -0.102832094 -0.07498751 -0.042849246
-0.17713204 -0.044976242 -0.019590031 -0.118579 -0.07152183 -0.13956413 -0.054683242 -0.1597158
-0.11318105 -0.1235462 -0.09154718 -0.1159339 -0.08823125 -0.048468508 -0.046915248 -0.032350402
-0.16488875 -0.11063622 -0.05811188 -0.16986705 -0.115041904 -0.13301985 -0.047913697 0.0045537963
-0.09873218 0.12012614 -0.20997979 -0.02630029 -0.11458453 -0.08202223 -0.06540659 -0.09189241
-0.102647714 -0.13312991 -0.068929404 -0.061206996 -0.014928122 -0.12702517 -0.106385484 -0.041608524

linear3.weight f4 [3, 64]
00000000: 6eec fbbd f65f 1e3d 497c 4d3c d60b 023d
00000010: 0906 e4bc 96eb 5fbc e9b0 7ebd dbf2 033d
00000020: 1e45 87bc b2d8 183d ac93 cb3d fbd9 b1bd
00000030: 78c7 a5bc 580f c9bc 7e09 b2bc b280 7dbb
00000040: 253d de3c 014b b4b8 6a61 93be 7544 61bd
00000050: 9b79 323d b1e1 10bb f37d 8f3d 89d3 acbd
00000060: 0773 653d ae2a 36bc 4b3c 313c 2d38 b83b
00000070: cc7f ddbd bb8a 5dbd b51d 74bd ebd0 f3bc
00000080: b4b8 4dbd b224 853d 990d 20be 1ff6 3ebd
00000090: 4255 443e 48ea 7abd 3e54 a0bd 6111 1dbe
000000a0: 28e6 36be 7217 ee3d 53e5 7c3c d087 e9bd
000000b0: 369e 40bb 20ef 6cbd c09c 7abd 0a4f 4c3e
000000c0: 4620 88bd 074e 533e 6f89 a83c a72f 383d
000000d0: 5010 b3bd 3986 823d 6ac9 c4bc 994e 33bd
000000e0: 0d54 2a3d 9a5b cbbd 8099 e4bc f895 3d3d
000000f0: 5381 f8bc 7618 413d 5a96 b0bd c039 ca3d
00000100: f249 29bd 5c01 24bd b2a8 93bd 7222 d8bc
00000110: 19b1 fc3d 3881 2fbd 8392 26be db43 ff3b
00000120: f2de 7cbd b270 96bc ceff 993e 5196 3bbb
00000130: 7696 b23d b363 85bd 7d73 943d 05e6 90bc
00000140: f63c b6bd 5e35 d8bc eb49 1cbe ee5d 3f3e
00000150: 34b5 9cbd 81e6 6d3c ed79 86ba e849 543d
00000160: 00aa 253e d479 2cbd 7537 3e3d fde0 c33d
00000170: 167a a03d 4ea3 233e f8c2 333c e064 68bc
00000180: 0d4d 9fbc b093 963d b19e 113d b007 03bd
00000190: 0074 b63d 70a6 78bc 4c20 ca3d ef3d ddbd
000001a0: 9e2b fa3c 3e68 4bbd a972 e53b 6b97 d4bd
000001b0: 7eea e0bd a0cb ffbc 5019 fdbd 9a04 423e
000001c0: a34e aabb e8c1 053f d1aa 033e 2031 ffba
000001d0: 6fc4 91bd 3005 053c 740a 3d3c 8393 633c
000001e0: 5e9e df3d 5b6c 9b3d 33f3 e1bc ff61 99bb
000001f0: d7d1 153e b484 663d 6a04 18bd f565 7d3d
00000200: bbfc 03bd 68fc f63c 2060 733d c33f 5d3d
00000210: bd04 423e a88a 663d 95ae 0fbd eeac 573d
00000220: cf20 2a3d 4511 5bbd 3ded a93d 0cf5 e93b
00000230: 1871 d23d 2625 af3c c242 403c c9ec 133d
00000240: 95d4 bd3c 3a5d 4cbe bc1b 7bbe b887 8cbd
00000250: fefc ce3c 4683 383d 6b26 40bd dae0 1bbd
00000260: 8e4c f73d f09f aebc 346b 0b3d 3286 73bd
00000270: c411 c03d 48de 08be fa4b b73b a3eb be3d
00000280: fc8f aebd 3fc4 5fbd 58c7 e13b 8adf d2bd
00000290: 653e 343d 78e2 ec3c 3078 983d 7e1b a43c
000002a0: a29a 5dbe 10b7 18bd db65 9a3c 65e1 af3d
000002b0: 77bb 803d 9324 13bd 5028 fdbd 6bb0 8d3d
000002c0: d277 82bd 4e8e 833d b882 9fbc 1de7 afbd
000002d0: 004c 4c39 b31e df3d 0224 953d bd76 8d3c
000002e0: 00ce ecb9 74c2 623d 041b e4bd 3357 fe3c
000002f0: 20e6 72bd 1fdb b4bd 40a1 d23b fefa e0bc
-0.12300955 0.038665734 0.012541839 0.03174957 -0.027834909 -0.013667008 -0.062180433 0.032214027
-0.01651245 0.03731603 0.099402755 -0.086841546 -0.020236716 -0.02454345 -0.021733042 -0.0038681445
0.027128765 -8.5970394e-05 -0.2878526 -0.054996926 0.043573003 -0.0022107179 0.07006445 -0.08438785
0.0560179 -0.011118574 0.010817598 0.005621931 -0.10815391 -0.05408738 -0.059598643 -0.029762706
-0.050224975 0.0650114 -0.15630187 -0.046621438 0.19173148 -0.061258584 -0.07828568 -0.15338661
-0.17861235 0.116255656 0.0154355345 -0.11402857 -0.0029391176 -0.057845235 -0.061184645 0.19952026
-0.06646781 0.20635234 0.020573346 0.04496732 -0.08743346 0.06373257 -0.024021823 -0.04377613
0.041584063 -0.09929581 -0.027905226 0.0462856 -0.030335104 0.04714247 -0.08622427 0.09874296
-0.041330285 -0.04004036 -0.072099105 -0.026383612 0.12338466 -0.042847842 -0.16266827 0.0077900714
-0.061736055 -0.018364284 0.30077976 -0.002862353 0.087201044 -0.06513157 0.0724859 -0.017687807
-0.08898346 -0.026392635 -0.15262572 0.18688175 -0.07651749 0.014520288 -0.0010259725 0.051828295
0.16178131 -0.04210837 0.046439607 0.095643975 0.07835786 0.15980265 0.010971777 -0.014184207
-0.01944592 0.07352388 0.03555173 -0.031989753 0.08908844 -0.015176401 0.098694414 -0.108028285
0.030538376 -0.04965996 0.007002194 -0.10380443 -0.10982226 -0.031225026 -0.123583436 0.18947068
-0.0051973625 0.52249 0.1285813 -0.0019469596 -0.07117545 0.008118913 0.011538137 0.01389015
0.10918878 0.075890265 -0.027581787 -0.0046808715 0.14630829 0.0562789 -0.037113585 0.061864812
-0.032223444 0.030149654 0.059417844 0.054015886 0.1894712 0.056284577 -0.035078604 0.052655153
0.041535195 -0.053483266 0.08297203 0.0071398076 0.10275477 0.021380018 0.011734666 0.036114488
0.023172656 -0.19957438 -0.24522299 -0.06861824 0.02526712 0.045047067 -0.04691164 -0.038056232
0.120751485 -0.021316499 0.034037784 -0.05945415 0.093783885 -0.13366044 0.005593774 0.09322288
-0.085235566 -0.054630514 0.0068902187 -0.10296543 0.044004817 0.028916582 0.07444799 0.02003264
-0.21641019 -0.037283957 0.018847397 0.085879125 0.06285756 -0.03592355 -0.123612046 0.06918415
-0.0637051 0.06423627 -0.019471511 -0.08589003 0.00019483268 0.10894527 0.072822586 0.017268533
-0.0004516691 0.055361226 -0.11137965 0.03104744 -0.059301496 -0.088308565 0.006427914 -0.027463432

linear3.bias f4 [3]
00000000: 6dda 2dbe a02e 05bf a8eb a3be
-0.16977854 -0.5202427 -0.3201573
