model_backup_560.pth (torch, 42271 bytes, 6 tensors)

linear1.weight f4 [128, 11]
000000 65 63 21 be d3 94 26 be ac 46 47 be 50 3b 37 3d
       -0.15760572 -0.1626771 -0.19460553 0.0447343
000010 ed b0 c4 3d bb 4e 03 3d 43 fc 48 be 57 ea 80 3d
       0.096040584 0.032057505 -0.1962748 0.06294697
000020 9c 8b 0c 3e ea 8f 4d be 8e e5 85 be 24 b5 fd 3d
       0.13725132 -0.2007443 -0.261517 0.123880655
000030 f4 38 89 3d dc 8a 3d be 54 63 2a be 8a f9 35 be
       0.06700316 -0.18510002 -0.16639453 -0.17770973
000040 89 2e 5f be 44 20 94 be 06 22 a5 bd 04 91 72 bd
       -0.21795096 -0.28930867 -0.0806313 -0.05922033
000050 a1 86 85 be da 5e 47 be e4 1b 58 be 5b d0 d3 3d
       -0.26079276 -0.19469777 -0.2110439 0.10342475
000060 e0 72 1e bd d9 e6 23 3e c9 86 a2 bd ee 3c f0 bd
       -0.038683772 0.1600603 -0.079358645 -0.117303714
000070 22 33 84 be 80 f7 7f 3c b6 34 97 bd cc 60 bb bd
       -0.2582026 0.015622973 -0.07383101 -0.09149322
000080 a3 09 b8 be 8b c4 86 be c2 17 03 bf 51 be 73 be
       -0.35944852 -0.26321825 -0.51208127 -0.23803069
000090 fa fc a5 3b b3 e6 36 3d 62 0b b4 be 4f 37 86 3e
       0.0050655575 0.044653606 -0.35164934 0.26214072
0000a0 1c 3e da bc ed f1 a1 be 0e dc 20 bf b0 d7 23 3c
       -0.026640944 -0.31629887 -0.62835777 0.010000154
0000b0 c9 c7 9e 3e b8 6c 04 3f bc 6f 92 be a2 92 bf bc
       0.310118 0.5172839 -0.28600872 -0.02338535
0000c0 01 aa 86 be a7 a9 4b be a5 cd f5 be 02 03 03 be
       -0.26301578 -0.19888936 -0.48008457 -0.12794116
0000d0 85 07 13 be 29 33 2a bf fe e5 e1 be 7c 25 40 be
       -0.14358337 -0.66484314 -0.44120783 -0.18764299
0000e0 c5 a5 8f be a0 3a e3 bd f2 01 68 be 82 30 b8 bd
       -0.2805616 -0.11095166 -0.22656992 -0.08993627
0000f0 e8 d5 c3 bc a2 fc 33 be 7e aa ce bd 43 56 17 be
       -0.02390571 -0.1757684 -0.100911126 -0.14779
000100 d6 19 8a bd 48 e6 33 be 84 c2 a4 3e 4d 28 84 3e
       -0.06743209 -0.17568314 0.32179654 0.25811997
000110 de 15 d9 3d 8b a7 96 be 87 f6 0a be dc 6e e0 be
       0.10599874 -0.294247 -0.13570605 -0.4383458
000120 2d 39 0f bf 59 8c 7b be e9 bf 5e be ac 5c e3 bd
       -0.5594662 -0.24565257 -0.21752895 -0.1110166
000130 e1 ef cd be 90 ae a9 3d 01 5b 1a be 78 39 e3 3d
       -0.40222076 0.08285248 -0.15073778 0.11094946
000140 0a a0 b2 bd 15 de 92 3d e3 dd 8b be 40 9b 50 bd
       -0.08721931 0.07171265 -0.27317724 -0.050929308
000150 7b 85 3f be 9a 23 5b 3c db c1 b6 3c e2 72 09 bd
       -0.18703263 0.013375187 0.022309234 -0.033556826
000160 a6 7b 47 be c0 fc d6 bb 18 1f 64 3d 99 08 f6 3d
       -0.19480762 -0.006560892 0.055693716 0.120133586
000170 b0 6c a7 bd 2e ae 1e be 9e 12 8e bd db 15 7c 3c
       -0.08175027 -0.15496132 -0.06937145 0.01538607
000180 d9 5b 0a be 32 cb 78 be 75 68 aa be 60 06 3b 3f
       -0.135116 -0.24296263 -0.3328282 0.730566
000190 f1 9f ac 3e e7 ed e8 bd 17 26 94 bc 33 4b c1 be
       0.33715776 -0.11373501 -0.018084569 -0.37752685
0001a0 ce 76 18 bd 6d 3a ad be a1 f4 0a bf 71 73 19 bf
       -0.037222676 -0.33833638 -0.54279524 -0.59941775
0001b0 8c 7d d0 be bb fb eb be 3c 78 eb 3e ab 62 83 be
       -0.40720785 -0.46090493 0.4599017 -0.25661215
0001c0 89 91 95 be 93 e6 e0 3d a2 92 f4 3d 8a 03 82 be
       -0.29212597 0.109814785 0.119420305 -0.25393325
0001d0 08 02 8c 3d 55 a9 35 bf ff a4 2d be c5 55 b1 be
       0.06836325 -0.70961505 -0.16957472 -0.3463575
0001e0 d6 1b 0a bf 6c 79 6e bd a0 70 b1 bd 7c a8 2e be
       -0.53948724 -0.058221266 -0.0866406 -0.17056459
0001f0 3a 9f 06 3e 0d ac 0f be 74 2b 8a be f6 b2 02 be
       0.13146678 -0.14030476 -0.26986277 -0.1276358
000200 c0 64 90 3c 02 50 0f 3e 37 52 09 bd 8b 00 7d 3d
       0.017626166 0.13995364 -0.03352567 0.061768096
000210 9f 75 87 be 6e 33 b5 bd 1f 0d 1b be 60 f7 f1 3c
       -0.26456925 -0.088477 -0.15141724 0.029536903
000220 ac 7e fc 3d 44 96 72 3e 47 85 43 be 7c e2 63 be
       0.12328848 0.23690134 -0.1909381 -0.22254366
000230 a8 5d 90 be c9 ef 90 be 36 d2 6d be 0b 32 8f 3f
       -0.28196454 -0.28307942 -0.2322472 1.1187147
000240 85 72 23 be 86 91 ab be ef f9 17 bf 8d 38 b7 bf
       -0.15961654 -0.33509463 -0.59365743 -1.4314133
000250 79 4d ee be b4 37 bd be 9b 71 c4 be 38 e4 40 bf
       -0.46543482 -0.3695656 -0.38367924 -0.75348234
000260 ba 1b 56 bf f0 eb 0b bf 0a 68 90 3c 80 7e c0 bc
       -0.8363606 -0.5465689 0.017627735 -0.02349782
000270 84 e2 8f be 28 3f b0 3d 67 df c4 bd d8 6b 37 be
       -0.28102505 0.08605796 -0.09612923 -0.17912233
000280 b3 95 2f be 76 f3 3b be a3 f2 b8 bd ad 0e 4e bd
       -0.1714695 -0.18354592 -0.09030654 -0.050306965
000290 91 9d d9 3c 7c 79 82 3e 91 c6 7b be b2 e5 7f 3e
       0.026564391 0.2548331 -0.24587466 0.24989966
0002a0 51 74 5b be 38 2a c6 bd ce a3 35 be 2e ca a2 3d
       -0.2143109 -0.09676021 -0.17738268 0.07948719
0002b0 14 4d 8f be 30 72 2f bf 42 6e 27 bf 98 4e 44 bf
       -0.27988493 -0.6853361 -0.65402615 -0.76682425
0002c0 50 1c 13 3f 44 49 4a bc 37 68 de bc 42 95 31 be
       0.57465076 -0.012346569 -0.027149303 -0.17342094
0002d0 54 9c fe be 1d 8b 62 be ff e4 a7 bd 18 c8 74 be
       -0.49728644 -0.2212338 -0.081979744 -0.23904455
0002e0 91 df 67 be 1f 35 57 bf be cb 76 bf c7 03 79 3e
       -0.22643878 -0.8406543 -0.96404636 0.24317847
0002f0 54 68 66 be 77 6c 75 be 4a 45 28 be 5e d9 f7 bd
       -0.22500736 -0.23967157 -0.16432682 -0.121020064
000300 62 1d a4 bd f1 e5 07 bd e0 fe 6e be 3b 04 bf be
       -0.08013417 -0.033178274 -0.23339415 -0.37307915
000310 07 3e 9b bd 60 18 c4 be 6e ea f7 3d 6d e0 13 bf
       -0.0758019 -0.38299847 0.12105261 -0.5776432
000320 81 fd 8f be 3e 94 d1 3d 13 ac b4 bd 87 ca 88 be
       -0.28123096 0.10233353 -0.08821883 -0.26717016
000330 a1 15 27 bf 23 a5 b8 3d ec 30 8d be 49 5d fa be
       -0.6526738 0.09015872 -0.27576387 -0.48899296
000340 33 45 00 bf c0 7c fa 3d 82 d2 8b be 98 03 5c be
       -0.5010559 0.122308254 -0.27309042 -0.21485746
000350 6e 60 3c 3d 5c ca b0 3d 60 7b 77 3d 00 98 98 3b
       0.0459904 0.08632347 0.060420394 0.0046567917
000360 2e 86 4f bd 80 ed a1 bc 77 05 31 be a4 e1 32 be
       -0.050665073 -0.01976657 -0.17287241 -0.17468888
000370 99 ef 56 be 82 fa 21 3e 2b 2c 4c bb d0 3d 87 bd
       -0.20989837 0.15818217 -0.0031154256 -0.06603587
000380 64 a5 8d be ee c7 05 3d 45 db a3 3c 42 b3 96 be
       -0.27665246 0.03266137 0.020002017 -0.29433638
000390 38 20 82 3d bd 28 bb bc 4a dc a1 be 28 86 06 3f
       0.063538015 -0.022846574 -0.3161338 0.52548456
0003a0 b1 ec bc 3e 3e a7 a8 be 33 cd bb bd d2 f0 ea be
       0.3689933 -0.32940096 -0.09169998 -0.45886856
0003b0 6e 50 62 be 12 15 dd be c8 cd c8 be f4 d1 0a bf
       -0.22100994 -0.43180138 -0.392195 -0.54226613
0003c0 fa e7 36 bf d9 d5 7a bf 57 85 98 bd c0 4b 45 bd
       -0.7144772 -0.97982556 -0.074473076 -0.048167944
0003d0 d0 f8 b9 bc b4 84 87 bd 80 8b 7e bd 66 de 85 be
       -0.02270165 -0.06617108 -0.062144756 -0.2614624
0003e0 00 29 8c ba 7f b6 29 bd a1 49 8a bd 3b 79 65 be
       -0.0010693371 -0.041433807 -0.06752325 -0.22409527
0003f0 aa 4c 54 be ce ca 2a bc 92 e7 6a be 1d 07 c6 be
       -0.2073237 -0.010424329 -0.229399 -0.38677302

linear1.bias f4 [128]
000000 ee 3f 74 be 8a 37 1f be 33 7a 95 be 7e 8a 9b be
       -0.23852512 -0.1554853 -0.29194793 -0.303791
000010 12 64 02 bf 48 7b d1 bd f8 6b 1b bf aa 78 77 be
       -0.50933945 -0.10228592 -0.6071162 -0.24167123
000020 66 2d 6b be 6b df 98 bf 79 78 d3 be 46 74 dc be
       -0.22966537 -1.1943182 -0.4130285 -0.4305746
000030 61 31 d3 bd 40 43 cb be 47 42 13 bf 64 54 d3 be
       -0.10312153 -0.39699745 -0.57523006 -0.41275322
000040 ea 03 d4 be 45 46 f0 be c9 75 dc be ba 51 8a be
       -0.41409236 -0.4692861 -0.43058613 -0.27015477
000050 76 ba a6 be 0b 9c e2 be 89 3c 1c be e1 bf 72 be
       -0.32564133 -0.44259676 -0.15257467 -0.23706008
000060 27 57 3c 3f 85 c3 9d be 4d ce b3 be 88 7a 1b bf
       0.73570484 -0.30813232 -0.35118333 -0.6073384
000070 3a 54 71 be b8 00 61 be f2 02 a9 bf 58 d1 60 be
       -0.23567286 -0.2197293 -1.3204024 -0.21954858
000080 57 41 a9 be 02 f8 02 be 5d ce bc bd ad bf 8b bf
       -0.33057663 -0.1278992 -0.09219048 -1.091787
000090 10 15 be be b1 fb c9 bc 57 60 ce be 9a a0 2d be
       -0.37125444 -0.024656149 -0.40307876 -0.16955796
0000a0 f2 7c c8 be 03 52 e4 be 9a d5 90 be af d2 b0 be
       -0.39157826 -0.4459382 -0.28287965 -0.3453574
0000b0 de 71 11 bf 7b 53 2e bf 2d 50 3d bd 2b 8c 40 bf
       -0.5681437 -0.6809613 -0.04621904 -0.7521388
0000c0 b6 b0 ce be c0 94 ce be ca 7d 42 bf 0e 8e 2f be
       -0.40369195 -0.40347862 -0.7597319 -0.17144033
0000d0 28 e8 a0 be 21 c9 18 bf 2a 9e 85 be ee a4 c1 be
       -0.3142712 -0.596819 -0.26097232 -0.37821144
0000e0 b7 e9 c5 be 26 27 18 be 67 d6 9a be 16 77 14 bf
       -0.38654873 -0.14858684 -0.302417 -0.5799421
0000f0 16 05 e8 bd 65 3d ce be b6 77 cd be 73 5a 48 bf
       -0.11329095 -0.40281215 -0.40130395 -0.78263015
000100 8d 37 3d be c1 4c 44 be 85 61 9c bf ee 67 86 be
       -0.18478222 -0.19169904 -1.2217261 -0.26251167
000110 63 d8 f7 bd 36 35 21 be bb 1a c3 be 0c b9 34 bf
       -0.12101819 -0.15742955 -0.3810633 -0.7059486
000120 e2 b4 45 bf d3 8c 8b be cf df 3b bd 55 6d 08 bf
       -0.7722913 -0.27255878 -0.045867737 -0.5329183
000130 7b 22 82 be 7d c4 ef bd b3 4e 16 bf 7a 1d 85 be
       -0.25416932 -0.11707399 -0.58713835 -0.2599905
000140 eb d5 a5 be cd ed 07 bf d9 37 04 be d3 5a cf be
       -0.3238977 -0.5309723 -0.12911929 -0.4049898
000150 72 8e e9 be c3 00 1a bf 04 59 f9 be af 59 aa be
       -0.4561649 -0.6015741 -0.48700726 -0.33271548
000160 5d 5f 3a be e5 09 93 be 87 ec fb be 61 7b cf be
       -0.1820044 -0.28718486 -0.49203894 -0.40523818
000170 35 b5 1d bf cc fa d2 be ad ad 8b bf 7f e7 a2 be
       -0.61604625 -0.41206968 -1.0912377 -0.31817243
000180 fa 38 12 bf 72 ab 67 be fd f2 05 3d 9d 08 fc be
       -0.5711819 -0.22623995 0.032702435 -0.4922532
000190 d5 3c 3a be 97 12 0b bf 9f 13 09 bf 7e ab 8b be
       -0.18187268 -0.5432524 -0.53545564 -0.27279276
0001a0 b1 e1 ad be 6e 67 b4 be a0 ee ca be db 04 a4 bd
       -0.3396125 -0.3523516 -0.3963518 -0.080087386
0001b0 2c c4 38 be 8d f0 a5 be 99 a4 bf be 45 1e 5d be
       -0.18043584 -0.32410088 -0.37430266 -0.21593578
0001c0 ee e2 a8 be 44 4e f4 be b3 4c bb be a9 e8 c9 be
       -0.32985634 -0.47715962 -0.36581954 -0.39435318
0001d0 51 0f bd be 08 5c 91 be d3 c0 d0 be be 8f 65 bf
       -0.36925748 -0.28390527 -0.40772113 -0.8967246
0001e0 b0 e4 e7 be 48 c0 85 bd 83 b2 b7 be c7 ca 92 be
       -0.45291662 -0.06530815 -0.3587838 -0.28670332
0001f0 e1 64 d4 3c 93 ba 39 be c8 7c 18 bf be ea 65 bb
       0.025927009 -0.18137579 -0.595654 -0.0035082544

linear2.weight f4 [64, 128]
000000 6c 1a c8 bc 25 af 50 bd 99 63 93 3d e0 bd e3 3c
       -0.024426661 -0.05094828 0.07196731 0.0278005
000010 bb 5e 78 bd 92 28 01 be 82 4a 12 be c0 f8 a8 bc
       -0.060637217 -0.12613133 -0.14286235 -0.020626426
000020 20 56 b1 3b 50 8c 27 bd 06 3a 33 3d 65 d9 67 bd
       0.005411878 -0.040905297 0.043756507 -0.056603808
000030 c1 a2 88 3d 9a 80 9b bd 64 d1 6a bd 84 85 45 bd
       0.06671668 -0.07592888 -0.057328597 -0.048223034
000040 52 e9 2d bd 04 ad ac 3c 4a 17 64 3d 70 ba 99 bd
       -0.04245884 0.021078594 0.055686273 -0.07506263
000050 7a 97 f8 bc b6 35 5b bd 24 c6 90 bc 9e 67 6c 3d
       -0.030345667 -0.05351802 -0.017672606 0.057716005
000060 c2 75 8a be 0a e6 1b 3d 88 fb 02 3c 41 b0 b3 3d
       -0.27042967 0.03806118 0.00799454 0.08773852
000070 73 c0 6f bd 1c c8 f9 3c 80 18 bf bd a4 c4 f0 bc
       -0.058533143 0.030490927 -0.09330845 -0.02939064
000080 e4 77 ab bd 18 ff 03 3c ae 4c 7f 3d b4 52 db 3c
       -0.08372477 0.008056425 0.062328987 0.026772834
000090 42 2b 31 3d 3a 8d 51 3d 94 4d a5 bc 06 25 69 3d
       0.043254144 0.051160075 -0.020178594 0.056920074
0000a0 44 89 c7 bd f0 ff f9 bb 00 a6 9f bb b0 c0 d5 3c
       -0.09742978 -0.007629387 -0.0048720837 0.026092857
0000b0 a7 9e 94 3d d6 a0 45 3d 10 47 8c 3c 66 f0 9b bd
       0.07256823 0.04824909 0.017123729 -0.07614212
0000c0 72 91 85 bd 6b 3c ad 3d fa d5 79 bd ae 85 78 bd
       -0.06521882 0.084587894 -0.06099508 -0.060674362
0000d0 62 65 22 bd 9c 4c 2e 3d 7e 36 78 bd bb b2 05 bd
       -0.039647467 0.04255353 -0.060598843 -0.032641154
0000e0 e8 3b 21 3c e0 09 26 bd 00 be a1 ba f3 42 16 be
       0.009840943 -0.04053676 -0.001233995 -0.14673977
0000f0 51 3c 2c bd e0 27 8a 3c ec 89 c0 3c f2 d3 d2 3d
       -0.04204971 0.016864717 0.023503266 0.102943316
000100 6d 87 5e bd a1 9a 8b bd 05 9c 3b bd 93 68 72 bd
       -0.05432837 -0.068166025 -0.04580309 -0.05918176
000110 74 fe 13 3d 86 42 d9 bc d5 ec 92 3d dd 2c 64 be
       0.036131337 -0.026520979 0.071740784 -0.22282739
000120 3f 91 00 be b4 44 02 bd b6 28 c8 bd f0 f6 5e bc
       -0.12555407 -0.0318038 -0.0977339 -0.013608679
000130 88 4f f0 3c d6 04 14 bd fa 07 73 3d 64 be da bc
       0.029334798 -0.036137424 0.05933378 -0.026702113
000140 ac b0 ff bc bf 29 f4 bd b2 d5 5e bd eb bc 86 3d
       -0.031212173 -0.11922025 -0.054403014 0.06579002
000150 6c 2a 99 bd 5b c8 61 bd 4a e1 d5 bc 14 45 df bc
       -0.074787945 -0.055122714 -0.026108403 -0.027254619
000160 c7 25 5c 3d db d9 88 3d 30 23 14 3c 65 9f 7b bd
       0.053746965 0.06682178 0.0090415925 -0.061431307
000170 29 18 01 be d1 d2 1d be 04 ce 92 bd f9 96 10 bd
       -0.12606873 -0.15412451 -0.071682006 -0.03530023
000180 60 55 13 3b d2 fb 5b 3d 38 fe 05 bb 12 d6 9d bd
       0.0022481307 0.05370695 -0.0020445716 -0.07706846
000190 4c 87 1c 3c dc c1 12 be 30 6f 7c 3c be c6 6f bd
       0.009553742 -0.14331764 0.015407369 -0.058539145
0001a0 3b 27 85 bd 00 70 81 bb 81 6c 8c 3d 12 cc 98 bd
       -0.06501623 -0.003950119 0.06856633 -0.07460798
0001b0 7e 84 b2 bd 0f aa a6 bd 07 33 c2 bd e9 a3 60 bd
       -0.08716677 -0.08137905 -0.09482389 -0.054843817
0001c0 75 03 92 3d e2 6c 34 3d e4 39 b6 bc f4 aa 0d 3d
       0.071295656 0.04404915 -0.022244401 0.03458686
0001d0 44 50 09 bd 6d e9 9f 3d 88 fe 75 bc ba 6d 4f 3d
       -0.033523813 0.07808194 -0.015014298 0.050641753
0001e0 a0 fc 09 3b c8 96 52 bc ce dc 64 3d 00 e1 ca 39
       0.0021055117 -0.012853332 0.05587464 0.0003869608
0001f0 6a d9 bc bd 41 92 0b 3c f4 b2 d3 3c 4a 92 82 bd
       -0.09221156 0.008518756 0.025842167 -0.06375559
000200 52 a6 91 bd 4e ca 7f 3d 1c f1 3e bd 73 52 09 be
       -0.07111801 0.062448792 -0.04661666 -0.13410358
000210 18 67 63 3e bb 0d e2 bb a8 65 13 be 5e 7a 3f bd
       0.22207296 -0.0068986095 -0.14394248 -0.046747558
000220 20 f8 26 3d 80 03 88 3c f4 c4 dd bd 7b 08 b2 bd
       0.040763974 0.016603231 -0.108285815 -0.08693024
000230 b0 d1 48 bd 0c f9 14 3e 11 38 fc bc 94 5c c8 3d
       -0.0490281 0.14548129 -0.030788453 0.09783283
000240 c9 a1 b4 be 6b 84 b9 bd 90 a5 39 3c 6b 67 0a 3d
       -0.35279682 -0.0905846 0.011330977 0.033790033
000250 3e 02 f2 bc 9b 32 9d 3e 2b 3d e9 3d 06 1d 72 3d
       -0.029542085 0.3070267 0.1138862 0.05910971
000260 03 7b b5 3c fd 60 18 3e 6b c9 c7 bd fa d5 1a bf
       0.022153383 0.14880748 -0.09755214 -0.6048275
000270 aa 91 df bc 34 f3 c1 3c a0 6c 0b bc ce 91 e5 bd
       -0.027291138 0.023675539 -0.008509785 -0.11209451
000280 83 90 81 bc 70 26 1b 3c 4b ab bc 3d f1 b9 cc 3e
       -0.015815979 0.009469613 0.09212359 0.39985612
000290 ea a9 58 be 84 65 47 3d ba fe 38 3d e4 d0 94 bd
       -0.21158567 0.048680797 0.0451648 -0.07266405
0002a0 5c fa 62 bc 43 8b 1c be d2 00 72 3d c6 25 d6 3d
       -0.013853636 -0.15287499 0.059082814 0.104564235
0002b0 22 f5 37 3d f5 47 03 3e 1b ac 4c 3c e3 70 c4 be
       0.04491151 0.12820418 0.012492205 -0.38367376
0002c0 ad fe 2a bc b6 72 60 3d 95 e2 f8 be 0d 68 18 be
       -0.010436696 0.054796897 -0.48610368 -0.14883442
0002d0 73 ac 42 be 6e b3 f1 be 9d 28 aa bc a2 7c a5 3e
       -0.19011097 -0.47207206 -0.020771319 0.3232165
0002e0 29 53 ad bd 6e db 8c bc 4a 03 20 3d fb 81 8e 3e
       -0.08463127 -0.017194476 0.039065637 0.27833542
0002f0 7f 59 01 be 44 14 00 bd 11 5f 4e 3d 96 51 52 be
       -0.12631796 -0.031269327 0.05038363 -0.20538935
000300 f1 f6 29 3e 57 97 1f 3e c2 30 16 3e 74 f1 68 bd
       0.16598107 0.15585075 0.14667037 -0.056870893
000310 6e fc ae 3d 2b 8d ae bc ad fa b4 be a1 bc 43 be
       0.08544241 -0.021307549 -0.353475 -0.19114925
000320 91 12 17 3e ce 15 e5 3c 27 4c 69 3d e2 d8 16 bd
       0.14753176 0.027964499 0.05695739 -0.03682793
000330 5a fd ff bd 08 30 01 bc 1e 5e d9 bd bf d2 d3 bd
       -0.12499495 -0.007884987 -0.106136546 -0.10342931
000340 cb 7b 91 bd 76 38 15 bf 82 d9 76 bd 91 bb 03 be
       -0.0710369 -0.5828928 -0.060266025 -0.1286452
000350 3f 08 52 bc da 58 07 bd 61 38 8c bd c0 6b e5 bb
       -0.012819349 -0.03304372 -0.06846691 -0.00700137
000360 26 d2 ec bc 23 9e 06 3e f5 74 54 3d 2f 54 21 bd
       -0.0289088 0.13146262 0.05186935 -0.039386924
000370 d1 d3 d0 bd a2 01 e5 be 9b 59 86 be 81 fe d6 3d
       -0.10196651 -0.44727808 -0.2624024 0.104977615
000380 50 f8 91 3c 7e fe 87 bd 8b 84 31 3d cd c6 3c bd
       0.0178186 -0.066403374 0.043339293 -0.04608803
000390 8b 14 27 be 52 11 be 3c b8 33 54 bd f2 50 c1 bd
       -0.1631643 0.023201618 -0.051807135 -0.09439267
0003a0 1e 67 1a 3e fa 00 f0 bc 11 38 84 3d 0c eb 3b 3d
       0.15078399 -0.02929734 0.06456006 0.045878455
0003b0 f6 39 22 bd 35 1c 8d 3b 3d 80 a1 be e3 b3 ef bc
       -0.039606057 0.004306341 -0.3154315 -0.029260581
0003c0 35 9c 98 3d da bd d7 3d 93 90 55 bd 14 c5 eb be
       0.07451669 0.10534258 -0.05213983 -0.46048796
0003d0 93 6d 87 3b 38 75 37 bd cf 78 23 bd 8c ab ea bd
       0.0041329353 -0.044789523 -0.039910134 -0.11458501
0003e0 08 66 b6 3c 81 33 fa bd d7 e3 03 bd 86 03 9b bc
       0.02226545 -0.12216855 -0.032199707 -0.018922579
0003f0 ca fb 6d bd 61 9c 16 bd 0e 4d 81 bb 06 70 8f bc
       -0.058101453 -0.03677023 -0.003945953 -0.017509472

linear2.bias f4 [64]
000000 16 90 9b be 67 36 36 bf 17 45 1b bf af ea 17 3f
       -0.30383366 -0.7117676 -0.606523 0.59342474
000010 dd 92 b7 be 68 e2 fe be b7 d4 a1 be af f5 5f be
       -0.35854235 -0.4978211 -0.316076 -0.21871065
000020 b8 bc 49 be 13 ba a5 bd ea 78 3d be aa 65 8e be
       -0.19700897 -0.080921315 -0.18503156 -0.2781194
000030 f9 15 54 be 40 0b 23 be fd 03 52 be 5b 83 71 be
       -0.20711507 -0.1592226 -0.20509334 -0.23585264
000040 71 81 18 bf c8 4f 0a bf de d1 0f bf ff 41 c3 bd
       -0.5957251 -0.54027987 -0.56179607 -0.09534072
000050 3e eb 89 be 67 32 80 be 0d 93 99 bd b1 82 2f bd
       -0.26937288 -0.25038454 -0.07498751 -0.042849246
000060 1a 62 35 be 14 78 36 bc 46 82 35 be d1 07 8e be
       -0.17713204 -0.011137027 -0.17725477 -0.27740338
000070 a1 df 6b be 44 2a 98 be b6 44 dd bd 8a 8c 23 be
       -0.23034526 -0.29719746 -0.10804121 -0.1597158
000080 77 cb e7 bd 40 b3 85 be 17 7d bb bd c1 6e ed bd
       -0.11318105 -0.2611332 -0.09154718 -0.1159339
000090 27 b6 a6 bd 6f 3e 54 be 7c 59 91 be a0 fa 03 bf
       -0.081402116 -0.20726942 -0.28388584 -0.515543
0000a0 eb 3d e5 be 3e 95 e2 bd 74 50 26 bf 08 42 a8 be
       -0.44773802 -0.11063622 -0.6496651 -0.32862878
0000b0 aa b2 88 be 27 83 7d be d7 f7 ff bd fd 60 89 be
       -0.2669881 -0.24757062 -0.124984436 -0.2683181
0000c0 bf 0c 43 be 79 af ce be f1 04 57 be 83 47 c0 be
       -0.19047831 -0.4036825 -0.20997979 -0.3755456
0000d0 a5 00 64 be 46 28 9c be c4 b5 af be 37 0b c3 be
       -0.22265871 -0.30499476 -0.34318364 -0.38094494
0000e0 10 4f 5b be 24 e7 a6 be 59 bd 42 bf fe 7b 09 be
       -0.21416879 -0.3259822 -0.7607017 -0.13426206
0000f0 3e 6e cb bd 54 b1 19 bf bb db 7c be 83 49 f5 bd
       -0.099331364 -0.60036206 -0.24693196 -0.11976912

linear3.weight f4 [3, 64]
000000 c1 5d 13 3e 70 56 28 be c3 39 39 be fc 14 d6 bd
       0.14391233 -0.16439223 -0.1808844 -0.10453221
000010 09 06 e4 bc 3e 93 53 be c7 1b b8 3d b8 00 f2 3c
       -0.027834909 -0.20661637 0.08989673 0.029541358
000020 a4 23 19 3e 49 66 57 bd ee 98 80 3e fb d9 b1 bd
       0.14955002 -0.05258778 0.25116676 -0.086841546
000030 72 bf 05 be 58 0f c9 bc 7e 09 b2 bc b2 80 7d bb
       -0.13061312 -0.02454345 -0.021733042 -0.0038681445
000040 97 7e 31 bf de c2 5b 3e 2b 81 cc be 75 44 61 bd
       -0.69333786 0.21461055 -0.39942297 -0.054996926
000050 9e dc b8 3d 69 2f 20 3e f3 7d 8f 3d 89 d3 ac bd
       0.090264544 0.15643086 0.07006445 -0.08438785
000060 07 73 65 3d 4e 51 32 3e 20 a0 0e be 2d 38 b8 3b
       0.0560179 0.17413828 -0.1392827 0.005621931
000070 cc 7f dd bd bb 8a 5d bd d8 58 11 be eb d0 f3 bc
       -0.10815391 -0.05408738 -0.14194047 -0.029762706
000080 b4 b8 4d bd b2 24 85 3d 99 0d 20 be 1f f6 3e bd
       -0.050224975 0.0650114 -0.15630187 -0.046621438
000090 05 e1 a9 c0 99 f7 9b 3d 23 dc 0d 3c aa e7 4b bd
       -5.308718 0.07615585 0.008658442 -0.04978148
0000a0 a7 0d ea bc 72 17 ee 3d 33 16 aa 3e 34 b6 1d be
       -0.028570963 0.116255656 0.33220062 -0.15401536
0000b0 57 5d 18 3e 20 ef 6c bd 02 70 e4 bd 5b a4 02 3e
       0.14879356 -0.057845235 -0.11154176 0.12758009
0000c0 f5 f3 ef bd ba 09 f0 3e 6f 89 a8 3c 88 42 32 3e
       -0.11716453 0.4688242 0.020573346 0.17408192
0000d0 50 10 b3 bd 66 7a 50 3c eb e7 72 be 53 61 e3 3d
       -0.08743346 0.012724495 -0.23721282 0.111025475
0000e0 0d 54 2a 3d 56 51 d9 bd 93 30 35 3f bc b6 97 bc
       0.041584063 -0.10611217 0.70777243 -0.018519752
0000f0 bb 85 de bc d4 36 89 3e e7 07 9d bc 06 5a 4d 3e
       -0.027163377 0.26799643 -0.019168807 0.20053872
000100 38 21 e1 3d 17 9d 36 be 61 50 b9 ba 8b 85 9b 3f
       0.10992664 -0.17833363 -0.0014138335 1.2150129
000110 6b 7b ca bc 1a 86 68 3e 07 eb f4 bc e6 56 e2 bd
       -0.024717053 0.22707406 -0.029897226 -0.11051731
000120 bb 24 b3 3b 7f 06 53 bf fe 41 1f 3e cf 41 a9 bc
       0.005467025 -0.8243179 0.15552518 -0.020661263
000130 76 96 b2 3d b3 63 85 bd 7d 73 94 3d 81 10 03 3e
       0.087201044 -0.06513157 0.0724859 0.12799264
000140 b0 eb a9 be 6d 20 36 c0 7a aa 0d 3d ee 5d 3f 3e
       -0.33187628 -2.845729 0.034586407 0.18688175
000150 15 2b bc bd 3c 30 3d 3e ed 79 86 ba e8 49 54 3d
       -0.09187905 0.18475431 -0.0010259725 0.051828295
000160 00 aa 25 3e 9a 02 2e 3d 75 37 3e 3d a5 5d 81 bd
       0.16178131 0.04248295 0.046439607 -0.063166894
000170 aa bb a4 bd 4e a3 23 3e 04 db 5c bd e0 64 68 bc
       -0.080436066 0.15980265 -0.053919807 -0.014184207
000180 0d 4d 9f bc 56 a2 3b bd b1 9e 11 3d b0 07 03 bd
       -0.01944592 -0.045809112 0.03555173 -0.031989753
000190 43 12 87 3d 70 a6 78 bc ca 56 9d bd d6 a5 3f c0
       0.0659528 -0.015176401 -0.07682569 -2.9944968
0001a0 2a 87 68 bd 3e 68 4b bd e7 30 ce bd 6d 11 22 3d
       -0.056769527 -0.04965996 -0.10067921 0.0395674
0001b0 77 3f 22 3d cb 56 e9 bc 2e 9d 79 3e e7 57 23 bd
       0.039611306 -0.028483769 0.24376366 -0.039878752
0001c0 f9 4b ab 3d 90 9c a0 3d d1 aa 03 3e 24 8b c8 bd
       0.083641 0.07842362 0.1285813 -0.09792164
0001d0 6f c4 91 bd 33 20 dc be 9e 5d 00 3b d9 0e dd bc
       -0.07117545 -0.42993316 0.001958705 -0.026984619
0001e0 9e 2f b5 3d 32 6b 70 be 45 54 0f 3e 00 76 66 c0
       0.08846973 -0.23478392 0.1399699 -3.6009521
0001f0 83 8a 86 bd e4 d0 dd bd 69 89 88 bd 12 39 de bd
       -0.06569388 -0.10830858 -0.06666834 -0.10850729
000200 80 53 85 bc 2f d4 23 3d de 47 13 3d b4 15 d2 bb
       -0.016275167 0.039997276 0.03595721 -0.0064112786
000210 bd 04 42 3e a6 4e 3b c0 03 ee ec 3d 9f 2f 99 3b
       0.1894712 -2.9266753 0.11568835 0.0046748663
000220 72 5b ce bd 95 33 d4 bd fa 35 96 bd 0c f5 e9 3b
       -0.100760356 -0.10361401 -0.07334514 0.0071398076
000230 3d 0f 2c bd 26 25 af 3c 09 af 15 be c9 ec 13 3d
       -0.04200672 0.021380018 -0.14617552 0.036114488
000240 fd ed 59 bb 19 7a d1 bd 89 57 0e be b8 87 8c bd
       -0.0033253424 -0.102283664 -0.1390058 -0.06861824
000250 e0 8f 1d 3c 0a 5e 02 3e 6b 26 40 bd da e0 1b bd
       0.009616822 0.12731186 -0.04691164 -0.038056232
000260 8e 4c f7 3d 27 88 8e bd 34 6b 0b 3d 32 86 73 bd
       0.120751485 -0.06959563 0.034037784 -0.05945415
000270 c4 11 c0 3d 39 3d a3 3c 26 26 4f 3e a3 eb be 3d
       0.093783885 0.019926654 0.20229396 0.09322288
000280 fc 8f ae bd 3f c4 5f bd 58 c7 e1 3b 8a df d2 bd
       -0.085235566 -0.054630514 0.0068902187 -0.10296543
000290 94 5c 04 3c 78 e2 ec 3c c3 76 6d be 2e 8d e6 3d
       0.008078713 0.028916582 -0.23189835 0.11257397
0002a0 0f 36 42 be 10 b7 18 bd 67 7f 3b bd 86 36 2c bc
       -0.18965934 -0.037283957 -0.045775797 -0.010511046
0002b0 b3 2c a8 bd 93 24 13 bd 51 bd 4e 3e 70 6f 7b be
       -0.08211651 -0.03592355 0.20189406 -0.24554229
0002c0 7f 24 66 3c 15 c6 3d bf b8 82 9f bc 8a be 9d be
       0.014046787 -0.74130374 -0.019471511 -0.30809432
0002d0 78 eb d6 bd 8c 56 15 bd b0 8b b8 be 86 e1 0a be
       -0.10494131 -0.03645949 -0.36044073 -0.13562593
0002e0 00 ce ec b9 1b cc 3a bc d3 93 66 bb c2 be 50 3d
       -0.0004516691 -0.011401202 -0.0035183325 0.05096317
0002f0 a3 4a c9 bd a9 95 b8 be b5 43 47 be 59 35 85 3d
       -0.09828689 -0.36051682 -0.19459422 0.06504316

linear3.bias f4 [3]
000000 e4 e3 81 bf 56 11 dd bf 8c d7 84 bf
       -1.0147672 -1.7270916 -1.037828
